Assets/TFModels/FleeBehaviorWithJumpingSkill.onnx (onnx, 76114 bytes, 9 tensors)

action_model._continuous_distribution.log_sigma f4 [1, 2]
000000 1e 96 a5 bd 68 ba 48 bd
       -0.08085273 -0.049005896

action_model._continuous_distribution.mu.bias f4 [2]
000000 eb 86 e9 3c b0 6a 90 bb
       0.028506717 -0.0044072494

action_model._continuous_distribution.mu.weight f4 [2, 128]
000000 8d 82 ae bd 6b d8 ff 3b dc d4 60 bc ac 1c 8b bc
       -0.08520994 0.0078077815 -0.013722625 -0.016981445
000010 f8 25 85 bc 99 42 ed ba c8 1e 2e 3d 6d 71 ba 3c
       -0.016253456 -0.0018101513 0.042509824 0.022759164
000020 6f 91 51 bd d3 38 67 3c a6 3a f9 bc c7 b3 9c 3b
       -0.051164087 0.014112669 -0.030423474 0.0047821733
000030 af d2 6f bc d1 37 2a bd 89 f8 07 bd d8 ea 80 3c
       -0.014637633 -0.041557137 -0.033196006 0.015736982
000040 ea 2e e4 3c 90 83 75 3d fe e6 cc 3c 81 5b 48 bd
       0.027854402 0.05993992 0.02501249 -0.04891539
000050 8d e2 8e 3d a7 c0 71 bc 12 6e 8a 3c 52 8e 6d bd
       0.06976805 -0.014755405 0.016898189 -0.057997055
000060 20 d4 6e 3c 23 18 a9 bc ad 79 79 bc f2 67 5c 3c
       0.014576942 -0.020641392 -0.015226764 0.013452517
000070 04 08 66 bc 3c 74 90 3c 19 52 3f bc 7a 93 6b bd
       -0.014039997 0.01763355 -0.011677288 -0.05751369
000080 26 33 20 bd ea 9b 89 3d 13 d6 bc 3d 83 50 d3 3c
       -0.03911128 0.06719191 0.09220519 0.025795227
000090 6d b5 ab bc e7 3b 29 bd 92 5a 0b bd 2d 90 93 3b
       -0.020960534 -0.041316893 -0.03402192 0.004503271
0000a0 9a 58 74 3d ae 78 c1 bc 6e d6 8c bd 68 88 c6 3b
       0.05965481 -0.023617115 -0.06876837 0.0060587414
0000b0 f4 af 52 3c d2 84 b2 3a a5 62 d2 bc 1c e0 47 bb
       0.012859333 0.0013619906 -0.025681803 -0.003049857
0000c0 29 43 e7 3b 1b 29 25 3c 4a a5 13 ba f3 34 bb bc
       0.0070575667 0.010080601 -0.0005632235 -0.022852397
0000d0 13 da 0a bd 82 66 aa ba fa 64 2a bd 2f 77 71 bc
       -0.033899378 -0.001300052 -0.041600205 -0.014737888
0000e0 b9 b8 fc bc 4f 75 24 3c ce bf 0c bd 9a dc 61 bd
       -0.030849801 0.010037734 -0.034362607 -0.055142023
0000f0 28 e6 dc 3c 8c fd 2f 3c aa 4e 55 bc d3 11 dc 3b
       0.026965216 0.010741603 -0.013019243 0.006715992
000100 73 13 30 3d 2c 8a 5c bc 25 b3 bf 3c 6e 7a d8 3c
       0.0429873 -0.013460677 0.023400852 0.026425567
000110 64 f0 2a bd a2 de 66 bd 3f 59 eb 3c e3 28 a1 3c
       -0.04173316 -0.056364663 0.02872908 0.019672817
000120 97 85 38 bc c9 50 9c bd 63 53 2c bd 18 e4 8f 3d
       -0.011262319 -0.07632596 -0.04207171 0.07025927
000130 e8 9c 32 3c f6 02 b6 bc bd 45 ae bc df 52 c2 3b
       0.010901667 -0.022218209 -0.021273488 0.005930289
000140 5f 3e aa 3a aa 66 06 3d 95 e3 23 bd e1 fa d0 bc
       0.0012988559 0.03281275 -0.04001196 -0.025510253
000150 0f a6 94 3d 77 e7 cb 3c 63 e3 95 bd fa 6f 0e bd
       0.07258236 0.024890644 -0.07318761 -0.034774758
000160 33 eb 4a 3d 2c 27 48 3c bb b0 0f 3a 42 b4 cc bc
       0.04954071 0.012216371 0.0005481352 -0.024988297
000170 14 b8 9c 3d 39 8d e4 3c 31 6e ef 3c 77 87 cf bb
       0.076522976 0.027899371 0.029227348 -0.0063332873
000180 74 7f dd 3c 20 88 61 bc 98 fd 16 ba 35 3f 92 bc
       0.027038313 -0.013765365 -0.00057598343 -0.017852405
000190 29 d9 2e bd 24 44 4e 3d 92 65 a6 bd 86 ad 83 bc
       -0.04268757 0.050357953 -0.08124842 -0.016073953
0001a0 ee 98 8a bc ef 86 aa 3c f5 44 9d bc 18 b6 ce 3c
       -0.016918626 0.020816294 -0.01919792 0.025233313
0001b0 07 fb 8c 3d ca ec ba bb 99 4a 38 bd ba 3f 21 bd
       0.06883817 -0.005704497 -0.044993017 -0.039367415
0001c0 52 51 b4 3c 62 e3 99 bc 47 19 9f 3c f8 10 a2 3b
       0.022011433 -0.018785182 0.019421233 0.0049458705
0001d0 73 5e df bc 0c 69 90 bc dd 17 f1 bc 12 7c 1f bb
       -0.027266717 -0.017628215 -0.029430324 -0.0024335426
0001e0 fc 12 3e 3d af b5 6f bd 3e 97 34 bc 77 e9 dc bc
       0.046404824 -0.058522876 -0.011022387 -0.026966793
0001f0 9b a2 11 bd 27 51 17 bb 8f 9b 1b 3d 96 e6 9c 3c
       -0.035555463 -0.0023089142 0.03799015 0.01915292
000200 3b d5 0a bc fb 3a 8e 3c e1 3c fc 3b 77 dc 0e 3c
       -0.00847369 0.017362108 0.007697687 0.008719555
000210 a0 80 1f bd 34 ef 11 bd f6 c2 73 bc 48 ab 86 3c
       -0.038941026 -0.035628513 -0.014878025 0.016439095
000220 e6 e3 03 39 ad 19 ab 3d d5 98 9a bb 69 aa 0c 3c
       0.00012578032 0.08354507 -0.004717926 0.008585551
000230 31 a2 a2 bb 5f 0a b5 bc 21 74 54 3d b6 0d b7 bc
       -0.0049631824 -0.022099672 0.05186856 -0.022345405
000240 0f 7b f6 3c 61 19 b4 bc f1 e5 10 bd 48 81 f4 bc
       0.030087976 -0.021984758 -0.03537554 -0.029846802
000250 bc 7d ac 3c 6c 0e 16 bd c9 d6 0f 3c b5 49 e2 3c
       0.021056049 -0.036634848 0.008779236 0.027623037
000260 4b 0b 47 3d 8e 17 35 bc 78 53 1e bd e3 c8 b1 bc
       0.048594754 -0.011052979 -0.03865382 -0.021702236
000270 ba b6 1e bd d7 61 83 3c ec 35 07 bd 85 a5 08 bb
       -0.03874848 0.016037865 -0.03301041 -0.002085061
000280 df 70 ee bc ae 55 c5 bc a0 ca b3 3c de 91 05 3c
       -0.029106556 -0.024088707 0.021947205 0.008152453
000290 c6 e8 95 3c 33 e8 17 3d 59 9f f8 3c 96 35 35 3d
       0.018299472 0.037086677 0.03034942 0.044240557
0002a0 78 7d 01 bd b7 2d 0b 3d c8 d2 64 3d 17 f2 f8 3b
       -0.031613797 0.033979144 0.05586508 0.0075972187
0002b0 36 74 0e bd cf d7 e3 bc 40 09 b5 bc b6 18 05 3d
       -0.034778796 -0.027812866 -0.022099137 0.03249427
0002c0 a9 25 8c bd 50 46 b6 3c 41 33 30 bd a7 0c a4 ba
       -0.068431206 0.022250324 -0.04301763 -0.0012515978
0002d0 17 d0 ca bb 99 8f 05 bd 96 45 67 bc 1f a8 ab bc
       -0.006189357 -0.03260765 -0.014115712 -0.02095419
0002e0 7b e7 38 3c 50 70 1d 3b 95 bb 5e bc ad dd 8f 3b
       0.011285658 0.0024023242 -0.013594528 0.0043904395
0002f0 6c ca 97 3b 1a 98 6b 3d 39 cb 19 3d ea e2 02 bd
       0.004632285 0.057518102 0.037547324 -0.031954683
000300 e1 c3 55 3c da 12 f7 bc 19 29 d7 bc c7 8c 42 3d
       0.013047189 -0.030160356 -0.026264714 0.047497537
000310 28 15 09 bd 08 53 28 bd 19 c4 29 bd f4 2a a8 bc
       -0.03346744 -0.04109481 -0.04144678 -0.020528294
000320 5b 16 36 3d d1 e1 14 bc 69 69 ab 3c da 51 d5 3c
       0.044454914 -0.009087042 0.020924287 0.026040006
000330 94 b7 d2 bc cf 3a 2d 3d a7 6c ca 3b 49 e8 b8 3b
       -0.025722302 0.042292412 0.006177503 0.005642925
000340 d4 e2 cc bb b4 27 00 bd 03 77 ab 3c 5a a7 ab 3b
       -0.006252626 -0.031287864 0.020930773 0.0052384557
000350 b7 85 6a 3c 32 84 8e 3b 6c d8 ec bc a2 f3 13 3d
       0.014314107 0.004349255 -0.028911792 0.03612102
000360 7a 9e 5a bd 27 17 9e bc 86 11 32 3d c9 b6 2b bd
       -0.05337379 -0.01929815 0.043473743 -0.041922364
000370 ba 66 e3 3b 15 c0 14 bd ec 24 b5 3d 65 ab 26 bd
       0.006939736 -0.036315996 0.08844933 -0.0406908
000380 11 19 bf 3c 2b 98 28 3d 03 b1 af ba 8b 66 0a bc
       0.023327382 0.041160744 -0.0013404194 -0.0084473
000390 e2 2a 80 bd b6 54 64 3c a2 0d bb 3c fc dc 86 3d
       -0.06258179 0.013936212 0.02283365 0.06585118
0003a0 77 de d3 3b 1d 52 17 3d ee d4 8a bb d6 18 3e 3d
       0.006465729 0.036943544 -0.004236809 0.046410404
0003b0 ca 86 c1 bc 59 87 09 bc ad 3b 59 3c d3 0b 81 3b
       -0.023623843 -0.008394086 0.013258857 0.003938177
0003c0 05 bd 7b bc d5 41 e3 bb 01 70 60 bc 39 cc 3c 3c
       -0.01536489 -0.006935338 -0.013698579 0.0115233
0003d0 f7 31 4e 3b d2 00 02 bc 5b 7a 9c 3c d2 16 89 bc
       0.0031462887 -0.007934766 0.019101312 -0.016734514
0003e0 44 cd ae 3b 08 b6 09 3c 46 f5 2d 3d 4b 10 a8 bc
       0.005334528 0.008405216 0.04247024 -0.020515582
0003f0 91 6e 29 3d 66 15 c8 bc 3f 66 96 3c f0 cf 08 bd
       0.04136521 -0.024424266 0.018359302 -0.03340143

action_model._discrete_distribution.branches.0.bias f4 [2]
000000 27 38 b8 bc 24 38 b8 3c
       -0.022487713 0.022487707

action_model._discrete_distribution.branches.0.weight f4 [2, 128]
000000 34 16 09 bc e1 85 c2 bb ce f2 52 bc 63 38 46 3c
       -0.00836711 -0.0059363698 -0.012875272 0.012098405
000010 7c 53 80 bc 50 6c 6e bc ae a2 83 ba 96 e6 22 bc
       -0.015664808 -0.014552191 -0.0010042989 -0.009942671
000020 b2 c3 36 3b e0 33 bf 3b e3 89 cc bb 6a 82 ac bc
       0.002788764 0.0058350414 -0.0062420233 -0.02105828
000030 64 66 e8 bc 91 05 92 bc 89 16 dc bb bf b4 f9 bc
       -0.028369136 -0.01782492 -0.0067165536 -0.030481694
000040 49 18 b5 3a 5d f7 77 bc b5 8d b0 bc 5c 62 c2 bc
       0.0013816442 -0.01513466 -0.021551946 -0.023728542
000050 89 90 12 bd 31 23 b5 bc 2d 59 31 bc 27 1a de 3b
       -0.03578237 -0.022111507 -0.010824484 0.00677802
000060 e2 07 ae bb 38 78 1b bc 37 21 96 bc db 4c de bc
       -0.0053109983 -0.009489112 -0.018326385 -0.027136257
000070 c3 a7 ab 3a 7d 5f 64 3c 7e 81 c8 bc 25 60 3d bc
       0.0013096262 0.013938782 -0.02447581 -0.011558567
000080 6d a1 0a 3c 8c 7c ac bc 94 91 95 3b 48 34 b0 bb
       0.0084613385 -0.021055482 0.0045644734 -0.005377326
000090 75 1d 5b 3c cc f0 cf bb 92 c5 a9 bc d8 76 7f bc
       0.013373722 -0.006345844 -0.020724092 -0.015592299
0000a0 05 d8 c8 bb 8f c5 1b 3d 65 a3 24 3d 70 96 4a 3c
       -0.006129267 0.038030203 0.040194888 0.012364969
0000b0 ad eb 98 3b 32 7d 0f bd 2b 53 8b bb 9d 9f 4e bc
       0.0046667666 -0.035031505 -0.0042518578 -0.012611297
0000c0 dc 19 f2 bc d6 00 cc ba d1 5a d8 bc 4d db a8 bc
       -0.029553346 -0.0015564214 -0.026410492 -0.020612383
0000d0 35 1b 9b 3c 76 c1 22 bc 7e 3d 09 bc 61 e5 89 bc
       0.018933872 -0.00993382 -0.008376477 -0.01683301
0000e0 7c af 0e bd 75 5a 01 bc 4b d1 a2 3c ca 2b 83 bc
       -0.034835324 -0.007895102 0.01987519 -0.016012091
0000f0 5e a6 91 bb 42 e6 ab bc 9e ad 59 bb 40 31 e7 bc
       -0.0044448813 -0.020983819 -0.0033215056 -0.028221726
000100 86 5e d1 bc 4b c8 29 ba aa 1f 14 bd ae 15 4a 3b
       -0.025557768 -0.00064766844 -0.03616301 0.0030835676
000110 72 25 cd 3b a2 ef 5a bc 67 ab c8 bb 95 aa 63 3b
       0.0062605673 -0.013362797 -0.0061239484 0.0034739126
000120 21 e1 16 3c 7e 98 05 3d 30 91 1c 3d 52 ff 74 3b
       0.009208948 0.03261613 0.0382244 0.0037383628
000130 e5 62 04 bc 03 c1 6b 3c b6 4b 39 bc f8 21 a0 bc
       -0.008080219 0.014389279 -0.011309555 -0.019547448
000140 ef 45 29 3c 66 88 80 bc 26 62 4f 3b ee 6a 60 bc
       0.010331615 -0.01569004 0.0031644194 -0.013697369
000150 2c 2a a7 3b 63 40 22 bc 12 71 fd bc 64 07 35 bb
       0.005101463 -0.009903046 -0.030937705 -0.0027622813
000160 9f aa 00 3c 22 12 b8 bc db df de 3a d9 4e d1 bc
       0.007853179 -0.022469584 0.001700397 -0.025550293
000170 9c 0e b0 3b f9 91 53 3c 9f 92 9b 3b 21 92 a9 bb
       0.0053728353 0.012913221 0.004747703 -0.0051748906
000180 c7 4a b8 bc b9 04 48 bb 25 b3 82 bb c8 91 c7 bc
       -0.022496594 -0.0030520393 -0.003988641 -0.024361506
000190 9a 72 6f b9 e4 5d 8e bb 41 8d c9 3c bb fd a5 bb
       -0.00022835509 -0.0043446887 0.024603488 -0.0050656474
0001a0 52 3b 6d bc af d7 c6 bb 71 5b 9a bc 8a 1c c0 3c
       -0.014479475 -0.006068192 -0.01884243 0.023451108
0001b0 da b8 13 3c 01 c3 fb bb 10 d0 aa 3c 6a 13 37 bc
       0.00901624 -0.0076831584 0.020851165 -0.011174062
0001c0 8a df 4e bc 8d 96 06 ba a6 76 46 bc f0 a0 a0 bb
       -0.012626538 -0.0005134128 -0.012113249 -0.0049019977
0001d0 48 2a 47 bc c0 6f f7 3c 76 d9 72 bc 45 f5 e6 bc
       -0.012156077 0.030204654 -0.014822355 -0.028193126
0001e0 db 35 4f bc 37 af fd 3b 12 fc e8 bb d8 61 01 bd
       -0.0126471175 0.0077418345 -0.0071101272 -0.03158745
0001f0 d8 3a a7 39 f8 4e 1b bd 8a 1e 4f bc d6 f9 54 bb
       0.00031896564 -0.037917107 -0.012641558 -0.0032497547
000200 58 b2 2d bc 10 bf 0f bc 8c d7 d1 3b a8 79 42 3b
       -0.0106016025 -0.00877358 0.006403869 0.0029674564
000210 b5 9e 4f 3c 4f cf 4c 3c 18 3b ae 3b fe 64 8a b9
       0.012672116 0.012500598 0.005317103 -0.00026396656
000220 88 2b 94 bb b7 e9 4a 3b 2c f8 8f 3c 2e 14 25 3c
       -0.004521791 0.0030962059 0.017574392 0.010075612
000230 68 98 84 3c 2e a0 d8 3c 77 23 b4 3c be fa b9 3c
       0.016185954 0.026443567 0.021989567 0.022702571
000240 0a 5f 1b 3a 7a c4 8a 3c f5 a5 e0 3c 8d 30 56 bb
       0.00059269427 0.01693939 0.027422884 -0.0032682747
000250 b5 b5 70 3c 54 2f 90 3b 19 1a 7b 3c 4a ff 22 bc
       0.01469176 0.004400173 0.015326046 -0.009948561
000260 3e 30 07 3b ae ea 1e 3c cf 3e 60 3c 59 84 56 3c
       0.002062812 0.009699507 0.01368685 0.013093078
000270 68 ed 20 bb 11 29 4a 3a c2 85 0d 3c 4a dd 88 3c
       -0.0024555568 0.0007711808 0.008637847 0.016707081
000280 cc cb 03 ba e5 7a 31 3b 2a 72 dd 3b ac 38 e8 3c
       -0.00050276215 0.0027081307 0.006757994 0.028347336
000290 27 31 6c 3c 79 5d d5 3b c6 98 b0 3c 92 8c 5f 3c
       0.014416016 0.006511387 0.021557223 0.013644354
0002a0 4a e6 d3 3b b6 2f 7f bc e8 b9 12 bd 78 45 34 3c
       0.0064666616 -0.01557534 -0.035821825 0.011002891
0002b0 5b 5a e5 3b bc d4 aa 3c c2 03 8a bb 1d 80 15 3c
       0.0069992966 0.020853393 -0.0042118737 0.009124783
0002c0 4a 5c 15 3c 7b cb 53 3c 09 4d 05 3d 2e 09 bf 3c
       0.009116242 0.0129269315 0.03254417 0.023319807
0002d0 c0 75 68 3b 30 9c e5 3b bf f0 5c 3c ae fa 97 3c
       0.0035470575 0.0070071444 0.013485133 0.01855215
0002e0 51 c0 a9 3c d2 34 99 3c ca a1 c9 3b 2f f0 56 3c
       0.020721586 0.018701945 0.00615332 0.013118788
0002f0 c0 14 2b bc e5 11 72 3b dd 14 15 3b 85 9d cb 3c
       -0.010441959 0.0036936936 0.0022748031 0.024855385
000300 91 f1 4c 3b 7d 50 c1 3b 15 ab f1 3c 5a 2f 26 3c
       0.0031271914 0.0058994875 0.029500524 0.010143125
000310 4f 21 91 bb a0 d1 94 bb 86 dc 18 bb 78 2c d0 b8
       -0.0044290195 -0.004541591 -0.0023324802 -9.926496e-05
000320 86 84 d5 ba 7d 52 9f bc 77 1e 22 bc 14 94 c6 3a
       -0.0016290105 -0.019448513 -0.009894959 0.0015150332
000330 ed 7d 03 3d 9a ba 9e bc 59 05 81 3c 6d 3b 14 3c
       0.032102514 -0.019376088 0.01574962 0.009047371
000340 58 67 a0 3c 71 f1 c0 3c 2e a1 74 bb 6d 19 1c bc
       0.019580528 0.023552628 -0.0037327516 -0.009527546
000350 c9 26 71 bc 91 b5 f7 ba cd b9 c2 3c c4 aa 87 3b
       -0.01471872 -0.0018898715 0.023770237 0.00414023
000360 53 a7 e6 bb 0a 99 b1 3c eb ef 13 3b e7 73 76 ba
       -0.0070389896 0.02167942 0.0022573422 -0.0009401426
000370 1b d0 a7 bc 90 a9 a0 bb f9 ee 25 3c b8 d2 0b 3c
       -0.020484975 -0.004903026 0.010127776 0.008534126
000380 2d 19 a8 3b de 8b ea bb 28 f9 13 3c 24 7a f3 3c
       0.0051299543 -0.0071577867 0.009031571 0.029721327
000390 3a 29 8a 3c 89 ca 2d 3c 4a 1f 89 bb 4a 4f 3a 39
       0.016865361 0.01060737 -0.004184638 0.0001776788
0003a0 fd 67 8e bb 23 49 51 bb 2f 52 d4 3c 77 8e 14 bc
       -0.0043458925 -0.0031934462 0.025918094 -0.009067169
0003b0 d8 d6 8d bc d8 cf 91 bb 91 55 ba bc d5 2d a8 3b
       -0.01731436 -0.0044498257 -0.02274588 0.0051324167
0003c0 15 0c 11 bc 39 de d8 3c bb 2d d0 3c 7c e1 34 3b
       -0.008852978 0.026473152 0.025412431 0.002760022
0003d0 d0 22 da ba 40 bc e6 bc 06 ea 65 3c d4 e7 1c 3d
       -0.0016642455 -0.028165936 0.014032846 0.038307026
0003e0 d4 7d 06 3d ea 50 95 bb b2 7d 5d 3c 78 58 10 3d
       0.032834843 -0.004556765 0.013518738 0.03524062
0003f0 8a 31 02 3c e0 93 07 3d 12 e8 69 3c 68 4d dc 3c
       0.007946381 0.03310001 0.014276521 0.026892379

network_body.linear_encoder.seq_layers.0.bias f4 [128]
000000 63 ec 05 bd 2c d6 11 3c f1 05 3d 3a 74 be 06 bd
       -0.03269614 0.00890116 0.0007210663 -0.032896474
000010 09 62 80 bc 3b f2 77 bb f2 e6 9f 3c d9 c7 24 3d
       -0.015671747 -0.003783359 0.019519303 0.040229652
000020 9a 4e ae 3c 84 58 df bb 05 71 c0 3c c7 6b bd 3c
       0.021277715 -0.006815972 0.023491392 0.023122681
000030 ae 33 75 bb 54 73 36 3d e6 ab b9 3c c5 ac ef 3c
       -0.0037414837 0.04454358 0.022664975 0.029257188
000040 5f 70 36 3d 9d d4 6e 3c b1 c3 f4 3c 68 27 d8 3b
       0.04454076 0.014577058 0.02987847 0.0065964945
000050 a6 68 d6 3c 0e 8f cf 3c 97 93 8c 3b e6 7f 16 3d
       0.026172947 0.025336768 0.004290055 0.036743067
000060 bc c6 eb 3c e8 db bc bb 5c 02 15 3d fe df f8 3b
       0.028781287 -0.0057635196 0.036379203 0.0075950613
000070 24 39 2f 3d 37 46 fd 3c 9e 79 19 3c 97 37 6d 3c
       0.042779103 0.03091727 0.009367375 0.014478586
000080 96 22 02 3d 5a 09 5e 3d 4b 92 e4 3c 9b fb f2 3a
       0.031771265 0.054208137 0.02790179 0.0018538119
000090 bc a3 92 3c 19 8f 34 3d 03 62 8a bc 0a 8f 45 3d
       0.01790034 0.04408178 -0.016892439 0.048232116
0000a0 7a c6 9a 3c e8 95 16 bd 40 33 55 3d 4d 9f 41 3d
       0.01889347 -0.036764055 0.05205083 0.04727106
0000b0 e4 79 a0 bb e7 34 c6 3c 6f 8b 35 bc 04 8a 53 3d
       -0.004897343 0.024195148 -0.011080607 0.051645294
0000c0 48 77 e2 3c fe 62 89 3c d6 f5 00 3d 11 07 cd 3c
       0.027644768 0.016770836 0.031484447 0.025027784
0000d0 d5 40 b4 bc 68 a9 e6 3c 70 6c 16 bc 5c e5 20 3d
       -0.02200357 0.028156951 -0.009181127 0.039281234
0000e0 7d 1d ff 3b c5 98 b7 bc 68 e7 de bc 4c 69 1a 3c
       0.0077854977 -0.022411713 -0.027209952 0.009424519
0000f0 1c 32 c5 bc 71 8f 38 3b 70 23 60 3d 68 6d 85 3c
       -0.024071746 0.002816167 0.054721296 0.01628752
000100 7a 94 08 bc f7 6e e9 3c a6 1f f3 3c 80 c2 2c bd
       -0.008336181 0.028495295 0.029678177 -0.042177677
000110 f1 0c 18 bd 02 96 08 3a 5a eb 02 3c fc 3a 57 3d
       -0.037121717 0.0005210341 0.0079906825 0.052546486
000120 e6 0e 1a 3d 4c 4e 1f bd 44 e5 72 3c 6c 8d 9d bc
       0.037611865 -0.03889303 0.014825169 -0.019232474
000130 4e 5a b7 3b ed a0 89 bc d6 bd 74 3d 23 e8 21 bb
       0.005595482 -0.016800368 0.059751354 -0.0024705015
000140 8c df 26 3a 2c 88 91 3c 29 20 c5 bc dc 8e 41 3d
       0.00063657085 0.017765127 -0.024063187 0.047255382
000150 13 26 21 bd 66 60 79 3c 9e 52 16 3d 02 4c 00 3d
       -0.03934295 0.015220737 0.036699884 0.031322487
000160 1c 52 01 3d 4b a5 fd 3c 47 29 36 3c 5a b1 68 3b
       0.031572446 0.030962607 0.01111824 0.00355061
000170 c9 85 b6 3b aa b6 2b 3c 37 f5 52 bc fc e6 fc 3c
       0.0055701477 0.010480562 -0.012875847 0.03087186
000180 86 89 33 bc 39 45 85 bc 1e 9a 20 bc f8 c2 f2 3c
       -0.010958081 -0.01626836 -0.009802369 0.029633984
000190 84 80 16 3d d4 43 f0 3c d9 3f 73 3c b1 55 10 3d
       0.036743656 0.029329218 0.014846765 0.03523797
0001a0 58 9c 08 3c 59 5f e7 3c 44 80 0c bc a5 07 93 3d
       0.0083380565 0.028243707 -0.008575503 0.071791925
0001b0 c9 04 c0 3c 60 58 19 39 00 c9 4f 3c 5d 35 8c 3d
       0.023439782 0.0001462414 0.0126821995 0.06846116
0001c0 bc ce bd bc dc b0 01 3d 3d 87 2d bc 1c 43 e4 3c
       -0.023169868 0.031662807 -0.010591325 0.027864031
0001d0 52 fa 15 3d a3 aa 20 3d ea d7 14 3b 06 3a 66 bc
       0.036615677 0.03922523 0.0022711703 -0.01405192
0001e0 a9 ff 12 bc 97 94 bf 3b 07 dc 3a bd 23 8d bf 3c
       -0.008972087 0.0058465707 -0.04561999 0.023382729
0001f0 4b 4f c0 3b c5 c0 4a bb ce 3d 24 3d 5b 73 99 3d
       0.0058688275 -0.0030937654 0.040098004 0.074927054

network_body.linear_encoder.seq_layers.0.weight f4 [128, 9]
000000 2c 80 b2 3e 5b c2 35 be 08 59 c9 be 95 b6 59 bf
       0.34863412 -0.17749922 -0.39325738 -0.85044223
000010 87 46 c6 3d 97 3f 5c bf f8 1c b6 bd b9 0d a2 be
       0.09681421 -0.8603453 -0.08892244 -0.31651095
000020 f2 24 0e bf 08 e6 d8 3d 22 d5 97 3c 10 6c fd be
       -0.55525124 0.1059075 0.018534247 -0.49496508
000030 eb d4 8e be b6 2b 06 3d 5c 51 22 be fb 16 a6 3d
       -0.2789682 0.03275653 -0.15851349 0.08109852
000040 aa 2c e8 3e bc 5b 53 be 6f 7f 9a be ae 8e 8e be
       0.45346576 -0.20640463 -0.3017535 -0.2784323
000050 eb 29 88 3d 6d 44 97 3e f3 ef ed be ef 63 39 be
       0.0664862 0.29544392 -0.4647213 -0.18104528
000060 a5 7a c3 bd 3b 1f 20 be 8b e1 07 bf 63 56 3c 3e
       -0.09544877 -0.15636913 -0.53078526 0.18392329
000070 e8 e0 83 3e f4 ab 16 3e e3 5b 68 be 15 4c 4f be
       0.25757527 0.14714032 -0.22691302 -0.20243867
000080 7b 76 7a 3e b7 5f bc 3e 89 d6 db 3d d9 59 13 3e
       0.24459259 0.36791775 0.10734279 0.14389743
000090 c4 28 c5 3e ed 9b bb 3e 95 01 33 3e ad 3d 2b 3d
       0.38507664 0.366424 0.17481072 0.041806865
0000a0 d4 73 ba 3e a4 32 03 bf 24 0b 4b bd b3 a9 47 be
       0.36416495 -0.51249146 -0.04957117 -0.19498329
0000b0 70 6a 96 3e e7 45 1a 3e b1 63 2e 3c 5c 16 7a 3e
       0.2937808 0.15065728 0.0106438855 0.24422592
0000c0 03 c1 c6 3e fb 4c e8 bd be 6d 12 be f3 28 82 be
       0.3881913 -0.11342808 -0.14299676 -0.25421867
0000d0 a8 b4 88 bd 9f c5 97 be 34 17 b8 be 4f 20 5b 3e
       -0.066750824 -0.2964296 -0.35955203 0.21399044
0000e0 1c 95 a4 bd ef c7 04 3f 3f f2 1a be 6f 6f 69 bc
       -0.08036253 0.51867574 -0.15131472 -0.014247759
0000f0 44 7e b1 bd 39 19 be 3d 74 e2 a5 3e 4c 17 e1 3e
       -0.086666614 0.092821546 0.32399333 0.43963087
000100 bc af 26 be d8 d6 ed bc ba 62 84 bd ce ec da bd
       -0.16277975 -0.02903311 -0.06464143 -0.10689698
000110 36 f7 88 3e c9 4c 14 3f 2d 4a c8 bd 6d 19 3a bf
       0.26751107 0.57929665 -0.09779773 -0.72695047
000120 c8 b3 5d 3e 2b a1 42 3e 76 c8 38 3e 05 dc 87 3d
       0.21650612 0.19006793 0.1804522 0.06633762
000130 27 7e 01 bd c1 49 03 bf 58 95 05 3e 2e 95 51 3e
       -0.03161445 -0.51284415 0.13045251 0.20467064
000140 60 f2 b1 be dd 57 9d 3e 8c 8a d6 3d 9f 00 74 3e
       -0.3475523 0.30731097 0.104756445 0.23828362
000150 43 63 8f 3c 0f db c6 be 1f 6f da 3d 47 67 49 3e
       0.017503386 -0.38839003 0.10665726 0.19668303
000160 9d bf 08 3e 4c 56 5b 3c dc d4 fa 3e 23 e3 dc 3e
       0.13354345 0.013387274 0.48990524 0.43142042
000170 c8 7a 7c bd e8 b9 1f be ae 5a 0a bf b3 62 ee bd
       -0.06164053 -0.15598261 -0.54044616 -0.11639919
000180 2c 7a 6e bd 01 c2 12 3e 67 10 83 be 3b 82 31 3e
       -0.05822198 0.14331819 -0.25598451 0.17334835
000190 f0 75 45 3e e1 0f fe 3e ee 05 94 3e 75 b0 52 be
       0.19283271 0.4962149 0.28910774 -0.20575126
0001a0 42 18 04 bf f6 40 a1 3e c5 5c 0d bf b8 3c 2b bf
       -0.51599514 0.31494874 -0.5521968 -0.66889524
0001b0 34 dd 23 be 42 2d a3 be 66 ec 6d 3d d9 d9 b4 3e
       -0.16002351 -0.31870466 0.058086775 0.35322455
0001c0 d5 98 ae bd b9 6a 0a bf ba 7f a0 3d 45 9e a4 be
       -0.08525244 -0.54069096 0.07836862 -0.32152
0001d0 e4 6e e7 bd 74 1d c8 3e 53 ac 83 bd 97 89 ef be
       -0.113004476 0.3908497 -0.064293526 -0.4678466
0001e0 8a ba 06 3e f2 23 04 be e9 0b 21 3d 11 cb 7d 3e
       0.13157097 -0.12904337 0.039318 0.24784495
0001f0 fd 69 95 be 0d bf f2 bd 9a 0d 3d be 03 54 65 bd
       -0.29182425 -0.11852846 -0.1846222 -0.055988323
000200 03 49 62 bd 30 26 28 3f 61 46 2a 3f 50 b8 b3 be
       -0.05524541 0.6568327 0.6651364 -0.35101557
000210 b8 5c 3a bf 52 11 75 bd 85 aa d1 3d 97 bf f3 be
       -0.7279773 -0.05983097 0.10237602 -0.4760711
000220 64 f4 66 3e 33 0c 51 bf f6 e6 d3 3e 72 e6 93 bd
       0.22554165 -0.8165924 0.41387147 -0.07221688
000230 6e eb 59 be 76 22 4f bf bd 8b 3f 3e a3 ea 96 bd
       -0.21281216 -0.8091196 0.1870565 -0.07368972
000240 83 36 65 3e d2 b3 75 be b9 cd a4 3e 81 4c 54 3e
       0.22384076 -0.23994377 0.32188204 0.20732309
000250 57 34 2f be f7 99 a2 be 8e af 52 3f 3b 5f 5c 3c
       -0.1710981 -0.3175809 0.82299125 0.013450439
000260 8c 08 eb 3d a9 cd 0e bf ba 6d d6 3e f0 a1 2d 3e
       0.114762396 -0.5578256 0.4188059 0.16956306
000270 7a 19 c3 bd 85 9d 9b bd 5f a5 3c 3e ce 77 87 3e
       -0.09526344 -0.07598404 0.18422459 0.2645859
000280 24 c1 a3 3e ce 55 54 bd cf 16 b3 be 0d 8c eb 3e
       0.31983292 -0.051839642 -0.3497834 0.46005288
000290 2a 0f 47 bf 32 4c 03 be b6 4c ce 3d 32 29 bf be
       -0.77757514 -0.12822035 0.10073225 -0.37336117
0002a0 9e bf c8 be f1 2c c6 be 5c fd 4c 3f 24 c6 ec 3d
       -0.39208692 -0.38706163 0.80074096 0.1156123
0002b0 58 1e e3 bd a2 e6 b8 3e e5 2b b7 3e 18 af 1e be
       -0.11089772 0.3611346 0.35775676 -0.1549648
0002c0 bb f9 af 3e 3b 34 cb 3e ab 8e 30 3f 78 f9 c7 3e
       0.34370217 0.39688286 0.68967694 0.39057517
0002d0 35 9e 5a 3e 88 21 22 bd 3c c6 cb 3e 14 f8 e1 3e
       0.21349414 -0.03958276 0.39799678 0.4413458
0002e0 58 b7 20 bf 9d 44 f9 bd 62 e8 be bd 20 0e c0 be
       -0.6277976 -0.1217129 -0.09321667 -0.37510777
0002f0 99 68 9d 3d 09 00 2f bf 2f ae c9 3e d6 88 43 be
       0.07685966 -0.6835943 0.39390704 -0.19095168
000300 48 4c 15 3e 03 6e 41 3e a1 ec d4 3e 55 f1 6d be
       0.1457988 0.18889622 0.41586784 -0.23236592
000310 ef bd bb 3e fc 82 aa 3c dc 7b 4c 3e 54 b2 f4 3d
       0.36668345 0.020814411 0.19969124 0.11948076
000320 c5 04 7f be 67 dd b8 be fe ed d4 be 6f 10 ef be
       -0.24904163 -0.36106417 -0.41587824 -0.46692225
000330 de b7 b6 be cf 3d bc 3e a4 bd 64 bd 45 cb 9a be
       -0.35687155 0.36765906 -0.055844918 -0.30233207
000340 28 19 88 be e9 0b 04 bd 52 34 be 3e c6 26 fe 3c
       -0.26581693 -0.03223792 0.37149292 0.031024348
000350 d2 1d ca 3e 25 1d e4 be 39 cb 6b be fb 45 a7 3e
       0.39475876 -0.44553486 -0.23026742 0.32670578
000360 8b a8 ae 3e 16 6f 01 bd 47 27 92 be ff c8 2a be
       0.34112963 -0.03160008 -0.2854559 -0.16678236
000370 c2 5e 2a 3f 2e 89 21 bf 70 e8 59 be e5 ec 0f 3f
       0.6655084 -0.63099945 -0.21280074 0.5622085
000380 4e 62 35 bf e9 60 9b 3e 5c f3 68 bd bb bc 22 bf
       -0.70853126 0.30347374 -0.05687271 -0.6356923
000390 07 87 a9 3e 95 87 a5 3e c5 f5 10 3f 00 c4 43 3e
       0.3311083 0.32330003 0.56625015 0.19117737
0003a0 be 7e f8 3d 8b 8f a1 3e d3 5c 82 bc 5d 65 ba be
       0.12133549 0.31554827 -0.015913403 -0.3640546
0003b0 10 4d d8 3d fa 9a 99 3f 1f 67 b9 be 92 82 bc 3c
       0.105615735 1.200042 -0.36211488 0.02301148
0003c0 9e 4a e7 be 4d 50 91 3d f9 40 76 3e de f6 4a 3e
       -0.45174116 0.07095394 0.24048223 0.19820735
0003d0 f7 82 a3 3e c9 05 ee 3e 4a 1c c1 3d dd 46 c7 3c
       0.31935856 0.4648879 0.09429224 0.024325782
0003e0 bb 5e 75 be 00 2e 80 be d6 92 2f 3d 7f f5 56 be
       -0.23961918 -0.25035095 0.042864643 -0.20992087
0003f0 91 ec ea bd 0a 96 f4 3e 6a 55 03 be bb f9 cf 3d
       -0.11470903 0.4777072 -0.12825552 0.10155054

network_body.linear_encoder.seq_layers.2.bias f4 [128]
000000 cf 77 a4 3c 87 8a 5f bc 4f 19 ac bc 42 ae 0e bd
       0.02007666 -0.013643867 -0.021008162 -0.034834154
000010 8a fe 07 3d 8a e7 92 3c 09 6f 1a 3d 39 6c 09 3d
       0.03320173 0.017932672 0.037703548 0.033550475
000020 07 02 6c 3c a7 6b 1e 3d 4b 41 cb ba 18 39 f1 3b
       0.01440478 0.038676884 -0.001550713 0.0073615424
000030 f5 80 8c bb 0d 20 41 bc 83 2f 0d bc b0 b2 0c 3d
       -0.004287834 -0.011787427 -0.008617285 0.034350097
000040 dd 44 9e 3c ec 42 35 3d 75 6d e4 3c fd 5a e5 ba
       0.019319946 0.044253275 0.027884224 -0.001749843
000050 f9 51 50 3d 1a 38 01 3a e4 6a c8 3c 89 7e 46 3c
       0.050859425 0.0004929319 0.024465032 0.012115129
000060 4c 33 65 3a 88 32 b2 bc ff 08 e4 39 9b 85 0f 3d
       0.00087433006 -0.02175261 0.0004349425 0.035039525
000070 f4 de 55 3c 76 72 02 3c 60 90 93 3c 22 6d 01 3d
       0.013053644 0.00796186 0.01801318 0.031598218
000080 ae 7c d3 ba 17 ee 33 3d 2e 37 60 3d a5 e3 d3 3c
       -0.001613518 0.043928232 0.054740123 0.025865385
000090 3d d3 b8 bc 83 c5 93 3c ea 83 d4 3c 58 41 65 3c
       -0.022561664 0.018038517 0.025941808 0.01399263
0000a0 c6 6d fe 3c f4 dd c2 3c 68 c4 8b 3c 63 1a b6 bb
       0.031058203 0.023787476 0.017061427 -0.0055573448
0000b0 9c 46 09 3d 96 27 5f bb a3 0d 39 bc e0 a7 70 bc
       0.033514604 -0.0034050695 -0.011294755 -0.014688462
0000c0 c5 aa ea 3c 59 46 d6 ba f8 d6 ad 3c 87 61 bc 3b
       0.028645882 -0.001634787 0.02122067 0.005748931
0000d0 6a 5b 9c bc e2 1f 66 39 04 b0 e1 3b 95 df a4 bb
       -0.019086558 0.00021946387 0.006887438 -0.005031536
0000e0 9d 76 a9 ba 86 5b 71 3c d0 86 8c bc 1b 4d 9f 3c
       -0.0012929026 0.014731294 -0.017154127 0.019445946
0000f0 44 24 b8 3c 5c 66 4e 3c 9d 93 23 b9 a4 5f 22 3d
       0.02247823 0.012597647 -0.00015599882 0.03964199
000100 87 54 1e 3d f5 83 3f 3c 8e f5 da 3c dc 2f fc 3c
       0.03865483 0.011689176 0.026728418 0.03078454
000110 d0 8c 8b 3c 6b bd dc bb c2 09 8d 3c 83 f3 65 3c
       0.017034918 -0.0067364476 0.017216567 0.0140351085
000120 05 e0 d1 ba ab f8 71 bc 4c c7 01 bd 28 94 1b 3d
       -0.0016012198 -0.01476876 -0.031684205 0.03798309
000130 fe ae 19 3c a9 f5 0d bc 9f af bd bc d5 f5 79 3c
       0.0093801 -0.008664527 -0.023155032 0.015256365
000140 70 12 85 3c 70 20 54 3d c7 a0 0f bd 63 d6 62 bc
       0.016244143 0.051788747 -0.03506544 -0.013845059
000150 cd 60 23 3d 4f 8f 98 3c 12 48 1f 3d 3c 55 b1 bc
       0.03988724 0.018623022 0.03888709 -0.021647088
000160 cc 4c 82 3d b6 02 87 3c ab c2 b3 3c ca 0f f4 3c
       0.06362304 0.016480785 0.02194341 0.029792685
000170 e0 d4 21 3d 8b 48 02 3d 16 e3 52 3d ef ad 1a 3d
       0.039509654 0.031807464 0.051486097 0.037763532
000180 fb e2 8f 3c 24 93 fd ba 3b 39 ca bb 6c f5 87 bc
       0.017564287 -0.001934622 -0.006171373 -0.016596518
000190 ae 33 26 3b 27 27 0e 3d 9f bb d5 3c de 6d b9 3c
       0.0025360393 0.034705307 0.026090441 0.022635397
0001a0 26 ca 12 bd 7e 22 73 3c 81 d1 72 bc a0 1b 1e 3d
       -0.035837315 0.014839767 -0.014820457 0.038600564
0001b0 69 8d 42 3d a3 99 13 bd 18 46 ae 3b 10 6b 2e bc
       0.04749814 -0.03603519 0.0053184144 -0.010645643
0001c0 7e a1 e9 3c 45 8d f9 ba 17 71 16 3d d5 c3 bd bc
       0.028519388 -0.0019039294 0.036728945 -0.023164669
0001d0 da 7d 12 bd 3a 58 1c bd 23 3e 83 bc 0a 94 d4 b9
       -0.035764553 -0.038170077 -0.01602084 -0.0004054609
0001e0 63 d7 62 3d 65 e2 d6 bc 64 e8 e2 3b 09 d7 24 3c
       0.05538119 -0.026231 0.006924676 0.010061034
0001f0 df 50 d1 3c a7 b6 a4 3c c2 00 0b 3d ff 6c ef 3c
       0.025551258 0.020106627 0.03393627 0.029226778

network_body.linear_encoder.seq_layers.2.weight f4 [128, 128]
000000 8c 17 9e 3b 99 5b 9f bd 5a 5b 05 3e cb cf e9 bc
       0.0048245843 -0.07781143 0.13023129 -0.028541466
000010 7d d3 0a bc 9f 30 cf bd e2 9d 06 ba 20 10 12 bd
       -0.008473274 -0.101166956 -0.00051352207 -0.03565991
000020 a0 5d 51 3d cb 68 1d bd 63 14 ff bd f2 fc ae bd
       0.05111468 -0.038430016 -0.1245506 -0.08544339
000030 fe 7a 06 bd 38 a1 88 3e ff 4c af 3d 6d 10 d7 3d
       -0.03283214 0.266855 0.08559608 0.1050118
000040 01 34 a7 3d a0 91 c3 3d 78 9e 7f bd 2c 63 93 3d
       0.08164216 0.0954926 -0.062406987 0.0719665
000050 2f 80 00 3e ed f8 aa bd 4b 00 d8 bd b4 17 b2 bd
       0.12548898 -0.0834826 -0.10546931 -0.08695927
000060 0d 7c 1a be 31 13 39 3a 48 ae 40 39 d5 e9 66 bb
       -0.15086384 0.00070600497 0.00018375472 -0.003523459
000070 a0 e5 0f 3c e1 1d 15 3d 76 3d ad 3d 87 79 19 be
       0.008782774 0.036405448 0.08458988 -0.14987765
000080 e3 35 79 bc 94 68 bc bd cc e6 87 3d a7 8e 4c 3e
       -0.0152106015 -0.09199634 0.06635818 0.19976293
000090 a8 1c 12 bd b2 ab 82 3b dc 94 d8 bb 6e 3f 38 3c
       -0.03567186 0.003987753 -0.0066095423 0.011245592
0000a0 7c ba 9f 3b 05 93 5e ba 1a 7f 21 3e 11 24 55 3d
       0.0048745256 -0.00084905355 0.15771142 0.05203635
0000b0 6c 1c 9a 3d 30 87 7a bd 20 8e 8b bd 05 54 b2 bc
       0.07524952 -0.06116408 -0.068142176 -0.02176858
0000c0 09 21 2d bc 8f 60 19 be 67 b3 29 be 47 65 b9 3c
       -0.010566958 -0.1497824 -0.16572343 0.0226313
0000d0 d7 e1 fc 3d 89 a2 a0 3d 9b 49 af bd fb d1 9a bc
       0.12347763 0.07843501 -0.08558961 -0.018898955
0000e0 9e 79 e7 bd 77 38 44 3d e1 83 0b 3e 9a 60 bb bd
       -0.113024935 0.04790541 0.13624527 -0.09149285
0000f0 eb b1 92 bd cc 32 00 3e 9b e6 7b bd 2a e9 3f 3c
       -0.071628414 0.12519377 -0.06149922 0.0117133055
000100 56 64 58 3d 26 83 9c bd 25 8b 9b 3d e8 b5 92 bd
       0.052830063 -0.07642202 0.07594899 -0.07163602
000110 3e b6 3d bd b4 55 31 bd c3 e1 f0 bc 77 73 d9 3d
       -0.046316378 -0.043294623 -0.029404527 0.10617726
000120 31 4b d2 3d 78 c3 6e bd ab f3 f9 bc 9b 63 6c 3c
       0.10268248 -0.058291882 -0.030511698 0.014428045
000130 e8 b4 9d bb 59 fd c7 bd 7d 41 d1 3d 11 d4 40 3d
       -0.0048128255 -0.09765119 0.10217569 0.047077242
000140 7c 4e 99 bd aa 6a 4e 3d e9 a7 1a bc 45 ff 05 3e
       -0.07485673 0.05039469 -0.009439447 0.13085659
000150 69 46 b7 bd 1c b1 72 3c 96 14 d9 3c e4 a8 a9 bb
       -0.089489765 0.014812734 0.026499074 -0.005177604
000160 40 47 08 bc 4a 24 d5 3b d7 77 31 bc e5 f7 6b bd
       -0.008317769 0.00650457 -0.010831795 -0.057609458
000170 b1 f0 5c 3d 2b 86 fa 3d 7e 8e 29 be ec 2e 95 bd
       0.05394048 0.12232622 -0.16558263 -0.0728434
000180 29 f7 40 be 2b 0f ac bd 28 f1 05 bd 88 15 5a bd
       -0.18844284 -0.084013306 -0.032700688 -0.05324319
000190 85 15 ee 3d ee 07 5f bd a9 e3 00 3d f0 a1 d6 bb
       0.11625198 -0.05445092 0.031467114 -0.006550066
0001a0 ac 62 81 bd 0a 11 a2 bd 46 31 05 3e 9b 5b a8 bd
       -0.06317648 -0.07913406 0.13007078 -0.08220597
0001b0 6a b0 05 be 9c 4e 04 3e 44 fe d5 3c 79 de b1 bc
       -0.13055578 0.12920612 0.02612222 -0.021712529
0001c0 16 55 2d be 4e 22 31 bc ed 16 e8 bb 49 bd a8 3d
       -0.16926989 -0.0108114015 -0.007082811 0.08239228
0001d0 b7 22 61 3d 6d 0d 8d 3d 5f 25 6b bd 3c 69 a4 bd
       0.054964747 0.068873264 -0.057408687 -0.08027884
0001e0 f9 9b a6 3c 7f f1 3e 3d 38 31 3a bc 13 58 0b be
       0.020338045 0.046617027 -0.011364274 -0.13607816
0001f0 db af 28 3e b9 c9 eb 3d 51 53 1b 3c 1b 42 4f bd
       0.16473334 0.11513085 0.009480313 -0.050600152
000200 06 43 0c be 9f ca 04 be 69 19 02 be 47 ce 86 3d
       -0.13697442 -0.12967919 -0.12705006 0.06582313
000210 18 af d9 3b a8 9b 74 bd b9 9f d7 3c 13 9d 62 bd
       0.0066431873 -0.059718758 0.026321279 -0.05532558
000220 51 1a 44 3c 0e 41 4e 3e 5d 57 36 3d 2a 86 a8 3d
       0.011969165 0.20142004 0.04451691 0.08228715
000230 5f 05 78 3d 5a b5 e6 bd 25 0a 03 be 12 98 e5 bd
       0.060551997 -0.11265059 -0.12796839 -0.11210646
000240 9c cd 39 bd 4f 46 8b bd b4 e5 6f be df 7c 77 bd
       -0.0453621 -0.0680052 -0.23427469 -0.06042182
000250 4c ee 07 bd 29 ab a9 bd 26 e4 18 3d 99 a8 43 bb
       -0.033186242 -0.08284599 0.037326954 -0.002985513
000260 37 70 52 3a f7 1c 41 3c e4 6d 30 3c 72 e2 a4 bc
       0.00080275856 0.011786691 0.0107683875 -0.020127509
000270 81 01 47 3d af 04 03 3e 39 6e 98 3d f3 c9 5a 3b
       0.04858542 0.12794755 0.07442898 0.0033384531
000280 4c 08 45 bc 81 30 85 3c 71 66 0e bd 90 f3 67 3d
       -0.012025904 0.01625848 -0.034765664 0.056628764
000290 b0 8b 56 3c 50 c8 8b bd 4c 06 83 bd 6f 2b 29 be
       0.0130948275 -0.06825316 -0.063976854 -0.16520475
0002a0 2d 27 97 3d c9 13 22 be a9 98 09 bd c5 69 e1 bc
       0.07380519 -0.1582786 -0.033592854 -0.027516255
0002b0 41 cc 15 3c 23 11 05 be d3 a9 3d 3d 9b b8 39 be
       0.009142936 -0.12994818 0.046304535 -0.18136828
0002c0 67 e7 48 bd 95 bc 6f bc 57 22 6d 3c 9f 60 dd bc
       -0.049048807 -0.014632364 0.014473519 -0.027023612
0002d0 16 9d 5c 3c cb 6f 67 3c ee be ac bd 0e 20 68 bd
       0.013465187 0.014125775 -0.084348544 -0.056671195
0002e0 cf bc 84 3d 2e b3 65 bd 66 1d b7 3d 12 33 05 bd
       0.06481325 -0.056079082 0.08941154 -0.032519408
0002f0 89 7d ec 3d 53 e3 c9 3c 77 7b b2 3c 25 a2 8b 3d
       0.115473814 0.02464453 0.021787388 0.06818036
000300 71 4c c2 3b fb da da 3d 32 3b 51 bd 2a 40 1f bd
       0.0059295227 0.106862985 -0.051081844 -0.03887955
000310 60 c9 6f 3e b7 90 45 3e b9 db 3c bd bc 4b 5e bc
       0.23416662 0.19293486 -0.04610798 -0.013567861
000320 8a 94 d7 3d 15 58 ad bd ca 06 67 3d b3 45 f0 bd
       0.105263785 -0.08464066 0.05640296 -0.11732044
000330 3c 6b bb 3b 24 f9 51 3d c8 71 e5 bd b6 e7 e2 3d
       0.0057195704 0.05126299 -0.11203343 0.110793516
000340 0c c1 dc 3d df e8 ab 3d 24 94 8c 3c 09 bd 36 bd
       0.10779008 0.08394026 0.017160483 -0.04461387
000350 ce 20 b0 3d b1 26 a6 3d 9e ef 6b be f9 3c f0 bc
       0.08600007 0.081128486 -0.23040625 -0.029325949
000360 d2 3e e9 3d a1 2a 51 be 65 f3 e6 3c a1 fa a2 3b
       0.11388935 -0.20426418 0.028192231 0.004973725
000370 4e b9 97 bd 9b e6 d0 3d 5f be bf bd 1d c8 05 bc
       -0.07408391 0.102002345 -0.09362482 -0.0081653865
000380 0f 29 02 bd 1d c2 09 3e e6 c5 08 3e e4 ec 1f 3c
       -0.031777438 0.13452955 0.13356742 0.009761069
000390 07 12 0e be df 3d 70 bd da b7 8c be 93 0c d0 bd
       -0.13874064 -0.058652755 -0.27484018 -0.10158648
0003a0 19 89 0c 3e 5a a8 94 3c 77 72 b8 3b be 3d 5b bd
       0.13724174 0.018146683 0.0056288796 -0.05352568
0003b0 ff 29 fe 3d 6b 39 10 be 40 35 f8 bd 1b cb 54 be
       0.12410354 -0.14084403 -0.12119532 -0.20780604
0003c0 2d c7 4c be ea 7a 08 bd d9 ad 22 be 9b 08 bd 3d
       -0.19997855 -0.033320345 -0.1588663 0.09230157
0003d0 77 3f 95 bd 37 d9 87 3c 74 35 99 3c 71 aa ce 3d
       -0.072874956 0.016583068 0.018702246 0.10091103
0003e0 06 76 75 3d aa e5 1c bd ed e5 e5 3d e5 af 23 3e
       0.05992701 -0.038304962 0.112254955 0.15985067
0003f0 91 6d ac 3d 64 8b 8a 3c 65 17 94 bc 50 77 1b bc
       0.08419336 0.01691217 -0.018077562 -0.009488896
