Assets/TFModels/FleeBehavior2.onnx (onnx, 73916 bytes, 7 tensors)

action_model._continuous_distribution.log_sigma f4 [1, 2]
000000 c4 42 8c bc 27 d0 4c bd
       -0.01712168 -0.050003197

action_model._continuous_distribution.mu.bias f4 [2]
000000 18 68 dc bb 10 f5 17 bd
       -0.006726276 -0.037098944

action_model._continuous_distribution.mu.weight f4 [2, 128]
000000 c0 a5 45 3d 1e bd d7 bc 78 8d 83 bd 61 26 ab 3c
       0.048253775 -0.026335295 -0.064234674 0.020892324
000010 de b2 11 bd ba 06 34 3d 03 86 1d 3c a7 21 f0 3c
       -0.03557097 0.043951727 0.00961447 0.029312922
000020 36 03 ee bc 22 17 6a bd 64 d4 0f bd 81 fc 32 bd
       -0.029054265 -0.057150967 -0.03511466 -0.043697838
000030 5c 7a e1 bb 68 a0 b5 bc 87 07 e0 bb 2f f4 16 3d
       -0.0068810415 -0.022171214 -0.006836835 0.036853965
000040 21 53 1e bd a1 b5 f2 bb 89 d8 0d 3d 71 86 e2 ba
       -0.038653497 -0.0074069058 0.034630332 -0.0017282498
000050 fc 92 63 3c 96 46 1a bd 11 03 e6 3c 4f 67 4f 3d
       0.013890024 -0.037664972 0.028077634 0.050635632
000060 db d2 26 bd 31 7c 08 bd 96 02 e4 3c af 62 54 bd
       -0.04072843 -0.033321563 0.027833264 -0.051851925
000070 53 d0 87 3d f7 db 29 bd 99 26 c4 bc 88 c5 3f 3d
       0.066315316 -0.04146954 -0.023944186 0.04681924
000080 59 60 f6 bc 22 5c 1c 3c 7d d3 2b 3d c1 6a 06 3d
       -0.030075239 0.009543451 0.041949738 0.032816652
000090 e1 de 0a bd 3f 1a 32 3d c0 d5 f0 3c 26 d0 82 3d
       -0.03390396 0.04348206 0.029398799 0.063873574
0000a0 a2 62 29 bd 4a f4 91 bc e9 86 1d 3d 12 0e 4e 3d
       -0.04135383 -0.017816681 0.03845874 0.050306387
0000b0 14 6a 85 3a 81 41 ba bc 86 08 3d bb 3d 86 14 bc
       0.0010178708 -0.022736313 -0.0028844192 -0.009065208
0000c0 34 99 48 3c 60 e4 c5 bc b4 44 4a bd 4b 99 94 3d
       0.012243558 -0.02415675 -0.049381927 0.07255801
0000d0 4a ce 3c bc 14 a5 8e bd 60 a8 60 3d b4 e6 54 bc
       -0.0115237925 -0.0696508 0.054848075 -0.012994457
0000e0 10 b1 43 3d 9f a9 46 bc 15 65 fc 3c ac 01 c0 bc
       0.04777628 -0.012125402 0.030809918 -0.023438297
0000f0 d3 32 57 3d 7d 1d d9 b9 9c 7c 04 3b 21 6f 46 3d
       0.052538704 -0.00041411436 0.0020215875 0.048445825
000100 d9 7c 24 bd e0 4f c1 b9 85 85 6c bd ea 3d 11 bd
       -0.040158127 -0.0003687134 -0.05774452 -0.035459436
000110 cd 21 cd bb 60 b7 71 3c 7c d5 db bc b6 1b e2 bc
       -0.006260133 0.014753193 -0.026835196 -0.027601104
000120 fb 60 87 bc be 24 d9 3c 3f 6b 00 bd e7 85 32 bc
       -0.016525736 0.026506778 -0.031352278 -0.010896183
000130 75 90 9d bd 34 ea b1 bc ab 96 5b 3b 9d 38 2d 3c
       -0.076935686 -0.021718122 0.0033506553 0.01057258
000140 40 6e e8 bc 4c d8 ae bc 8c 56 75 3c 24 36 25 3b
       -0.028372884 -0.021343373 0.014974248 0.0025209272
000150 80 1b b0 3c 09 9c ba bc f1 f2 5c bd 38 59 ce bb
       0.021497488 -0.022779481 -0.053942624 -0.006297257
000160 eb 8d 15 3d 97 0a 54 bd 05 2a ab 3b 56 e3 87 bd
       0.036512297 -0.05176791 0.005223515 -0.06635158
000170 19 be 13 bd d0 9f ed bb 73 a2 df bc 13 a8 68 3d
       -0.036069963 -0.007251717 -0.027299142 0.056800913
000180 53 fa 72 bc 24 1f 44 bb 01 c6 02 bd e0 b9 db bc
       -0.01483019 -0.0029925788 -0.031927112 -0.02682203
000190 a4 4b 3a 3d 6d bd 66 bd c0 e0 89 3c 05 38 98 3c
       0.045482293 -0.056332994 0.016830802 0.0185814
0001a0 e7 05 2e bc f3 94 39 3b 61 0b b4 3c 46 d2 ec 3b
       -0.010621524 0.002831754 0.021978082 0.007227215
0001b0 8b 19 16 3d 80 96 61 3c 6b e8 59 3d 97 44 1f bd
       0.036645453 0.013768792 0.053200167 -0.03888377
0001c0 43 af 63 3d 1b 44 90 3c d3 dd 1a 3d 63 27 d8 3c
       0.055587064 0.0176106 0.037809204 0.026385969
0001d0 ed c7 d4 3c e9 f0 8d 3c 06 d6 99 bb 93 b8 7f bb
       0.025974238 0.017326789 -0.004694703 -0.0039019927
0001e0 f4 30 b7 3b dd e1 f9 bd 9e a1 99 bc 48 a1 f3 bc
       0.0055905525 -0.12201283 -0.018753823 -0.02973999
0001f0 02 60 7a bd d5 f6 8f 3d c9 7b a8 bc 0c 81 0f 3d
       -0.061126716 0.07029501 -0.020566838 0.035035178
000200 8a 8b a4 bc da 36 f3 3d a4 75 38 3d d3 2d ba bc
       -0.020086069 0.118756965 0.045034066 -0.022726929
000210 ec aa 3e bc 81 e5 f1 bb 48 47 38 3d 23 89 8c 3c
       -0.011637431 -0.0073820953 0.044989854 0.017155236
000220 d5 79 3d 3c d5 e6 c0 3c 41 20 04 3d 10 6a 90 3d
       0.011564692 0.02354757 0.032257322 0.0705148
000230 3e e2 be 3c 25 15 b3 bd e3 77 4c bd 01 14 8c bc
       0.02330124 -0.087442674 -0.04991902 -0.017099382
000240 a8 9d 5e bc d2 f8 3b 3a 54 6b 24 bd ac fe 28 bd
       -0.013587393 0.0007170561 -0.04014142 -0.0412585
000250 4d 1f 21 3d 98 38 7d 3c e4 83 0e bd c1 00 32 bd
       0.03933649 0.0154553875 -0.03479375 -0.04345775
000260 26 9a 6c 3b a0 66 5e 3d c6 43 af bd 0e 06 1a bd
       0.0036102622 0.05429709 -0.08557849 -0.03760343
000270 18 1a 55 3d f0 a8 d7 3c 52 4b 88 39 7f 20 17 3d
       0.052026838 0.026325673 0.0002599606 0.036896225
000280 68 87 1f bd db 4e 1b bb d8 8d a2 bc 6a d6 f0 bc
       -0.038947493 -0.0023698125 -0.019843027 -0.029399116
000290 0d ed 0d bd a9 ac 65 3d 36 7c dc 3c cf c7 23 3d
       -0.034649897 0.056072865 0.026914697 0.039985474
0002a0 79 25 f5 3c 5e d2 00 bd d5 e5 9e 3b 6b 5c d6 3c
       0.029925095 -0.03145062 0.0048491755 0.026167115
0002b0 ab 0a 21 3d c1 5d a2 3c be 32 42 bd 7d 21 b0 3b
       0.039316814 0.019820096 -0.047411673 0.005375086
0002c0 90 bc ab 3d 30 5d 99 bc 69 50 ea bb b0 89 47 3b
       0.08385575 -0.018721193 -0.007150699 0.0030447058
0002d0 60 b0 94 3c 74 47 8c bd d0 ae 0f 3d 34 90 67 bd
       0.018150508 -0.06849566 0.035078824 -0.056534007
0002e0 53 ad af 3c f5 2e 54 3d 25 04 c6 bc 5f 34 7d 3c
       0.021444952 0.051802594 -0.024171898 0.015454381
0002f0 3b 83 e7 3c fb fe e7 bc a4 0f 0b 3d 3b 22 7d 3d
       0.028260818 -0.028319826 0.033950463 0.061800223
000300 17 3e 92 bb 74 a0 8f 3c 3d 6d 86 3c 09 18 6d bb
       -0.004462968 0.017532565 0.01640951 -0.0036177656
000310 7b b0 ec bc 4a 1f dc 3d 85 28 5d bc d3 9c f3 3b
       -0.028892746 0.107481554 -0.01349843 0.0074344664
000320 f0 15 5b 3c 3a ff 12 3d 6a 49 68 bd 29 ca 6c 3c
       0.0133719295 0.035887934 -0.056710638 0.014452496
000330 53 95 88 bb 84 57 82 3d f5 3f 2c bb 40 11 96 3b
       -0.0041681915 0.063643485 -0.0026283239 0.004579693
000340 3b f8 84 3c 07 6d 0f bc 26 ad 42 3d 10 cd b1 3d
       0.016231647 -0.0087540215 0.04752841 0.08681691
000350 7a f5 4e 3d bd f6 ad bc 38 2a 87 bd 5e b8 c3 3c
       0.050527073 -0.021235818 -0.065998495 0.023891624
000360 61 45 ab bd 45 95 83 3c 26 71 21 bd 03 8d 6e 3d
       -0.08362842 0.016062388 -0.039414547 0.058239948
000370 10 70 67 3c b5 25 85 3c bc 96 9a 3d ed 0d 50 3d
       0.014125839 0.016253332 0.075482816 0.05079453
000380 5c 08 3a bd 76 c6 0b 3d 74 60 f2 3c e0 d2 27 bd
       -0.04541813 0.034124814 0.029587008 -0.04097259
000390 51 14 88 3c 8d 6f b9 bd 2e d2 8b 3d 99 18 3c 3d
       0.01661125 -0.0905448 0.06827198 0.045921896
0003a0 c8 3b 18 bd d4 9f 28 3d 87 fd 18 3d 26 62 88 bc
       -0.037166387 0.04116805 0.037351158 -0.016648363
0003b0 53 27 18 bd f9 a8 35 bd cf bf 84 bc f7 16 2b 3d
       -0.037146877 -0.044350598 -0.016204743 0.041769948
0003c0 c3 91 0a 3c 72 12 18 3d f8 8c 23 3b c1 6d 4e 3d
       0.008457604 0.037126966 0.002495585 0.05039764
0003d0 f1 80 9e bc 9f ae 23 bc 12 54 e9 bc d3 47 d4 ba
       -0.019348593 -0.009990363 -0.02848247 -0.0016195722
0003e0 45 5e 6d 3c c8 db f9 3c f9 9b 95 bd 09 f2 8c 3a
       0.014487808 0.030500308 -0.0730514 0.0010753284
0003f0 54 35 3f 3c 6a e9 72 3b bc e0 1d bd e5 ca b2 3c
       0.011670429 0.0037065395 -0.0385444 0.021825263

network_body.linear_encoder.seq_layers.0.bias f4 [128]
000000 ec 6c 20 3d 0e fc 8e 3d 71 01 ec 3c fb 76 87 3d
       0.039166376 0.06981669 0.028809281 0.066144906
000010 28 26 23 3d d0 de 30 39 8c 8f 49 bc 09 dd 36 bc
       0.03983131 0.00016867672 -0.012302291 -0.011161097
000020 5f d8 6a 3d 6d e5 92 bc b6 44 84 bc 2a 22 de bc
       0.057335254 -0.017931664 -0.016146045 -0.0271159
000030 14 93 22 3b bb ef a6 3c 8e 18 d0 bc c3 d9 ae bb
       0.0024806904 0.020377984 -0.025402334 -0.005336018
000040 41 6e 9a 3c 33 5c 13 3d 22 e0 12 3c 46 3b ca 3c
       0.018851401 0.0359766 0.00896457 0.024686467
000050 da 54 fa 3b 31 49 36 bd 2c 2a c8 3c 10 f0 8e bc
       0.0076395096 -0.044503395 0.024434172 -0.017448455
000060 0f 81 8a bc 52 6e a3 bc 7c 2c bf bc 51 27 e6 bc
       -0.016907243 -0.019950066 -0.023336641 -0.02809492
000070 fb 68 86 3b 59 ce 54 3b 7b 3f 4f bc 63 f6 0b 3d
       0.00410187 0.0032471626 -0.012649412 0.03417052
000080 08 8b 9b bc 59 43 74 3c aa c7 d1 bb d1 59 1d 3b
       -0.018987194 0.014908635 -0.0064019756 0.0024009834
000090 72 1e 90 bc b0 7b 8b 3a 1f 4a 9a 3c 55 32 0c bd
       -0.017592642 0.001064172 0.018834172 -0.034227688
0000a0 c6 cc e0 3c 9a 2e 66 3d 89 0a 40 3d 88 c4 a2 bc
       0.027441394 0.056196786 0.046885047 -0.019869104
0000b0 17 d8 93 bc 7f 24 bc 3a 1f 91 11 bc c2 b0 d3 bc
       -0.018047376 0.0014354138 -0.008884697 -0.02584112
0000c0 77 de d1 3c a4 38 e7 3c b3 cf 2a 3d a6 32 15 3d
       0.025618775 0.02822525 0.041701984 0.036425255
0000d0 b6 b7 45 3c a3 ea 3c bc 92 84 1e bc b7 bb 5b 3d
       0.012067726 -0.011530551 -0.009675162 0.053645816
0000e0 46 16 1f bd d0 86 63 3d 80 a1 b8 bb 63 d6 4e bb
       -0.0388396 0.05554849 -0.0056344867 -0.003156089
0000f0 18 e6 96 3d a4 68 00 bd 43 ab 66 3d 1f 13 c2 bc
       0.07368106 -0.031349793 0.05631567 -0.023690758
000100 35 db b2 3c 4e c2 42 3c 6e e8 22 3d bb 58 69 3d
       0.021833042 0.011887146 0.039772443 0.056969386
000110 ff 16 2f 3d 03 3b ce 3c aa dc bf 3c 9a 78 b3 bc
       0.04274654 0.025174623 0.02342065 -0.021908093
000120 6b 3a cb 3c e6 e9 0a bd bf 59 5d 3a 24 d3 1d bb
       0.02480813 -0.03391447 0.0008443854 -0.0024082148
000130 03 c4 d8 3c 28 d8 bc bc 45 e8 8e bc b7 18 b3 3b
       0.026460653 -0.02305229 -0.01744474 0.0054655927
000140 d4 13 12 3d 94 3d ef bc 39 3d 06 3d ab c7 d7 3c
       0.03566344 -0.029204167 0.03277323 0.026340326
000150 85 56 37 3d 5e b0 74 3c e8 05 66 3b 6d ab c9 bc
       0.044760246 0.014934627 0.0035098735 -0.024617875
000160 88 50 35 bd 21 50 32 3d 74 6d 04 3d 3e 1d 50 bc
       -0.044266254 0.043533448 0.032330945 -0.012702284
000170 c3 d8 75 3d 96 f5 14 3d 00 b3 80 3d af 2e a1 3d
       0.060021173 0.03636702 0.062841415 0.07870232
000180 9a b7 36 3d b9 8e 27 3c 1b 6b aa 3c 9f 39 3b 3c
       0.04460869 0.010226899 0.020803025 0.011427312
000190 29 c6 01 3c 76 d2 bc bb 1a 09 fd 3c a8 2e a2 bc
       0.00792078 -0.0057623936 0.030888129 -0.019797638
0001a0 ca 27 25 3d 95 84 08 3d 9c 8d 8f 3c cf 2e 28 3d
       0.04032115 0.033329565 0.01752358 0.041060265
0001b0 7e c4 8d 3d 92 82 49 bc c1 7a 11 3d 42 b3 80 bc
       0.069222435 -0.012299197 0.035517458 -0.015710477
0001c0 1f 59 11 3d f2 73 2a bd a5 6c a2 3c dc 74 90 3d
       0.035485383 -0.04161448 0.019827196 0.07053539
0001d0 16 25 0b 39 5d 95 ba 3c 9e ba e7 3c 03 91 2c bb
       0.00013269889 0.0227763 0.028287228 -0.002633155
0001e0 66 c5 fa bc 2e e8 a6 3c 5b 84 5e 3d c2 9f 00 bd
       -0.030611705 0.020374384 0.054325443 -0.031402357
0001f0 6b 10 ac 3c bf e8 a0 3b 20 3b 47 3c 87 51 5b bc
       0.021003922 0.004910558 0.012160093 -0.013386137

network_body.linear_encoder.seq_layers.0.weight f4 [128, 8]
000000 22 a0 b1 be 03 5f b1 be 57 fa f6 be 85 e5 92 3d
       -0.34692484 -0.346428 -0.4823787 0.071726836
000010 77 39 c9 bd 60 d9 a4 bd 78 8d 28 3d 54 ae de be
       -0.09825414 -0.080492735 0.04115054 -0.43492377
000020 eb 9d cf bc 20 7d 2b be 73 ba 0a be 31 44 5d 3d
       -0.025343856 -0.1674695 -0.13547687 0.05402011
000030 65 28 c6 bd a2 43 36 be 94 83 ef 3c 6a 81 ef 3e
       -0.096756734 -0.17799237 0.029237546 0.46778423
000040 c4 a2 a6 3d bb c3 23 bd ce 68 28 3e ef c2 c3 be
       0.08136514 -0.039981585 0.1644623 -0.3823466
000050 96 42 9d 3e 39 ee 96 3e e1 4e a1 ba f8 34 90 be
       0.30714864 0.29478624 -0.0012306833 -0.28165412
000060 fb eb 8a be 5f 3b 2c 3e cd 29 0f bf 43 70 2b 3b
       -0.27133164 0.16819523 -0.5592316 0.0026159442
000070 e7 23 04 bf f7 9d 98 3e da c6 0a bf b0 f7 a0 be
       -0.5161728 0.29808018 -0.54209673 -0.3143897
000080 8d 48 af be 44 cf 52 3e c6 60 8d 3e 9a 27 a0 bd
       -0.3423504 0.20586878 0.27612895 -0.078200534
000090 f3 d6 72 3d dc 25 0a be 72 e9 1d bf ea fa 56 3f
       0.059287023 -0.13491005 -0.61684334 0.83976614
0000a0 42 6e 0f be 81 ef 62 be 96 63 1c bf a6 26 3e be
       -0.14006904 -0.22161676 -0.61089456 -0.1856943
0000b0 69 82 d5 be 1e 4a 2f bf c6 56 6f be 40 90 bf 3c
       -0.41701058 -0.6847247 -0.23372945 0.023384213
0000c0 3e e6 2c 3e bc e4 28 bf 7e ea bb 3e 7f 90 0c 3f
       0.16884705 -0.6597402 0.3670234 0.54907984
0000d0 a3 be 66 3e fd dc e7 3e 5e cc bb 3e 21 66 21 bf
       0.2253366 0.45285788 0.36679357 -0.6304646
0000e0 de 27 35 be e2 94 b8 3e 06 3c a8 bc 6f e8 ae 3e
       -0.1769099 0.3605109 -0.020536434 0.34161708
0000f0 bb 98 65 bd 7d f8 56 bf 79 06 cc 3e 95 ad bc 3c
       -0.05605386 -0.83972913 0.39848688 0.02303199
000100 b1 97 17 bf c1 56 c9 be 9e 19 2e be d3 00 be 3e
       -0.5921584 -0.39324 -0.1700196 0.37110004
000110 34 b5 73 3e c2 c8 31 be ed 88 50 bf b7 b1 2f 3f
       0.23799592 -0.1736174 -0.8145893 0.68630546
000120 2e 5e 0c 3f 45 04 4a 3d 22 4f 17 be f3 9b 3e 3e
       0.54831207 0.049320478 -0.1477628 0.18614177
000130 0c d0 84 bf 4a e0 12 bf 4a 36 31 3d af 38 6e 3d
       -1.0375991 -0.5737349 0.043264665 0.058159526
000140 ce 16 81 3d bc 34 6a bd 09 15 8b be 29 91 e0 be
       0.06303178 -0.057179198 -0.27164486 -0.43860748
000150 fc 3c 16 3e 27 76 a2 bd 1a ee d3 3e 8a 57 e9 be
       0.14671701 -0.07932692 0.41392595 -0.455746
000160 b4 45 c8 3b 2e ed ad bd a8 6a 5e be ab 9e d7 3d
       0.006111825 -0.08492504 -0.21720374 0.105283104
000170 4f c4 6d be 98 28 25 3f 9f 91 2b 3e 5c 53 49 3d
       -0.23219417 0.64515066 0.16754769 0.049151763
000180 84 a0 d4 be 16 a5 c1 3e 95 36 2b be 84 47 dd 3e
       -0.41528714 0.37821263 -0.1672004 0.43218625
000190 28 26 2d be 56 04 29 bd 14 f9 26 bf 1d 86 a3 be
       -0.16909087 -0.0412639 -0.65223813 -0.31938258
0001a0 f1 47 16 bf 7b ba be be e1 52 07 3e b1 35 63 3e
       -0.58703524 -0.37251648 0.1321521 0.2218845
0001b0 d5 27 f9 3e 63 27 a2 be 59 fa f6 3e c8 f2 b9 3e
       0.48663202 -0.31670675 0.48237875 0.3631804
0001c0 55 1a 53 3e cb 09 f2 be bd f0 0f 3d 1f 52 29 bf
       0.20615514 -0.47273096 0.035141695 -0.6614093
0001d0 57 71 5f 3e 2a 79 e3 be c7 b0 c0 3d 15 d5 b2 be
       0.2182058 -0.44428378 0.094087176 -0.34928194
0001e0 e4 11 83 3d 6f 2a b2 bd 8b 83 a9 be bc 79 c3 be
       0.06399897 -0.086995 -0.33108172 -0.38178813
0001f0 ea 97 f8 be 3d 6a 9d 3d f5 69 1e bf 24 d2 37 3f
       -0.485534 0.07686279 -0.6188043 0.71805024
000200 8b fd cf bd d7 4b cc 3e a0 45 cd 3e 26 9f 42 3f
       -0.10155781 0.3990161 0.40092182 0.7602409
000210 1e 63 99 be 9d 1f 76 be 5c 64 83 3e c6 3f b3 be
       -0.29958433 -0.24035497 0.25662506 -0.35009593
000220 29 ce 0c bf d9 98 da 3e 01 b9 66 bf d3 b5 15 be
       -0.55002075 0.42694739 -0.90126044 -0.14620142
000230 61 e9 79 be 5a 53 a0 3d 23 1b 22 3f a0 af 9c be
       -0.24405433 0.07828398 0.6332266 -0.3060274
000240 74 32 79 be 36 3d 50 3d 6c 21 c0 be b0 a5 a0 be
       -0.24335653 0.050839625 -0.375255 -0.3137641
000250 b2 24 d0 bd 96 70 10 3e 41 71 40 bc c3 df b7 3e
       -0.10163249 0.14105448 -0.011745752 0.35912904
000260 12 19 47 be 67 c4 79 3d 38 9f 78 be 75 44 8e be
       -0.19443157 0.06097832 -0.24279487 -0.27786604
000270 78 65 32 3f 27 cb d4 3e 93 fc 6d bc e3 10 d6 bd
       0.6968608 0.41561243 -0.01452555 -0.1045244
000280 93 07 d3 be 79 b8 1e be e1 36 85 3d 71 75 02 bb
       -0.41216716 -0.15500058 0.06504608 -0.0019906426
000290 b9 a8 06 bf 2c f7 3b be ee 6e f5 3d fb ea f3 3c
       -0.526012 -0.18356007 0.11984049 0.029775133
0002a0 bd d4 ff bd 57 71 bb 3c 56 c7 a4 3e 6b c7 3a bf
       -0.124917485 0.022881193 0.3218333 -0.7296054
0002b0 9c 7e 9a be 50 04 13 bf 43 f4 1a be 45 b0 08 3e
       -0.3017472 -0.57428455 -0.15132241 0.13348491
0002c0 14 cc 22 3e aa 4f 79 bd 6f 7a cc 3d 34 2e 13 bf
       0.15898162 -0.06086699 0.0998429 -0.57492375
0002d0 2f 2a 80 3e c6 e7 e2 3c 28 b7 22 3f 24 8e fe bc
       0.25032184 0.027698409 0.63560724 -0.031073637
0002e0 22 72 8f 3e 5f 7c 00 bf f2 97 bb 3d 38 05 04 3e
       0.28016764 -0.50189775 0.09159841 0.12892616
0002f0 ef de 54 3e b9 ba 03 bf f6 19 c8 3e 0c 86 1b bf
       0.20788167 -0.5145679 0.39082307 -0.60751414
000300 48 5b 24 bf ac 62 b4 3e dc f8 b8 3e 5f 62 e2 3c
       -0.64201784 0.3523153 0.36127365 0.027634798
000310 cb d2 00 bf fa 1b 67 bf af c6 94 bf af 2a c6 3e
       -0.50321645 -0.90277064 -1.1623133 0.3870444
000320 45 30 4e 3c 32 6f bc 3e 00 2e f7 be 64 91 96 3d
       0.012584751 0.36803585 -0.48277283 0.0735195
000330 25 2c 69 3e 4e d5 dc be 9e 4d 3b bd 5b 23 9e be
       0.22770746 -0.4313149 -0.04572832 -0.3088635
000340 e2 3d ef 3e 92 fd d9 be 83 75 69 3d a2 67 66 be
       0.467269 -0.4257627 0.056996834 -0.2250047
000350 ae 53 98 bd a7 fc 42 bd e9 c2 3a bf da c6 aa be
       -0.07437836 -0.04760423 -0.7295366 -0.33354837
000360 6c 24 cc be 8d 3a 7c 3e 04 f1 e3 3e 8a 4f 86 3d
       -0.39871538 0.2463171 0.44519818 0.065581396
000370 59 29 b3 3e b3 70 86 be 2a e9 7d be ff 96 62 be
       0.34992483 -0.26257858 -0.24795976 -0.22127913
000380 62 34 19 bf d6 7e 3a bf 37 dc a3 bc fe 29 92 3e
       -0.59845555 -0.72849786 -0.020002468 0.28547662
000390 3f 9a f4 3e b3 ef 0f 3e 43 27 88 3d 31 4c c4 bd
       0.4777393 0.14056282 0.066481136 -0.09584845
0003a0 3e 3b c6 3e ff fc be be b0 e0 f6 3d 2b e8 d9 bd
       0.38717073 -0.37302396 0.120545745 -0.10639986
0003b0 54 d4 69 3d 4d db 7b bb 33 a3 c8 be 33 17 ee 3d
       0.057087258 -0.0038430274 -0.3918701 0.11625519
0003c0 4e 73 73 be e1 97 06 3e c2 4e 83 be bc e0 fc 3e
       -0.23774454 0.13143875 -0.25646025 0.4939021
0003d0 81 36 2b 3e 04 71 8e 3e a1 09 84 b9 1d 1a 98 bd
       0.1672001 0.278206 -0.00025184176 -0.07426856
0003e0 78 27 7b be fc e6 f5 3e af 4e 30 bd cf b5 82 bd
       -0.24526775 0.4802779 -0.04304379 -0.063823335
0003f0 65 23 ff bd 7a ea 7e be ed df 20 be d8 6a c8 3c
       -0.12457923 -0.24894133 -0.15710421 0.02446501

network_body.linear_encoder.seq_layers.2.bias f4 [128]
000000 21 f6 61 3d 3c 25 2c 3d b2 02 f1 3c 5e 13 a4 3b
       0.055166367 0.042027697 0.02942023 0.0050071916
000010 45 1c 2c 3c 64 0f e2 3c b5 9e 5f bc 28 00 38 3b
       0.010504787 0.02759523 -0.013648679 0.0028076265
000020 a5 c0 d1 bb 16 f2 9b 3c cc 6f 91 bc 90 35 72 3c
       -0.006401139 0.019036334 -0.017753504 0.014783278
000030 bd b7 0c bd 2d 73 ae 3d f2 c8 06 3d 08 fa 7b 3c
       -0.034354914 0.08518062 0.03290648 0.015379436
000040 b6 c4 69 bb c1 f6 ef bc 39 39 99 3c 87 c0 26 3d
       -0.0035670227 -0.029292466 0.018704044 0.040710952
000050 f7 4a d7 bc 43 23 4d bc 96 2f 54 3d f8 3c 1f 3d
       -0.026280863 -0.012520614 0.051803194 0.038876504
000060 67 e4 89 3c 91 d8 82 bc f6 52 97 3d 87 21 27 3d
       0.016832544 -0.015972408 0.073888704 0.04080346
000070 40 97 dd 3b 4b 71 34 3b 72 36 db bb 3f bb 41 bc
       0.006762415 0.0027533348 -0.00668984 -0.011824428
000080 2d 76 2a 3d bd 8e 00 bc d4 1d a3 3c 56 0c 16 3d
       0.041616607 -0.007846531 0.019911684 0.03663286
000090 e0 94 a9 3c bc 56 35 bc cb f4 b3 bb 8b 96 27 3d
       0.020700872 -0.011068042 -0.005491828 0.040915053
0000a0 fd 31 6a bc 99 cc 2d 3d 6c 7e 6d 3c 50 86 85 3c
       -0.014294145 0.042431448 0.014495473 0.016299397
0000b0 55 11 1a bc 23 e9 a3 bc e5 e6 2e 3d b5 4b 01 bd
       -0.009403546 -0.02000863 0.042700667 -0.03156634
0000c0 a6 2d b8 bc cd d8 bd 3c 0f 03 c4 3c 4b fe 3e 3d
       -0.022482704 0.023174668 0.02392724 0.04662923
0000d0 f0 db 90 bc 93 e9 43 3d 19 b1 63 3c 75 19 03 3d
       -0.017683 0.047830176 0.013897204 0.0320067
0000e0 2e a1 ac 3c 21 8d b9 bc d5 dd 08 3d 2a 7c a6 bc
       0.02107295 -0.022650303 0.03341468 -0.020322878
0000f0 eb 75 27 3c e5 9e c2 3c 45 41 23 bc 10 79 4c 3c
       0.010220985 0.023757407 -0.009964292 0.012480035
000100 32 74 12 3b a1 f4 e3 bc 4f 80 a7 3c 96 e8 8d 3b
       0.002234709 -0.02782661 0.020446924 0.004330705
000110 18 ca 06 3d 8f 20 37 3d 94 2a 4e 3c 47 e8 71 3c
       0.032907575 0.044708785 0.012583394 0.014764852
000120 7b e4 0a bc 13 e4 14 bd de 92 74 3d 3d 08 b4 bb
       -0.008477326 -0.03635032 0.059710376 -0.005494146
000130 82 d7 2a 3d f9 dd 59 bc 96 1c b4 bc 65 2e 73 bc
       0.04170943 -0.013297551 -0.021986287 -0.014842604
000140 fb a9 8d bc f5 02 93 bb dc d7 16 bd 9f 4d e4 3c
       -0.017292967 -0.0044864365 -0.036826953 0.027869044
000150 29 2d 2c bd 9a 68 cd 3c c1 a5 c2 3d 8e 90 f7 bc
       -0.042035256 0.025074292 0.09504271 -0.030220296
000160 a4 4d b6 3d 0b 49 af bb 64 72 d1 3c 69 46 68 3d
       0.089015275 -0.0053492836 0.025567241 0.056707773
000170 cf f8 49 bc 8d 5a 93 bc 07 76 de 3c 6b a0 80 3c
       -0.012327387 -0.017987514 0.02715589 0.015701493
000180 9e ac 54 3d 74 3b ce bc a1 16 0d 3a 0b 5b 20 3d
       0.051922433 -0.025174834 0.0005382095 0.039149325
000190 1b d4 97 bc 2a 65 ae 3d 8a 39 46 3c 9e 3d f3 bc
       -0.018533757 0.08515389 0.012098679 -0.029692467
0001a0 3c 9b 0c 3d e9 8d 23 bd 2e 96 14 bd a6 21 00 3d
       0.03432773 -0.039930258 -0.036276035 0.03128209
0001b0 65 13 b9 3c c2 74 2a 3d 07 a8 b9 3c e4 09 49 bc
       0.022592256 0.041615255 0.02266313 -0.0122704245
0001c0 00 d5 b2 3b 34 d6 e6 bc 1c 30 98 bc 71 da d9 3c
       0.0054575205 -0.028178312 -0.018577628 0.026593419
0001d0 5c e6 a2 3c e4 54 8a 3c 83 55 00 3d 34 74 c1 bc
       0.019885235 0.016886182 0.03133155 -0.02361498
0001e0 96 aa df bc 3e 24 ae 3d b7 17 48 3d 88 8e e5 bb
       -0.027303021 0.085030064 0.04885074 -0.0070055164
0001f0 80 34 6e bb ed 34 16 3d 70 e7 12 3d 72 20 a6 bc
       -0.003634721 0.036671568 0.035865247 -0.020279143

network_body.linear_encoder.seq_layers.2.weight f4 [128, 128]
000000 36 ee 62 3e c3 44 37 3c 0c d5 a4 bd 52 4c ea bc
       0.22161183 0.011185828 -0.08048448 -0.028600845
000010 93 10 db 3b da b7 00 3d 99 f0 b2 bd df a0 12 be
       0.0066853254 0.031425335 -0.087372966 -0.1431918
000020 ee 64 51 3d f3 30 f9 3c 14 cd 3e be b7 a7 89 3b
       0.051121645 0.030418849 -0.18632919 0.0042009014
000030 91 fd a1 3e 69 ab 02 be f5 e8 26 be 1d 7c bc 3d
       0.31638768 -0.127607 -0.16299804 0.0920336
000040 e8 e7 ce bc c0 25 75 3d 8a 03 c9 bd db be 48 3d
       -0.025257066 0.059850454 -0.09815128 0.04901014
000050 57 61 0c 3e d9 bd 22 3d 56 1a 8d bc 7a 7c 1c 3d
       0.13709007 0.039731834 -0.017224472 0.038204648
000060 38 e8 ec 3a 8f 2a 9e 3c dc 8f 68 bc 16 77 79 3c
       0.0018074578 0.019307403 -0.014194455 0.015226146
000070 36 a8 51 3d a0 96 29 bd 72 7e bb bd c6 86 53 3e
       0.05118581 -0.041403413 -0.09154977 0.2065688
000080 e9 53 9d bd 52 2f 25 3e b1 96 ec 3d 28 6a b0 3d
       -0.0768202 0.16131333 0.115521796 0.08613998
000090 0c 01 95 3d dd ac 85 3d e0 29 62 bd 9b 05 f6 3d
       0.0727559 0.06527112 -0.055215716 0.12012788
0000a0 57 a4 0f 3e f5 cb 84 3d e1 ac bd 3d 14 ea 84 3d
       0.14027534 0.06484214 0.0926149 0.06489959
0000b0 69 e2 04 3e 40 32 c4 3c 76 d1 55 be 20 b7 00 bd
       0.12976994 0.023949742 -0.20880684 -0.03142464
0000c0 55 3e c6 bd 52 e2 03 3e a3 83 1d bc a8 a9 91 3d
       -0.09679858 0.12879303 -0.009613904 0.071124375
0000d0 c2 61 ed bd 94 ea 7f 3c 30 79 92 bd 7f f2 0d 3d
       -0.115909114 0.015619893 -0.07152021 0.03465509
0000e0 c5 92 ca bc 23 35 a6 3d ac 7e cc 3d 99 7c 8b bc
       -0.024728188 0.08115604 0.09985098 -0.017027186
0000f0 a1 3a 0b 3d 68 09 51 bb 1c 5a 33 b9 82 38 1c bd
       0.03399146 -0.0031896476 -0.00017104339 -0.038139828
000100 bf 80 2f 3e 48 48 a1 3d 3b 25 de bd 44 0e 0d 3e
       0.17138956 0.07875115 -0.10846945 0.13774973
000110 e7 b2 3e bc a9 17 4f bc 32 26 3e bd f3 fc 59 bd
       -0.011639333 -0.012639918 -0.046423145 -0.053219747
000120 dd 74 16 ba 96 e6 ad 3d e3 5c 92 bd 3b f4 bd bc
       -0.000573946 0.084912464 -0.07146623 -0.023187747
000130 5c 10 41 bd 67 c4 48 be 54 92 a0 bc 04 db f6 bd
       -0.047134742 -0.19606172 -0.019601025 -0.12053493
000140 ce 2f 16 3e 48 27 ca 3c 72 b9 9e 3c 66 db f9 bc
       0.14666674 0.024676934 0.019375537 -0.030500125
000150 3b 22 7d 3d b1 7a 95 3d fe fb 5f be 33 a7 13 bd
       0.061800223 0.07298792 -0.21873471 -0.036048125
000160 64 0c 74 3b 2c d9 ca bd f1 7a d0 3d d9 1b 91 bc
       0.003723883 -0.099047035 0.10179699 -0.017713474
000170 f0 e0 b2 3d ec 99 85 3d 81 09 9a 3d 71 09 91 bb
       0.0873431 0.06523499 0.07521344 -0.0044261743
000180 5f fe e5 3d 1b 57 c6 3c 34 d8 0b 3e 4c 34 36 3e
       0.11230158 0.024211457 0.13656694 0.17793387
000190 ed d4 f1 bc 0a 33 ed bd 92 bc da bc fd a2 99 bd
       -0.029520476 -0.115820006 -0.026701245 -0.07501791
0001a0 7a d8 b9 bd 45 e4 ba bd b8 19 d7 bb 57 51 5f be
       -0.09074493 -0.0912557 -0.006564345 -0.21808372
0001b0 b8 a4 d1 bc 1c 84 be 3d 36 99 00 be 9c 39 38 bc
       -0.02559124 0.093025416 -0.12558445 -0.011244204
0001c0 35 5f 85 3d ca 10 f3 bc 10 80 16 be dd df 25 3e
       0.065123 -0.029671092 -0.1469729 0.16198678
0001d0 82 6c 24 bd 5c 80 f8 bc d8 54 c6 3c 36 ab 33 3c
       -0.040142544 -0.030334644 0.024210379 0.010966113
0001e0 d0 4d dd 3c de 95 cd bb 57 d4 e4 bd 62 66 38 bd
       0.027014643 -0.006273969 -0.11173313 -0.045019515
0001f0 9f 34 31 be 17 e2 8e bc 1f 01 e5 3b 3f 53 bc 3c
       -0.1730523 -0.017441792 0.006988659 0.022988914
000200 47 27 87 3d b5 6c 85 3d d0 a6 ca bd a0 9f 35 bd
       0.065992884 0.06514875 -0.09895098 -0.044341683
000210 09 83 12 be 4a 4a 67 3d df 64 32 3d 3d 8b f6 bc
       -0.14307798 0.056467332 0.04355323 -0.03009569
000220 bd c7 7f 3d 8d d4 90 3d 5c 55 a5 bd d7 34 04 3d
       0.062446345 0.07071791 -0.08072922 0.032276955
000230 0b 78 c9 3d b2 5a 20 bd c3 05 de bc 22 99 8d bd
       0.098373495 -0.039148994 -0.027102357 -0.069139734
000240 8f bc 96 3d 85 4f 40 3e 67 76 1b 3e 96 1f e6 bd
       0.073601834 0.18780334 0.15181886 -0.11236493
000250 27 8c 90 3d ee 97 94 3d 59 e1 3b bd 10 ad 5a 3b
       0.07057982 0.07255541 -0.045869205 0.0033367313
000260 77 70 0e bd f7 fe 99 bd d8 a5 40 bd a0 df a6 bc
       -0.034775224 -0.07519334 -0.04703316 -0.020370305
000270 17 a6 f5 bd 3f 30 dc bd 7c b1 d6 ba 3b b0 f2 3c
       -0.1199457 -0.1075139 -0.0016379799 0.029625049
000280 cf 9d 9f 3c c3 69 92 be 9f 7a c2 bd 48 4f d0 bd
       0.019484429 -0.28596315 -0.09496044 -0.10171372
000290 96 d0 97 bd 5a 0e 57 be 2e 71 0a bd 0c 0f 31 be
       -0.074128315 -0.21001568 -0.033799343 -0.17290896
0002a0 4e ec d6 3d da 56 53 3d 8e 9e a3 3d 8e 1d 4d be
       0.1049429 0.0515965 0.07989226 -0.20030805
0002b0 de 50 a7 bd 31 eb 9d 3d 40 33 ff 3a 71 71 48 3d
       -0.08169721 0.07710875 0.001947023 0.04893631
0002c0 16 54 c6 3b dd 4e 3d be 89 e0 f7 3c c2 64 7c bd
       0.0060525043 -0.18487115 0.030258434 -0.061619528
0002d0 99 08 95 bc e0 97 18 be a8 4c 30 be 87 59 0a be
       -0.018192576 -0.14901686 -0.17216742 -0.13510714
0002e0 e1 48 34 bd f7 fc 3c 3c ca d5 dd bd c0 21 97 3d
       -0.044014815 0.011534921 -0.10831793 0.07379484
0002f0 26 75 0a be 5c 9c 61 bd 77 b3 be 3d cf 86 a8 bc
       -0.13521251 -0.055080757 0.09311574 -0.020572094
000300 b5 d6 24 3e 3b 6b b0 3c c7 1d 3e 3d 11 b5 ad bd
       0.16097529 0.021535506 0.046415117 -0.08481801
000310 cb 3f 83 bd cd af 39 be c9 71 a4 3d 2c 5f 97 bd
       -0.06408652 -0.18133469 0.08029515 -0.073911995
000320 62 d7 9d bc f7 8b e8 bd f8 d2 5e 3b df 6d b0 bd
       -0.019267742 -0.11354821 0.003400026 -0.08614706
000330 1c 50 f4 3d d1 6e 92 bd 75 a6 94 3d 1d 9b d9 3d
       0.11929342 -0.07150043 0.07258312 0.10625289
000340 c0 07 0b 3e 04 3f 05 3c 7c 9a 09 be c7 f2 fa bd
       0.13577175 0.0081327 -0.13437837 -0.12253337
000350 42 4e 15 3e 5f c9 59 3b 7c c8 2f 3d c0 07 94 bd
       0.14580634 0.0033231599 0.042915806 -0.07228041
000360 06 7a 11 be da d4 0a be e0 45 74 bb c8 3f 84 bc
       -0.14206704 -0.13557759 -0.0037273094 -0.016143695
000370 c0 36 d8 bc a2 b7 10 3e 21 7e 66 3d a6 9b 12 bc
       -0.026393294 0.1413255 0.05627263 -0.008948242
000380 82 94 3f 3d a3 42 b1 bd 3e 78 5a bd 17 34 28 be
       0.046772487 -0.08655288 -0.053337328 -0.1642612
000390 e4 f8 5b 3d 41 d2 8f bc b7 85 9f bd 89 fc 2e be
       0.053704157 -0.017556312 -0.07789176 -0.17088522
0003a0 e9 c3 e7 bc db fd 07 3e 04 a5 25 3e 20 88 b6 3d
       -0.02829166 0.13280432 0.1617623 0.089126825
0003b0 50 07 21 bd 20 93 dc bd 7c 88 11 be 1c f8 da bd
       -0.039313614 -0.10770249 -0.14212221 -0.10691854
0003c0 a5 60 e7 3d 5c ee 46 3d fb 11 0e 3e 77 76 bd bd
       0.1129773 0.04856716 0.13874047 -0.09251111
0003d0 7b 69 e3 3d 00 f8 65 be 9c 76 8f be b7 97 5f 3d
       0.11104103 -0.22457886 -0.2802018 0.054588046
0003e0 fc d2 1f 3c cd 97 83 bc e8 4e b8 3d 64 c9 f1 bd
       0.009754892 -0.016063595 0.08999425 -0.1180599
0003f0 07 c4 d9 bc 11 c0 b8 bb d0 3b 24 bc ef 72 20 be
       -0.026582731 -0.0056381305 -0.010024026 -0.15668844
