Assets/TFModels/FleeBehaviorWithJumpingSkill02.onnx (onnx, 76114 bytes, 9 tensors)

action_model._continuous_distribution.log_sigma f4 [1, 2]
0	0xbd87a362	-0.0662296
1	0xbd97e635	-0.074169554

action_model._continuous_distribution.mu.bias f4 [2]
0	0xbc2a36e9	-0.010389068
1	0xbc263f0c	-0.0101468675

action_model._continuous_distribution.mu.weight f4 [2, 128]
0	0x399d66d4	0.00030021986
1	0xbcd48033	-0.025940036
2	0x3d8847ef	0.06654345
3	0x3c9818ad	0.018566454
4	0xbd45319d	-0.048143018
5	0xbc94a6f5	-0.018146018
6	0xbc98a985	-0.01863552
7	0xbaa74875	-0.0012762683
8	0x3d006378	0.03134486
9	0x3d62033f	0.055178877
10	0x3cb8ca82	0.0225575
11	0xbd1c4769	-0.03815404
12	0x399ce781	0.00029927123
13	0xbcc38ed8	-0.023871824
14	0x3c140e38	0.009036593
15	0xbbc24ba3	-0.0059294268
16	0xbc85ae98	-0.016318604
17	0x3d0fa2e5	0.035067458
18	0xbc43543f	-0.011921941
19	0xbcbf2cd0	-0.023336798
20	0x3d2804c9	0.04102019
21	0x3d064e77	0.032789674
22	0xbd12dda6	-0.03585591
23	0xbd1ca90f	-0.038247164
24	0xbcd309c2	-0.025761489
25	0x3c357505	0.011075263
26	0x3a4bf8e6	0.0007780924
27	0xbc7a2e7d	-0.015269873
28	0xbcf3756b	-0.029719075
29	0xbd0bfe17	-0.034177866
30	0xbd75db01	-0.06002331
31	0x3b6faa7d	0.0036570125
32	0xbc83b717	-0.016078515
33	0x3be8a6ae	0.007099948
34	0x3d286bcc	0.041118428
35	0xbb4b5fcb	-0.003103244
36	0x3b3ea710	0.0029091276
37	0x3c491295	0.012272497
38	0x3a527549	0.0008028341
39	0xbc9f235f	-0.019426046
40	0xbd25d1bd	-0.040483225
41	0x3c928d8a	0.017889757
42	0xbca4d459	-0.020120787
43	0x3ce0285a	0.027362991
44	0x3c25b25f	0.010113328
45	0xbd677da3	-0.0565163
46	0x3b394982	0.0028272574
47	0xbcd46a07	-0.025929464
48	0x3be6a4ee	0.007038704
49	0x3cda5277	0.02665065
50	0x3d12f931	0.03588218
51	0xbd66c2cc	-0.056338117
52	0x3cad20f5	0.02113388
53	0x3c6b01aa	0.014343658
54	0x3c5b8eff	0.013400792
55	0xbc819186	-0.015816461
56	0xbd365bf9	-0.044521306
57	0xbbf4afee	-0.0074672615
58	0xbbdc87ce	-0.0067300564
59	0xbc90e873	-0.017688965
60	0x3d38cc39	0.045116637
61	0x3cb4e729	0.022082882
62	0x3dc8b039	0.09799237
63	0x3b3b5af5	0.002858815
64	0x3bf608f4	0.0075083915
65	0x3d0ac386	0.033877872
66	0x3b5d6ceb	0.0033786844
67	0xbc55224e	-0.013008667
68	0xbc04343f	-0.008069097
69	0xbc61483b	-0.013750131
70	0xbc85abd1	-0.01631728
71	0xbc1be905	-0.009516005
72	0x3cc59f90	0.024123937
73	0x3c40c318	0.011765264
74	0x3c8d037f	0.017213581
75	0x3ba4f21f	0.005033746
76	0x3a5db048	0.0008456749
77	0xbd0360e1	-0.032074813
78	0xbc21ac01	-0.009867669
79	0x3d0cd6ff	0.034384724
80	0x3c8ac943	0.016941672
81	0x3c99b079	0.018760907
82	0x3d0b2176	0.033967458
83	0xbd680b22	-0.056651242
84	0x3c3edb5c	0.011648979
85	0xbce2242d	-0.02760514
86	0x3d258557	0.040410366
87	0x3c913e44	0.017729886
88	0xbd38a5aa	-0.045079865
89	0xbbacb635	-0.005270744
90	0xbbdbcc75	-0.006707723
91	0x3c94d5f7	0.018168433
92	0xbb56ba31	-0.0032764787
93	0xbc51cb9e	-0.012804894
94	0x3cbaaa4d	0.022786284
95	0x3cd5297c	0.026020758
96	0x3ca3936e	0.01996776
97	0xbd106c1a	-0.035259344
98	0x3d0fbf19	0.035094354
99	0xbc9bc850	-0.019016415
100	0xbc222f83	-0.009899023
101	0xbc04826a	-0.008087734
102	0x3d656342	0.056002863
103	0xbd5a279c	-0.05326043
104	0x3cacc6a6	0.021090817
105	0xbda6a623	-0.08137157
106	0xbc4d5a20	-0.0125336945
107	0x3d9fa20a	0.077945784
108	0x3d7577d8	0.059928745
109	0x3c532448	0.012887068
110	0xbcca6064	-0.024704166
111	0xbcdcde52	-0.02696148
112	0x3cce12ba	0.025155414
113	0x3ccc9c25	0.0249768
114	0x3c04bb9c	0.00810137
115	0xbc6d5a54	-0.014486868
116	0x3ca27ce6	0.019834947
117	0xbcbb42fe	-0.022859093
118	0x3bb81669	0.005617906
119	0x3af8059d	0.0018922571
120	0x3c8f56b7	0.017497404
121	0x3d38fd79	0.045163605
122	0xbcabf601	-0.020991327
123	0x3bee3db4	0.007270539
124	0x3d8a556c	0.06754574
125	0x3d1f3495	0.038868506
126	0xbd19462d	-0.03742044
127	0xbc505527	-0.012715614
128	0xbd3ad310	-0.04561144
129	0x3c04dce2	0.008109303
130	0xbbb4525f	-0.0055029835
131	0x3d692be7	0.056926634
132	0x3d14615b	0.036225658
133	0x3c4db298	0.012554787
134	0xbd230b7b	-0.03980587
135	0xbc275e0d	-0.010215295
136	0xbd657051	-0.056015316
137	0x39d51974	0.0004064549
138	0x3d2219ec	0.039575502
139	0x3c05083d	0.00811964
140	0xbcb59026	-0.022163462
141	0xbb37409a	-0.002796209
142	0x3c0e5ecc	0.0086895935
143	0x3d0c3af4	0.03423591
144	0xbc98cfe6	-0.018653821
145	0xbc621324	-0.013798509
146	0x3cff4e31	0.031165214
147	0xbce626a8	-0.028094605
148	0xbd18729f	-0.037218686
149	0x3da390fd	0.07986639
150	0xbae94010	-0.0017795581
151	0x3c51a68e	0.012796057
152	0x3c1fa90c	0.009744894
153	0xbbb0fa6e	-0.0054009473
154	0x3bc85d59	0.0061146435
155	0x3d032441	0.032016996
156	0xbcbbba8f	-0.022916107
157	0xbc074b2d	-0.008257669
158	0x3d3da725	0.04630198
159	0xbcbe6a1b	-0.023243954
160	0x3c3d651b	0.01155975
161	0xbc8fb5b7	-0.017542703
162	0xbd006bc0	-0.03135276
163	0x3c0476ff	0.0080850115
164	0x3b226f11	0.002478544
165	0xbcad08ca	-0.021122355
166	0x3cb49b8c	0.022046827
167	0x3cd2ef02	0.025748733
168	0xbbea0ca2	-0.007142619
169	0x3d31b8ef	0.043389257
170	0xbd83b717	-0.06431406
171	0x3d138ea2	0.036024697
172	0xbd311fdb	-0.04324327
173	0xbda1341e	-0.07871269
174	0xbd5efa24	-0.05443777
175	0x3d2fa29b	0.042879682
176	0xbcfc24f4	-0.03077934
177	0xbd3e1d64	-0.046414748
178	0xbae43c06	-0.0017412908
179	0xbce1a73d	-0.027545566
180	0xbd0e58a8	-0.034752518
181	0x3d164616	0.036687933
182	0x3cf58a4b	0.02997317
183	0x3cbcde12	0.02305511
184	0x3b31e6c6	0.0027145608
185	0xbb39f257	-0.0028373206
186	0xbd847367	-0.06467324
187	0xba2198a9	-0.0006164411
188	0x3d1f4c3f	0.038891073
189	0x3d2b6afa	0.041850068
190	0xbcce4fb7	-0.025184495
191	0xbd18ce0c	-0.037305877
192	0xbcc94ff7	-0.024574263
193	0xbcfa47e0	-0.03055185
194	0x3b89efac	0.0042094793
195	0xbc8c26f4	-0.017108418
196	0x3bd53081	0.0065060263
197	0xbc5df3e0	-0.013546914
198	0xbb817da8	-0.003951747
199	0x3c27d67b	0.010244007
200	0x3d9b69ff	0.075885765
201	0x3cd308aa	0.025760967
202	0xbc36f4d7	-0.011166773
203	0xbcdb4e8d	-0.026770854
204	0xbd4d5891	-0.05013329
205	0x3b817619	0.003950846
206	0xbd0ba93c	-0.03409694
207	0xbcbc67b3	-0.022998666
208	0xbcc5d96e	-0.02415153
209	0xbd585276	-0.052813016
210	0x3b1a2dc9	0.0023525825
211	0xbcb451a9	-0.022011595
212	0xba6461c0	-0.00087120757
213	0x3d104c4c	0.035229012
214	0xbcf6d50c	-0.030130886
215	0x3d09402b	0.03350846
216	0x3ce604d9	0.028078483
217	0xbcf090a5	-0.029365847
218	0x3d48e36a	0.049045004
219	0x3ab68789	0.0013925891
220	0x3cf6822b	0.030091366
221	0xbb88a03d	-0.0041694925
222	0x3d9622a9	0.0733083
223	0x3ca7ac62	0.02046794
224	0xbd160ada	-0.036631443
225	0xbcd859ef	-0.026410071
226	0x3d73230b	0.05935959
227	0x3b41ffa0	0.0029601827
228	0xbd1596d3	-0.03652079
229	0x3bfa403d	0.0076370523
230	0x3d039681	0.032125954
231	0x3d483f79	0.048888657
232	0xbd1c7814	-0.038200453
233	0x3c09ee07	0.008418567
234	0xbc7471f8	-0.01491975
235	0x3d8fbb65	0.070181645
236	0xbb379062	-0.0028009643
237	0xbcba4dba	-0.022742141
238	0x3a89fe4e	0.0010528059
239	0xbc9730c3	-0.018455869
240	0x3bd4b7f4	0.0064916555
241	0x3c881636	0.016612154
242	0xbd1c6835	-0.038185317
243	0xbbd19a96	-0.006396602
244	0xbc9fc97e	-0.019505259
245	0xbcc7733f	-0.024346946
246	0x3b882ddd	0.004155858
247	0x3ac6cb62	0.0015166814
248	0x3d0ccce3	0.034375083
249	0x3ce04502	0.027376655
250	0x3cd5831c	0.026063494
251	0x3c0dcd6c	0.008654933
252	0x3c373ea2	0.011184366
253	0x3c556a83	0.013025883
254	0x3b916580	0.0044371486
255	0x3cb994e9	0.022654014

action_model._discrete_distribution.branches.0.bias f4 [2]
0	0xbcfe8d4c	-0.031073235
1	0x3cfe8d4e	0.031073239

action_model._discrete_distribution.branches.0.weight f4 [2, 128]
0	0x3ca3d731	0.020000072
1	0xbb7f67ad	-0.0038971708
2	0xbc6dfe52	-0.014525967
3	0xbbdbcd55	-0.006707827
4	0x3b0e5090	0.00217155
5	0xbbb69bdf	-0.0055727805
6	0xbd068323	-0.032839905
7	0xbcdf2ac5	-0.027242074
8	0x3c84fdbd	0.016234273
9	0xbcd30293	-0.025758063
10	0x381caa57	3.735194e-05
11	0xbc8b2294	-0.016984262
12	0xbbbc381b	-0.005743993
13	0xbc8da77f	-0.017291782
14	0xbbb6cb87	-0.0055784616
15	0xbb596937	-0.0033174285
16	0x3c0b791b	0.0085127605
17	0xbcc5d1dd	-0.024147922
18	0x3c921bee	0.017835584
19	0x3b26294b	0.0025354202
20	0xbc52de3e	-0.0128703695
21	0x3c1e17e0	0.009649247
22	0xbc7b3782	-0.015333058
23	0x3c221cb6	0.0098945405
24	0x3ca52e8d	0.020163799
25	0xbcf0f8d2	-0.029415522
26	0xbc9869f6	-0.018605214
27	0xbc6668f2	-0.014063107
28	0x3b8f5016	0.0043735607
29	0x3c309a3b	0.010778959
30	0xbaf0f8a9	-0.0018384653
31	0xbceb97c4	-0.02875889
32	0xbb9673a4	-0.004591422
33	0x3c37e31f	0.0112235835
34	0xbc96e393	-0.018419063
35	0x3c7eee19	0.015559697
36	0xbc460db3	-0.012088227
37	0xbc09470d	-0.008378756
38	0xbcf6acf5	-0.03011177
39	0x3c082d5d	0.008311597
40	0xbcef871e	-0.029239234
41	0xbce1552c	-0.027506433
42	0x3b6b866a	0.0035938271
43	0x3cad5cc5	0.0211624
44	0x3ce0cc5a	0.027441192
45	0xbc7ff802	-0.0156230945
46	0xba011a26	-0.0004924856
47	0x3cda91d9	0.026680874
48	0xbcc6f5ff	-0.024287222
49	0x3b2e54a3	0.002660074
50	0xbb09f0df	-0.0021048111
51	0x3c305e3d	0.010764656
52	0xbcb20e4c	-0.021735333
53	0x3b72a2c0	0.0037023276
54	0xbc2f5309	-0.0107009495
55	0xbc6c8238	-0.014435343
56	0xbb722df6	-0.0036953664
57	0x3af6a1f6	0.0018816579
58	0xbbda290e	-0.006657726
59	0xbc906826	-0.017627787
60	0x3bf22fa8	0.007390935
61	0x3c6b3176	0.014355054
62	0x3c168e2d	0.009189171
63	0x3c61d1f0	0.013782963
64	0xbcd1bc06	-0.025602352
65	0xbc312c3d	-0.01081377
66	0xbca1725a	-0.019707847
67	0x3b9f2924	0.0048571993
68	0x3b08b2e0	0.002085857
69	0x3bb120c7	0.0054055187
70	0x3b72f0e8	0.003706986
71	0x3c31343d	0.010815677
72	0x3c63c3c0	0.013901651
73	0x3c677da9	0.014129081
74	0x3c0f616f	0.008751257
75	0xbcbd10ac	-0.023079239
76	0xbce323aa	-0.027726967
77	0xbc38664a	-0.011254856
78	0xbc8f8b75	-0.017522553
79	0xbc871540	-0.016489625
80	0x3b866531	0.0041014184
81	0xbc946f0e	-0.018119361
82	0xbd5d4a1d	-0.054025758
83	0x3b6fef0d	0.0036610991
84	0x3bfebdd7	0.0077740955
85	0xbc065b5a	-0.008200491
86	0x3cd8ec29	0.026479797
87	0xbc069d60	-0.008216232
88	0x3ced90bd	0.02899968
89	0xbc8d249d	-0.017229373
90	0xbc6511ab	-0.013981263
91	0x3b9e1364	0.004824089
92	0xbcc93111	-0.02455953
93	0x3b2519f4	0.0025192471
94	0x3c8df610	0.017329246
95	0xbd2fd4fc	-0.042927727
96	0x3c15e5b0	0.009149
97	0xbd222cd1	-0.03959352
98	0xbac2824c	-0.0014839857
99	0xbc68237c	-0.014168616
100	0x3ca3f345	0.02001346
101	0xbb8fc805	-0.004387858
102	0xbbc8389d	-0.0061102645
103	0x3c8debe8	0.017324403
104	0xbc506336	-0.012718966
105	0xb8867355	-6.4111e-05
106	0xbc1abd7b	-0.00944459
107	0xb8a0f7dd	-7.675563e-05
108	0xbc9d6861	-0.01921481
109	0xbca08b91	-0.0195978
110	0x3cb9acf6	0.022665482
111	0xbb4e759b	-0.0031503204
112	0xbbebe910	-0.007199414
113	0x3918693f	0.00014535057
114	0xbc16ea25	-0.009211098
115	0xbd1a9cbf	-0.03774714
116	0xbc1e1d2f	-0.009650513
117	0xbc66ebef	-0.014094337
118	0x3ab94165	0.0014133869
119	0x3cc422c8	0.023942366
120	0xbbb703ce	-0.0055851704
121	0xbc0d8d90	-0.008639708
122	0xbca508aa	-0.020145733
123	0x3c385f4a	0.011253187
124	0x3c0a5499	0.008443021
125	0xbc3df076	-0.011592975
126	0x3cce64cd	0.02519455
127	0xbc5a6027	-0.013328589
128	0xbc2c692b	-0.010523121
129	0x3bd358ec	0.0064498093
130	0x3cddee48	0.02709116
131	0x3c893286	0.016747724
132	0xbc511ef2	-0.012763726
133	0xbb9d8451	-0.004807033
134	0x3c67a9dc	0.014139619
135	0x3cf3bd1f	0.029753266
136	0xbb88b9b5	-0.0041725286
137	0x3c4fabf6	0.012675276
138	0x3c925a36	0.017865282
139	0x3bf92caf	0.0076042037
140	0x3c4995e2	0.012303801
141	0x3cdae620	0.02672106
142	0x3ba638a9	0.0050726724
143	0x3a9431d9	0.001130636
144	0xbb5d3069	-0.0033750779
145	0x3bfa76cc	0.007643556
146	0x3bf9dbb5	0.007625068
147	0x3b63081f	0.0034642292
148	0x3c6cd369	0.014454701
149	0xbc308034	-0.0107727535
150	0x3b418941	0.0029531273
151	0x3bd16209	0.0063898605
152	0xbc695d7b	-0.014243479
153	0x3c7314ce	0.014836503
154	0x3b14a7b5	0.002268297
155	0xbbf8ec43	-0.007596524
156	0xbbb94009	-0.0056533855
157	0x3c32813a	0.010895068
158	0xbba2d529	-0.0049692583
159	0x3c35b422	0.01109031
160	0x3b85c84b	0.0040827147
161	0xbba7748e	-0.00511033
162	0x3ba3fe0e	0.005004651
163	0xbc83f947	-0.016110076
164	0x3d3573c1	0.044299845
165	0xbabdf981	-0.0014493914
166	0x3cdae69b	0.02672129
167	0xbc0516de	-0.008123128
168	0x3d0b12c7	0.033953454
169	0x3d306c54	0.04307206
170	0xbb84e007	-0.0040550265
171	0xbcdd140c	-0.026987098
172	0xbc16af01	-0.009196998
173	0x3c8ebfc5	0.017425427
174	0x3b5c5bc9	0.0033624044
175	0xbc23825c	-0.009979811
176	0x3ce3474f	0.027743964
177	0xb94bbc96	-0.00019429842
178	0x3aa2763b	0.0012394855
179	0xbc71c319	-0.014755988
180	0x3c7370b0	0.01485841
181	0x3c8a249f	0.016863165
182	0xbc4f57e5	-0.012655233
183	0xbc32988f	-0.010900631
184	0xbc2e23ba	-0.010628635
185	0xbb04ebc4	-0.0020282129
186	0x3ba58582	0.0050513158
187	0x3cf72772	0.030170176
188	0xbbbdd906	-0.0057936935
189	0xbc7e66e3	-0.01552746
190	0x3ca7f804	0.020504005
191	0xbc0a47d7	-0.0084399795
192	0x3cc9e381	0.024644615
193	0xb980dc70	-0.000245783
194	0x3ccb825d	0.024842435
195	0x3c11a1eb	0.008888702
196	0x3c1f269f	0.009713798
197	0xb8594d97	-5.1809093e-05
198	0x39e3a9ad	0.00043423232
199	0x3c50566f	0.01271592
200	0xbbc4d674	-0.00600701
201	0x3a9dd0e0	0.0012040399
202	0xbb55a7eb	-0.0032601308
203	0x3c203a20	0.009779483
204	0x3d4105c3	0.047124635
205	0xbb593eb4	-0.0033148946
206	0x3cd8feca	0.02648868
207	0x3c52c2d6	0.012863835
208	0x3b9d943a	0.0048089297
209	0x3d2538b6	0.040337287
210	0x3c74d471	0.014943228
211	0xbc59037d	-0.013245461
212	0xbc4f4313	-0.012650269
213	0xb9683c5b	-0.00022147728
214	0xbbeef025	-0.007291811
215	0x3c4e9b58	0.012610279
216	0xbbb5c1cb	-0.0055467836
217	0x3afe6d28	0.0019411193
218	0x3c95cd06	0.01828624
219	0x3c2ca30b	0.010536919
220	0x3cb44aaf	0.022008268
221	0xbc0a7843	-0.008451524
222	0xbc53d2cd	-0.012928677
223	0x3d174468	0.03693047
224	0xbcc10206	-0.023560535
225	0x3d3369ec	0.043802187
226	0x3c3d3df8	0.011550419
227	0xbbd605fd	-0.0065314756
228	0xbbeb7deb	-0.0071866415
229	0x3cbc3223	0.022973126
230	0x3acd4ed7	0.0015663755
231	0xbc149320	-0.00906828
232	0x3c59304a	0.013256142
233	0xbc89e2b7	-0.016831739
234	0x3cb591b7	0.022164209
235	0xbc0f0a4e	-0.008730484
236	0x3ae14a48	0.0017188275
237	0x3cc8abfb	0.02449607
238	0xbcae2458	-0.021257564
239	0x3bd759f7	0.006572004
240	0x3bd90bdd	0.0066237287
241	0x3c2984e7	0.010346628
242	0x3c9c924d	0.01911273
243	0x3d3572ab	0.04429881
244	0x3c3a2279	0.011360758
245	0x3ca9528e	0.020669248
246	0xbc5083f7	-0.012726775
247	0xbca3ab74	-0.019979216
248	0x3c41b7f2	0.011823641
249	0x3c90c3d8	0.01767151
250	0x3c29bec9	0.010360428
251	0xbb50b171	-0.0031844045
252	0x3c1968e6	0.009363389
253	0x3cc35ff1	0.02384946
254	0xbbd5404b	-0.0065079085
255	0x3cd8f4c1	0.026483895

network_body.linear_encoder.seq_layers.0.bias f4 [128]
0	0xbcdfd7be	-0.027324554
1	0x3d2c4110	0.042054236
2	0x3d20fe81	0.039305214
3	0x3cc2179d	0.0236929
4	0x3cd46549	0.025927203
5	0x3c87f5d8	0.01659672
6	0xbad5512d	-0.0016274803
7	0x3c87cba1	0.01657659
8	0xbca504a1	-0.020143809
9	0x3c21c785	0.009874229
10	0x3d2c6a5f	0.04209363
11	0x3c87a274	0.016556956
12	0x3d0a74a4	0.033802643
13	0x3c898a98	0.01678972
14	0x3c8b8fe8	0.017036393
15	0x3cf0836c	0.029359542
16	0x3c13eac6	0.009028142
17	0x3cccc600	0.024996758
18	0xbaf6700f	-0.0018801707
19	0xbc14b988	-0.009077437
20	0x3a946733	0.001132226
21	0x3cafa663	0.021441644
22	0x3d383eb4	0.044981673
23	0xbd106418	-0.035251707
24	0x3d2de02b	0.04245011
25	0x3cdcfa0e	0.026974704
26	0xbc645221	-0.013935597
27	0x3ce117a4	0.027477093
28	0x3c0b2603	0.008492949
29	0xbca93207	-0.020653738
30	0x3d18a1f3	0.03726382
31	0x3c50d28c	0.012745511
32	0x3ca75c17	0.020429654
33	0x3d2a721b	0.041612726
34	0x3d043c09	0.032283816
35	0x3d145f8a	0.036223926
36	0x3c238f5e	0.009982912
37	0x3ba77c56	0.0051112575
38	0xbc96ea77	-0.018422348
39	0x3c8e75bf	0.01739013
40	0x3bfd4ab9	0.007729855
41	0x3c8d6b4c	0.017263077
42	0x3c36906d	0.011142832
43	0xb951d543	-0.0002001124
44	0x3d178453	0.03699143
45	0x3cf8293d	0.030293101
46	0xbba97c27	-0.005172271
47	0xbd4a0f61	-0.049331073
48	0x3d62064a	0.05518178
49	0x3c872685	0.01649786
50	0x3c73068e	0.014833106
51	0x3d6ec155	0.058289845
52	0xbc4730a8	-0.012157597
53	0x3af43621	0.0018631854
54	0x3d343108	0.043992072
55	0x3ca94c38	0.020666227
56	0xbc9936e2	-0.018702928
57	0x3d329960	0.0436033
58	0xbc9b736e	-0.01897594
59	0x3d0318f7	0.03200623
60	0x3cdb816e	0.026795115
61	0x3c8dbfd5	0.017303387
62	0x3d301a57	0.04299387
63	0x3d047871	0.032341424
64	0xbcd99f27	-0.026565148
65	0x3c801aa7	0.015637709
66	0x3c87ee2c	0.016593061
67	0xb9efbed0	-0.000457278
68	0x3cb34774	0.021884657
69	0xbc6d6bf1	-0.014491067
70	0xbcf40cfc	-0.029791348
71	0xbcd9a733	-0.026568985
72	0x3cf68398	0.030092046
73	0x3bf78c35	0.007554556
74	0x3b47cf41	0.0030488523
75	0x3c0c7699	0.008573198
76	0x3c4d8442	0.01254374
77	0x3c9cf849	0.01916136
78	0x3d01e1a5	0.031709332
79	0x3c1b1186	0.009464627
80	0x3d32971e	0.043601148
81	0x3d1febc5	0.039043207
82	0x3cb2b227	0.021813465
83	0x3cd64df3	0.026160216
84	0x3c89265d	0.016741926
85	0x3c318fd0	0.01083751
86	0x3ce4cc72	0.027929518
87	0x3b68602f	0.003545772
88	0x3b714580	0.0036815107
89	0x3cc3f208	0.02391912
90	0x3d05d592	0.03267438
91	0xbd4203b3	-0.04736681
92	0xbb5a2726	-0.0033287494
93	0x3ce29bd2	0.027662192
94	0x3d15b244	0.03654696
95	0x3c4021a1	0.011726768
96	0x39d9d76b	0.00041549964
97	0xbd28ddc8	-0.041227132
98	0x3cb21a92	0.021741185
99	0x3cef1ea2	0.029189412
100	0xbb4dbe2f	-0.0031393876
101	0xbc68c704	-0.014207605
102	0x3a98c390	0.0011654962
103	0x3bec121c	0.0072043072
104	0x3b91a14f	0.0044442783
105	0x3c2ebc93	0.010665077
106	0x3cd16deb	0.025565108
107	0x3d17ba27	0.037042763
108	0x3ca491ea	0.020089108
109	0x3cf1b32c	0.029504381
110	0x3cd40d9c	0.025885396
111	0x3d554136	0.052064143
112	0x3c65b77c	0.014020797
113	0x3d8058fc	0.062669724
114	0xbd5b4b51	-0.053538624
115	0x3cb78fe5	0.022407481
116	0xbd0f70d8	-0.035019726
117	0xba1ad071	-0.0005905694
118	0xbd142f8d	-0.03617816
119	0x3bfd8b88	0.0077375807
120	0x3c85a68c	0.016314767
121	0x3d45852c	0.048222706
122	0xbb1131c0	-0.0022154897
123	0x3d6b272f	0.057410415
124	0x3b9503e2	0.004547582
125	0x3caa9457	0.020822687
126	0x3b7ccade	0.0038573067
127	0xbb03f28a	-0.0020133578

network_body.linear_encoder.seq_layers.0.weight f4 [128, 9]
0	0x3d816238	0.06317562
1	0xbf352e4e	-0.7077378
2	0xbed1138c	-0.40835226
3	0x3e4a06b2	0.19729117
4	0xbd4f5d7a	-0.050626256
5	0xbdde8152	-0.1086451
6	0x3ed39ef8	0.4133222
7	0x3d02f1ee	0.031969003
8	0xbe175e3a	-0.14782038
9	0xbf0ab0ae	-0.5417584
10	0xbe952e85	-0.29137054
11	0xbec9afe5	-0.3939201
12	0x3f4955d9	0.7864662
13	0xbddb38dd	-0.10704205
14	0xbf1ff663	-0.6248533
15	0xbed6334e	-0.41836017
16	0xbd076b62	-0.033061393
17	0xbda6e82b	-0.08149751
18	0x3d0f6aaa	0.035013832
19	0x3ea120bb	0.31470284
20	0x3f09e310	0.53862095
21	0xbe8087f5	-0.25103727
22	0xbe5021a7	-0.20325337
23	0x3c456e12	0.012050169
24	0x3ebea6fb	0.3723677
25	0xbefce9fd	-0.4939727
26	0x3ebfd1a9	0.37464646
27	0xbef8ea98	-0.4861648
28	0xbdf286a0	-0.11842084
29	0xbe8ce77b	-0.27520356
30	0x3f11b23d	0.56912595
31	0xbe4c705f	-0.19964741
32	0xbee8f4f0	-0.45499372
33	0x3e4b0ca9	0.19829048
34	0x3f341f8a	0.70360625
35	0x3e7d4587	0.24733554
36	0xbe3cc95d	-0.18436189
37	0xbecd510d	-0.401009
38	0x3edaa13c	0.42701137
39	0xbae80128	-0.001770054
40	0xbde5789c	-0.11204645
41	0x3e0d6ee9	0.1381184
42	0x3e8c9bf6	0.2746274
43	0xbeec2d3a	-0.46128255
44	0x3e8afda6	0.27146643
45	0x3e961150	0.29310083
46	0x3e816747	0.25274107
47	0xbf169018	-0.5881362
48	0x3c8b46fd	0.017001623
49	0x3e62e7b8	0.22158706
50	0x3e171e9b	0.14757769
51	0xbe2087b3	-0.15676765
52	0xbd599bf0	-0.05312723
53	0xbe4bb2ff	-0.198925
54	0x3f393838	0.7235141
55	0x3ed82dcd	0.42222443
56	0x3e9f0b92	0.31063515
57	0x3ec75260	0.38930035
58	0x3ebb69a3	0.36604032
59	0xbeb7ebdd	-0.35922137
60	0xbe149a91	-0.14512087
61	0x3ed0a658	0.4075191
62	0xbf01ed4c	-0.5075271
63	0x3ee3967f	0.44450757
64	0x3f45ca32	0.7726165
65	0x3e798c90	0.24370027
66	0x3c96fb0f	0.018430261
67	0xbe88b771	-0.26702455
68	0xbedd359d	-0.43204966
69	0x3e64bb08	0.22336972
70	0xbede4f38	-0.43419814
71	0x3e5adc01	0.21372987
72	0xba890989	-0.0010455112
73	0xbf06123f	-0.5237159
74	0x3e18844a	0.14894214
75	0xbd3bd721	-0.04585946
76	0xbe78e6c9	-0.24306788
77	0xbe76cf65	-0.24102552
78	0x3e85ce85	0.26134124
79	0x3e4e46ab	0.20144145
80	0x3e616ada	0.22013417
81	0x3eee86bf	0.46587178
82	0xbdcbcdd7	-0.0995137
83	0x3ea7e376	0.32790726
84	0x3d26c2eb	0.040713232
85	0xbf8b3a71	-1.087721
86	0x3e2e87a4	0.1704393
87	0x3d2758cb	0.040856164
88	0x3cc9c87f	0.024631737
89	0x3efd27f7	0.49444553
90	0xbebadeeb	-0.36498198
91	0xbf43ed80	-0.7653427
92	0xbe94d8fd	-0.290718
93	0x3f0f9618	0.560884
94	0xbef25c56	-0.47336072
95	0x3d2a35d7	0.041555252
96	0xbf011b1d	-0.50431997
97	0x3e92ae80	0.28648758
98	0x3eec6de4	0.4617759
99	0x3e8f9451	0.28042844
100	0xbf774ed5	-0.96604663
101	0xbe6d2c9d	-0.2316155
102	0xbe23a144	-0.15979487
103	0xbea355d7	-0.31901428
104	0x3e84366c	0.2582277
105	0xbc4149ce	-0.011797382
106	0xbe48ca0b	-0.19608323
107	0x3ea558eb	0.32294402
108	0xbe29d453	-0.16584902
109	0xbe6afac2	-0.22947219
110	0x3ec7d9d4	0.39033377
111	0x3d0d8b07	0.034556415
112	0xbe789b18	-0.24277914
113	0x3db5486a	0.088517025
114	0xbd102db5	-0.03519984
115	0xbe1806b0	-0.14846301
116	0x3e011052	0.12603882
117	0x3f1aa8be	0.6041373
118	0x3d5c51f8	0.05378911
119	0xbe4be0a1	-0.19909908
120	0xbf0874b3	-0.5330307
121	0xbedd37c2	-0.43206602
122	0xbe109bf6	-0.14121994
123	0xbe8f957c	-0.28043735
124	0x3f2dcd0a	0.6789099
125	0xbe8b8e15	-0.27256837
126	0xbd4fa798	-0.05069694
127	0x3d09de09	0.033659015
128	0xbdb7b031	-0.08969153
129	0x3f0c7cc5	0.54877883
130	0xbf087912	-0.5330974
131	0xbeb297f9	-0.3488157
132	0xbe5fee68	-0.21868289
133	0xbdfc582b	-0.12321504
134	0x3de22f9e	0.110442385
135	0x3edf5bac	0.43624628
136	0x3e180cdd	0.14848657
137	0xbe90195d	-0.2814435
138	0xbe310d50	-0.17290235
139	0x3eedc2a3	0.4643756
140	0xbe4a34fc	-0.19746774
141	0x3f3434ea	0.7039324
142	0x3d49dbea	0.049281992
143	0x3e313fdf	0.17309521
144	0xbea0f49b	-0.3143662
145	0x3f062ada	0.52409136
146	0x3e75605d	0.23962541
147	0x3e13506d	0.14386149
148	0xbee4406d	-0.44580403
149	0x3e4c125a	0.19928876
150	0x3db57361	0.088598974
151	0x3ed1c249	0.4096854
152	0x3d8e74f7	0.06955903
153	0x3f2af95a	0.6678673
154	0xbe823dc0	-0.25437737
155	0x3e8666dc	0.2625035
156	0xbed50b18	-0.41610026
157	0xbe45c788	-0.19314396
158	0x3ef2d497	0.47427818
159	0xbe8a2fec	-0.26989686
160	0xbef3cf04	-0.47618878
161	0x3d3002e3	0.042971503
162	0x3d87b188	0.06625658
163	0x3dac9602	0.08427049
164	0x3f3e2704	0.74278283
165	0xbeb1ae3a	-0.34703237
166	0xbebf4620	-0.3735819
167	0xbcadb198	-0.021202847
168	0xbd9e711d	-0.077364184
169	0xbe00d99a	-0.12583008
170	0xbe9c362c	-0.3051008
171	0x3ef614c7	0.48062727
172	0xbdad638b	-0.08466252
173	0xbe52cd16	-0.20586047
174	0xbcfbe86f	-0.030750481
175	0x3eb0b7bb	0.34515175
176	0xbecc4d2e	-0.39902633
177	0xbe5a0002	-0.21289065
178	0x3c6dbd19	0.014510416
179	0x3da4ee86	0.08053307
180	0xbe5f4800	-0.2180481
181	0x3f06d16d	0.5266331
182	0xbe0e9677	-0.13924585
183	0x3ce8f286	0.028435957
184	0x3c7c8476	0.0154124405
185	0xbf07a484	-0.52985406
186	0xbf03f74a	-0.5154921
187	0xbf20d74d	-0.6282852
188	0xbe8fcda9	-0.28086594
189	0x3ea10530	0.3144927
190	0xbed99246	-0.4249441
191	0x3d55ff3f	0.052245375
192	0x3f138c9d	0.57636434
193	0xbe593221	-0.21210529
194	0xbe2a9c88	-0.16661274
195	0xbef07354	-0.46962988
196	0x3f5a2ef2	0.8522788
197	0xbbf20d20	-0.0073868185
198	0x3cbcb668	0.023036197
199	0x3ed9e5af	0.42558047
200	0xbedd4445	-0.43216148
201	0xbdeaa6cc	-0.11457595
202	0x3eaa2f01	0.33238986
203	0xbd754a27	-0.05988517
204	0xbf431a17	-0.76211685
205	0xbe97b329	-0.29628876
206	0xbe65bfdb	-0.22436468
207	0xbf37514e	-0.71608436
208	0x3d10bd6d	0.0353369
209	0xbe879693	-0.26482067
210	0xbdb89c46	-0.09014182
211	0xbf12df09	-0.57371575
212	0xbe3a40e2	-0.18188813
213	0x3dd35139	0.10318226
214	0x3e16fd61	0.14745094
215	0xbeffc459	-0.4995449
216	0xbd4f29d2	-0.050576992
217	0x3e137c32	0.14402846
218	0x3f05b592	0.5223018
219	0x3de1934c	0.11014423
220	0xbe656a09	-0.2240373
221	0xbdfb21e4	-0.122623235
222	0x3d98bf81	0.074584015
223	0x3e0d3597	0.13789974
224	0xbe81e684	-0.25371182
225	0xbebbf4ad	-0.3671011
226	0x3e892e7d	0.2679328
227	0x3e1eb2ec	0.15497941
228	0x3d666830	0.056251705
229	0x3e39225b	0.18079512
230	0x3f30f1ad	0.6911877
231	0xbd73b19c	-0.059495553
232	0xbdff259c	-0.12458345
233	0x3e696a67	0.22794496
234	0xbee7d536	-0.45279855
235	0x3ecc0d9e	0.3985414
236	0xbdc364e9	-0.095407315
237	0x3e668f8b	0.22515695
238	0x3f318d7d	0.6935652
239	0xbe847d6e	-0.25876945
240	0xbe1c53fc	-0.15266412
241	0xbeb3e46c	-0.3513521
242	0x3cd861ff	0.026413916
243	0x3ed05cad	0.40695706
244	0xbf071020	-0.5275898
245	0xbcdd851a	-0.027041007
246	0x3ed586f8	0.41704535
247	0x3ead52a3	0.3385211
248	0x3e982bd8	0.2972095
249	0x3e607b78	0.219221
250	0xbdb8d02a	-0.09024079
251	0x3ea8c288	0.32960916
252	0xbe1fa703	-0.15591054
253	0x3e6c2351	0.23060347
254	0xbf0673c9	-0.52520424
255	0xbe19e928	-0.15030348

network_body.linear_encoder.seq_layers.2.bias f4 [128]
0	0x3bff0d4d	0.007783568
1	0x3c1b5ae0	0.0094821155
2	0x3bbdbabc	0.0057900827
3	0xbb41c423	-0.002956637
4	0x3d30e173	0.043183755
5	0xbc30df71	-0.01079546
6	0x3d271d7c	0.040799603
7	0x3cd74910	0.026279956
8	0x3cc9aa32	0.024617288
9	0x3d5d7ce1	0.054074172
10	0x3ce74759	0.028232263
11	0x3bac388f	0.0052557657
12	0xbc104f36	-0.008807948
13	0x3bdad7f3	0.006678575
14	0x3c045694	0.008077282
15	0x3b85361f	0.0040652896
16	0x3a7410ae	0.0009310347
17	0x3ca676b6	0.020320278
18	0xbc229e61	-0.009925456
19	0x3c693aa8	0.014235176
20	0xbb105e35	-0.0022028808
21	0x3d147426	0.03624358
22	0x3c74dd86	0.014945393
23	0x3ca4dc19	0.020124482
24	0x3b32f3d8	0.0027305987
25	0x3cf50202	0.029908184
26	0xbc003da9	-0.007827201
27	0x3d027249	0.031847272
28	0x3cdb14ea	0.026743371
29	0x3c5e17ed	0.013555509
30	0x3d004393	0.031314444
31	0x3c383602	0.011243345
32	0x3c1339ea	0.008985976
33	0xbd0b0656	-0.03394159
34	0x3c0da44e	0.00864513
35	0xbcbf3934	-0.023342706
36	0x3caeefc5	0.021354565
37	0x3aa1295e	0.0012295654
38	0x3c3947b8	0.011308603
39	0x3b34102c	0.002747546
40	0x3d4478bc	0.047966704
41	0x3c5c7c94	0.013457436
42	0x3d0d34ef	0.03447431
43	0xbc56e151	-0.013115243
44	0xbbc473b2	-0.0059952373
45	0x3ce765fb	0.02824687
46	0x3cff1015	0.031135598
47	0x3c840c66	0.016119193
48	0x3c28d88d	0.010305536
49	0x3d07e5f3	0.03317828
50	0x3c97780e	0.018489864
51	0x3d1ee26b	0.038790148
52	0x3cc43f01	0.023955824
53	0xbb41067e	-0.0029453333
54	0xb9b8a724	-0.00035219744
55	0xbc860daa	-0.016363937
56	0xbad65c55	-0.0016354421
57	0xbc9c9eee	-0.019118752
58	0x3d0fe796	0.035132967
59	0x3d01d885	0.03170063
60	0x3b5186a5	0.0031971124
61	0x3cde7550	0.027155548
62	0x3d56aa45	0.052408475
63	0x3c1a16d6	0.009404859
64	0x3cb53e14	0.022124328
65	0xbc1b6950	-0.009485558
66	0x3d0955cc	0.033529088
67	0x3c62b1c5	0.013836329
68	0xbb8ab1ca	-0.00423262
69	0x3cf89669	0.030345159
70	0x3bc3b437	0.005972411
71	0x3a902c69	0.0010999563
72	0x3c3ba8ca	0.011453817
73	0xbcf04df2	-0.029334042
74	0xbbd9e379	-0.0066494313
75	0x3c7d432d	0.0154579105
76	0x3d16040a	0.036624946
77	0x3ce39114	0.02777914
78	0x3d47c9a9	0.048776302
79	0x3b6c67d6	0.0036072633
80	0xbaa9fd45	-0.0012969157
81	0x3d1fdcbe	0.039028876
82	0x3c6dcba6	0.014513886
83	0x3c9cc88f	0.019138603
84	0xbcf885df	-0.030337272
85	0x3c28c106	0.010299927
86	0x3cc60d88	0.024176374
87	0x3bd8b5f8	0.0066134892
88	0x3cf23a0a	0.02956869
89	0x3cec484a	0.028843064
90	0x3c981afb	0.018567553
91	0x3cea4afb	0.028600207
92	0x3c453e74	0.012038816
93	0x398d135e	0.00026908045
94	0x3d0074b4	0.031361297
95	0x3c315016	0.010822317
96	0x3bcf9146	0.0063344566
97	0x3d0167fd	0.03159331
98	0x3d097ea4	0.03356804
99	0x3c88a454	0.01667992
100	0x3c925ca3	0.017866438
101	0x3b946ce7	0.0045295837
102	0x3cdd0946	0.026981961
103	0x3d146379	0.036227677
104	0x3ca7b466	0.020471763
105	0x3d233151	0.039841954
106	0x3c1b6193	0.009483713
107	0x3c23d071	0.009998427
108	0x3c31a992	0.010843651
109	0x3cf39af6	0.029736977
110	0xbc32ba53	-0.010908681
111	0x3c82b6ec	0.015956365
112	0xbc24aa34	-0.010050345
113	0xbbbe65ea	-0.005810489
114	0x3d310ab8	0.043223113
115	0x3d1d3e40	0.038389444
116	0xbcf4ae5f	-0.029868303
117	0x3cb5a4f1	0.022173377
118	0xbcd20101	-0.025635244
119	0xbc911ad5	-0.01771299
120	0xbc53de95	-0.012931486
121	0x3cf1a906	0.029499542
122	0x3ab4b897	0.0013787922
123	0xbcf40c8e	-0.029791143
124	0x3c889dd0	0.016676813
125	0xbc75ada2	-0.014995011
126	0x3ba05a67	0.0048935893
127	0x3cde2a95	0.027119914

network_body.linear_encoder.seq_layers.2.weight f4 [128, 128]
0	0xbd1b72d9	-0.037951324
1	0x3ba119da	0.004916412
2	0xbde6935d	-0.11258576
3	0x3e26bc0b	0.1628267
4	0x3db46728	0.08808738
5	0x3e01b1de	0.12665507
6	0xbe14754c	-0.1449787
7	0xbcb92bdf	-0.022603927
8	0xbd9dff45	-0.077147044
9	0x3c8b3aa6	0.01699574
10	0x3e6cefaa	0.231383
11	0xbd54bb72	-0.051936574
12	0xbbcc1ffb	-0.0062293983
13	0x3dd7e306	0.10541348
14	0xbd8de310	-0.06928074
15	0xbde2b46a	-0.110695675
16	0x3d5378af	0.051628765
17	0x3dbac561	0.09119678
18	0x3cba88ba	0.022770274
19	0x3cd6fdc0	0.026244044
20	0xbd9103cb	-0.070808016
21	0x3d742089	0.05960134
22	0x3d1cf147	0.038316038
23	0xbd597c70	-0.05309719
24	0x3dc5752f	0.096414916
25	0x3daf92eb	0.08572944
26	0xbd8f9924	-0.07011631
27	0x3d2d130f	0.042254504
28	0x3ce8f7f5	0.028438548
29	0x3c807d36	0.015684705
30	0x3d4f5619	0.05061922
31	0x3cb2feda	0.021850038
32	0x3dc92b6c	0.09822735
33	0x3c523d2f	0.01283197
34	0xbe003aec	-0.12522477
35	0x3d8311fc	0.063999146
36	0x3d9ba796	0.07600324
37	0xbcae9689	-0.021312015
38	0x3e05929b	0.13044207
39	0xbd8cc5bb	-0.068736516
40	0xbc834ba2	-0.016027275
41	0xbddf2330	-0.10895383
42	0xbdeb3186	-0.11484055
43	0x3def739e	0.11691974
44	0xbcf8c528	-0.030367449
45	0xbd7ab586	-0.06120827
46	0xbd7cdbbb	-0.06173299
47	0x3db9dcb4	0.09075299
48	0xbd8ecf4a	-0.06973131
49	0xbce1ed95	-0.027579108
50	0xbc86fe74	-0.016478755
51	0xbcdc5824	-0.026897497
52	0x3e13b6c0	0.14425182
53	0x3da4aef2	0.08041181
54	0xbcc5b9f2	-0.024136517
55	0xbb3af990	-0.0028530098
56	0x3c9d98d1	0.019237908
57	0xbaa53053	-0.0012602903
58	0x3d106209	0.035249744
59	0x3d87c176	0.066286966
60	0x3e2e981a	0.1705021
61	0x3d083fe8	0.03326407
62	0xbd4e63b1	-0.050388042
63	0x3dc9d870	0.09855735
64	0x3c4536d2	0.012036996
65	0x3d856f74	0.065153986
66	0x3bcb81a3	0.0062105223
67	0x3dc416f7	0.09574693
68	0xbd61f4ab	-0.055164974
69	0x3e100d40	0.14067554
70	0xbc99cbb4	-0.018773891
71	0xbd48ad0d	-0.04899316
72	0xbc3a9aa0	-0.011389405
73	0xbd2e10fd	-0.04249667
74	0xbd0233dc	-0.03178774
75	0xbcb09faa	-0.021560509
76	0x3c0ba8c5	0.0085241245
77	0x3d71fe79	0.059080575
78	0xbde4883b	-0.111587964
79	0x3ddc7569	0.10764582
80	0x3d0b90e7	0.034073737
81	0x3d3bbc1a	0.045833685
82	0x3e1cd061	0.15313865
83	0xbe09e6c6	-0.1346694
84	0x3ca608c3	0.02026785
85	0xbdd32a2d	-0.10310779
86	0xbc136ccd	-0.008998108
87	0x3ac3f92c	0.0014951578
88	0xbd534a4c	-0.051584527
89	0xbd6beaaa	-0.05759684
90	0x3e24b88c	0.16086024
91	0x3d489640	0.048971415
92	0xbe31dddb	-0.17369787
93	0x3da5bf25	0.080930986
94	0xbcdbad34	-0.026815988
95	0xbe095f4d	-0.1341526
96	0xbba3af4c	-0.0049952623
97	0xbda7a9a1	-0.08186651
98	0xbd8c62ad	-0.068547584
99	0x3db1c2d2	0.08679737
100	0xbd2fc524	-0.042912617
101	0xbdc0cee8	-0.09414464
102	0x3be1df8a	0.006893103
103	0xba382bbb	-0.00070255593
104	0xbe6a3106	-0.22870263
105	0xbe8a07c8	-0.26959062
106	0xbcbe3c26	-0.02322204
107	0xbc75c74b	-0.015001128
108	0x3c9eb43e	0.019373056
109	0x3db80eb9	0.08987183
110	0x3cfb4058	0.03067033
111	0x3cdd42da	0.027009416
112	0xbd2c1a9b	-0.04201756
113	0x3d49ad50	0.04923755
114	0x3d14150f	0.036152896
115	0xbd232775	-0.03983255
116	0xbdb709a2	-0.08937384
117	0x3da85451	0.08219207
118	0x3cde875c	0.027164154
119	0x3e37ccf2	0.17949274
120	0x3dabb110	0.08383381
121	0x3cc09f6b	0.023513516
122	0x3b773319	0.0037719666
123	0x3c91b857	0.017788095
124	0xbc0126e6	-0.007882809
125	0x3db8089f	0.08986019
126	0xbcf9d1dc	-0.030495577
127	0x3c61df94	0.013786215
128	0x3ca43ed2	0.020049486
129	0x3df58cf7	0.119897775
130	0xbd1a464a	-0.03766469
131	0x3d11387f	0.03545427
132	0x3d0dc38c	0.034610316
133	0x3d851659	0.06498403
134	0x3d237a5c	0.039911613
135	0xbe2f5a37	-0.17124258
136	0xbd433497	-0.047657575
137	0xbe0e3158	-0.1388601
138	0x3dd8087e	0.10548495
139	0x3dbaaf68	0.09115487
140	0xbda05d54	-0.07830301
141	0xbdb2ba6b	-0.08726963
142	0x3ccc2416	0.02491955
143	0x3da25ae9	0.07927496
144	0x3d40c6fd	0.04706477
145	0xbe71d7e2	-0.23617509
146	0x3e1922d0	0.14954686
147	0xbcb911d0	-0.022591501
148	0x3ccdf332	0.025140379
149	0xbd888ea9	-0.06667835
150	0x3c1a328c	0.009411465
151	0xbded220f	-0.11578762
152	0x3b1754ad	0.0023091242
153	0xb9acce60	-0.00032960158
154	0x3cf5d014	0.030006446
155	0x3d922635	0.07136194
156	0xbd79af6b	-0.060958307
157	0xbd015ee2	-0.031584628
158	0xbe1597b0	-0.14608645
159	0x3d953ae1	0.07286621
160	0x3a958dc5	0.0011410048
161	0x3d6064eb	0.054783743
162	0x3d439e7a	0.047758557
163	0x3dc09c31	0.09404791
164	0x3d92fc06	0.07176976
165	0x3e0fb94d	0.1403553
166	0xbdddaf26	-0.108244225
167	0xbd1d1394	-0.03834875
168	0x3c9bb0b5	0.019005159
169	0x3e0a54fe	0.13508984
170	0xbda563cd	-0.08075676
171	0x3c69bb03	0.0142657785
172	0x3d4e36f4	0.050345376
173	0xbe1223c2	-0.14271453
174	0x3e32e72f	0.17471002
175	0x3e8320ce	0.25610965
176	0xbd76a7c0	-0.060218573
177	0x3d2ab33c	0.041674837
178	0x3db33ba4	0.0875161
179	0xbda86d69	-0.08223993
180	0x3be31dd6	0.006931047
181	0xbce5f0ca	-0.028068919
182	0x3ce374ce	0.027765658
183	0xbdcb6331	-0.09931029
184	0x3d6ac980	0.05732107
185	0xbcb242d7	-0.021760387
186	0x3dac33dc	0.08408329
187	0xbdc023c8	-0.09381825
188	0x3dbea393	0.09308543
189	0xbdaec6c6	-0.08534007
190	0x3a9bcd7b	0.00118868
191	0xbe0928ee	-0.1339452
192	0xbda0b3cf	-0.07846796
193	0xbe4073c9	-0.18794169
194	0x3d4d51c2	0.0501268
195	0x3dc93e88	0.0982638
196	0xbd965d42	-0.07342006
197	0xbe4260b5	-0.18982203
198	0x3bc9faa4	0.006163912
199	0xbc555c22	-0.013022454
200	0x3e7e8c0d	0.24858113
201	0x3e006303	0.1253777
202	0x3e1b5229	0.1516806
203	0x3d70ac8d	0.058758307
204	0x3e2e99d7	0.17050873
205	0xbc151bc0	-0.009100854
206	0x3dd2b7e9	0.10288984
207	0xbb9c7d62	-0.004775689
208	0x3cce4ebb	0.025184026
209	0x3d23c6f3	0.039984655
210	0xbc828c92	-0.01593617
211	0xbd8f3f1b	-0.06994458
212	0xbe13335e	-0.14375064
213	0xbce63f34	-0.02810631
214	0x3d579067	0.052627947
215	0xbdd32012	-0.10308851
216	0x3e15951d	0.14607663
217	0xbcf12990	-0.029438764
218	0x3db76f2c	0.08956751
219	0xbd357615	-0.044302065
220	0x3db8a1e0	0.0901525
221	0xbd62f47f	-0.05540895
222	0xbcee7d72	-0.029112551
223	0x3c5430c8	0.0129510835
224	0xbd17b0b3	-0.037033748
225	0xbd4a4580	-0.049382687
226	0x3d9df2f2	0.07712354
227	0x3d49f31a	0.049304105
228	0x3d2a2f5d	0.041549075
229	0x3d85c6f4	0.06532088
230	0xbd55df3a	-0.05221484
231	0x3d6f7a37	0.058466163
232	0x3db6cd12	0.08925833
233	0xbe054304	-0.13013846
234	0x3cb4b2f2	0.022057984
235	0xbd529831	-0.051414672
236	0x3da53bfc	0.08068082
237	0x3e18982c	0.14901799
238	0x3dcd678d	0.10029516
239	0xbe4f458b	-0.20241372
240	0x3d810a3a	0.06300779
241	0x3d7b2e24	0.0613233
242	0xbc0590a1	-0.008152158
243	0x3d0e164c	0.034689233
244	0x3dba9643	0.091106914
245	0x3d8eb093	0.069672726
246	0x3da438ad	0.080186225
247	0x3d2e902d	0.042617965
248	0x3c209623	0.00980142
249	0x3e072c7b	0.13200562
250	0xbd90dcca	-0.07073362
251	0xbdc4a51c	-0.096018046
252	0xbdb602dc	-0.08887264
253	0x39c82723	0.00038176132
254	0x3e024adf	0.12723874
255	0xbd14d95b	-0.0363401
