Assets/TFModels/RollerBall.onnx (onnx, 73916 bytes, 7 tensors)

action_model._continuous_distribution.log_sigma f4 [1, 2]
000000 69 05 2a be 1a 28 a6 bd
       -0.16603626 -0.081131175

action_model._continuous_distribution.mu.bias f4 [2]
000000 48 12 ec bc e4 17 9f bb
       -0.02881731 -0.004855143

action_model._continuous_distribution.mu.weight f4 [2, 128]
000000 55 e8 17 bd 6d 2c 11 3d 75 48 35 bd bd 2e de 3c
       -0.037086803 0.03544276 -0.044258554 0.027121896
000010 a1 fb bd bd 37 fe 89 3d e7 5b 1e 3d 6c 0c 83 3c
       -0.0927651 0.06737941 0.038661864 0.015997134
000020 39 3a d9 3c 70 8c bf bb b2 55 6c bd 37 ab 10 3d
       0.02651702 -0.005845599 -0.057698913 0.035319533
000030 97 38 1f bd 07 4d 01 3d 81 56 98 3d f0 b0 81 bd
       -0.038872328 0.0315676 0.07438374 -0.06332576
000040 57 db 73 3d 2d 31 7c bd c4 0a 70 3d f3 f5 a3 3d
       0.05953535 -0.061570335 0.058604017 0.080058955
000050 7f a9 32 3d b6 db 34 3d bc ba 28 3d a0 12 a9 bc
       0.043618675 0.044154845 0.04119371 -0.020638764
000060 61 42 72 bd e2 7d e7 3c 08 77 4b bc 7f 44 bf bd
       -0.059145335 0.028258268 -0.012418516 -0.093392365
000070 95 2d 99 3d 85 d2 66 b8 ec c7 1a bd ec fb 4a bc
       0.07479397 -5.5032335e-05 -0.037788317 -0.012389164
000080 c4 10 c0 bb b5 28 9b 3d 66 8d 89 bd 5e 56 68 3c
       -0.0058613736 0.075761236 -0.06716423 0.014180748
000090 69 61 c6 bd 55 ad 99 3b fc 9d 16 bd ff 88 90 bc
       -0.09686548 0.0046898522 -0.03677176 -0.01764345
0000a0 a4 96 86 3d d8 cf a6 bc f5 e9 ae 3c c2 70 fb bc
       0.06571701 -0.02036278 0.021351794 -0.030693416
0000b0 78 eb 89 3d 4d ca c0 3c 14 87 06 bc e4 e8 71 3d
       0.06734365 0.023533965 -0.008210916 0.059059992
0000c0 a5 aa 22 bc c1 3d 77 bd 51 0f 93 3d e4 32 d1 bd
       -0.00992838 -0.060361627 0.07180656 -0.10214785
0000d0 60 01 24 3c f7 db 2b bd 47 4d 12 bd 1f 34 17 bd
       0.010010093 -0.04195782 -0.03571823 -0.03691494
0000e0 b8 68 24 bd 90 4b 86 3d 40 5e e7 bc de df 0a bd
       -0.04013893 0.06557381 -0.028243184 -0.033904903
0000f0 85 a1 ac bc 6d 86 38 3d ab be 92 3d 18 30 c2 bd
       -0.021073112 0.045050073 0.07165273 -0.094818294
000100 7d 89 49 bd 1c 63 f1 3c 9b c0 a7 bd 8d 49 ef bc
       -0.049203385 0.029466204 -0.081910335 -0.029209876
000110 44 dc 71 bd ef 05 8e bc 4b 10 bb bc 19 1d 89 bb
       -0.059047952 -0.017336814 -0.022834918 -0.004184377
000120 86 00 19 bc 43 15 25 bc dc d6 83 bd 22 f2 ab bc
       -0.009338504 -0.01007587 -0.064374655 -0.020989481
000130 6e b3 a2 3d 97 c0 3c 3d 41 f2 98 3d b8 17 27 3d
       0.0794438 0.046082105 0.07468081 0.040794104
000140 ba 57 85 bc 19 48 95 3d 11 f8 b6 3d 54 bd ed bc
       -0.016277183 0.07289142 0.08934034 -0.029020943
000150 cb ce 71 3c 47 98 74 3c 58 a4 20 bd 91 b7 70 bd
       0.014758776 0.014928884 -0.03921923 -0.058768813
000160 1b f1 31 bd e0 b2 ce bc 62 3b 8d bd 07 f7 2c bd
       -0.043442827 -0.025231779 -0.06896092 -0.04222777
000170 6a 9e aa bd 06 f8 8b 3d ad d4 08 bb 42 bb 98 bc
       -0.08330996 0.06834416 -0.0020878718 -0.018643979
000180 3d 3e 78 3d 5d 98 54 3d bb 4c 85 3d 66 b7 73 3d
       0.06060623 0.051903117 0.06508776 0.059501074
000190 8c c3 02 bd d7 90 31 bd ff f2 e1 3c f4 fd c8 bc
       -0.03192477 -0.04335102 0.02758169 -0.024535157
0001a0 ee 51 19 bc 7a 87 c0 3d 3b 27 85 bd 6a 7a b3 3d
       -0.0093579125 0.0940084 -0.06501623 0.08763583
0001b0 9c 94 a8 3d af e9 32 bc e4 57 54 bd 19 06 b5 3c
       0.0823147 -0.010919972 -0.05184163 0.022097634
0001c0 d2 41 2c bd 1a 27 b3 bd fa 0f dc bc 40 0a ba 3d
       -0.04205496 -0.087476924 -0.026863087 0.09083986
0001d0 5d 84 58 bd 9c 09 47 3d 75 7a 8a 3d 0d 2d 43 bd
       -0.052860606 0.04859315 0.06761638 -0.047650386
0001e0 6d 2a 1e bc 4b da a9 3c 19 93 94 3a 5e e0 09 bd
       -0.00965367 0.020733973 0.0011335342 -0.03366124
0001f0 7e 7b 82 bd 7a fe 92 3d e3 21 7f 3d 60 6e 4f bd
       -0.063712105 0.07177444 0.062288176 -0.05064237
000200 de f7 fd 3d 54 7a d5 bb b9 b9 fe 3b 7f 65 c2 bc
       0.124007925 -0.006514827 0.0077736047 -0.023730038
000210 ce 43 1c 3d 25 4a 3f 3d b4 0d 85 bd 25 15 6d bd
       0.0381506 0.04670157 -0.06496754 -0.057881493
000220 0d 67 a0 3d 78 56 99 3d 0d d7 89 3d 6d 8b f0 bd
       0.078321554 0.07487196 0.06730471 -0.11745343
000230 56 12 ac 3d f9 48 64 bd 9e 5e 61 3c 0e ba c8 bd
       0.08401935 -0.055733655 0.013755469 -0.09801112
000240 43 d0 e3 bd e2 b8 2e 3d bf c8 9e 3c 0a 9e 34 ba
       -0.11123707 0.042656787 0.019382833 -0.0006890005
000250 d2 43 1a 3d 5a 7f 9a 3d 7b 32 c2 bc c4 e5 8a bc
       0.037662335 0.07543822 -0.023705712 -0.016955264
000260 d3 2f f6 3d 9b 69 8b bd 4a 38 7a 3d c0 79 a4 bb
       0.120208405 -0.06807252 0.061088838 -0.0050193965
000270 3f 4c 4b 3d 3f 86 67 3b 23 92 f3 bc 0b 40 6c 3d
       0.04963326 0.003532782 -0.02973277 0.057678264
000280 a7 be 72 3d 29 e9 88 bd b5 f5 8f 3d 99 df 2a bc
       0.05926385 -0.06685097 0.07029287 -0.010429286
000290 cd 46 35 3a 9b 4b 16 3d 3e af d4 bd 8f 15 7c 3c
       0.0006915152 0.036693197 -0.10384987 0.015385999
0002a0 df 8b dd 3c b4 68 95 bc 18 64 53 bd e7 1d 2a 3d
       0.027044235 -0.018238403 -0.05160913 0.041532423
0002b0 03 62 8e bc 91 73 e5 3b 3c 84 fb 3c ef 67 dd bc
       -0.01738072 0.007002302 0.030702703 -0.027027098
0002c0 5e 63 63 bc 05 24 ff 3c 09 35 ca 3c 0d bc 9a 3b
       -0.013878671 0.031145105 0.024683492 0.0047221244
0002d0 53 2f 63 bb 1d 66 5a bd 08 bc bd bd b7 bb a5 3d
       -0.0034665659 -0.05332004 -0.0926438 0.080924444
0002e0 36 d8 3d bc ec d1 11 3d 09 a3 b0 bd d4 fb 37 3c
       -0.011587193 0.035600588 -0.086248465 0.011229474
0002f0 f0 b3 3b bd f3 9b 4f 3b 40 f2 2a bd 21 b8 f2 b9
       -0.0458259 0.0031678646 -0.041734934 -0.00046295024
000300 00 87 b2 bd a3 88 97 bb 9a ae 60 3d 65 2c 49 3d
       -0.087171555 -0.0046244427 0.054854013 0.049114604
000310 bf c1 08 3d 3c 1a 05 bd 50 b3 ff 3b c4 23 31 3c
       0.033387896 -0.032495722 0.007803358 0.01081175
000320 7b e5 b0 3a 6b d3 07 be 69 01 a1 ba 0b 60 b1 3d
       0.0013496125 -0.13264243 -0.0012283745 0.08660897
000330 43 40 17 3c f0 33 c7 bd 7a a0 ab 3a 59 04 49 bc
       0.00923163 -0.09726703 0.001309409 -0.012269103
000340 23 02 ab 3d c5 62 41 3c 76 78 42 3c 87 b8 a1 3d
       0.08350017 0.011803334 0.01186954 0.07896524
000350 b4 31 6d bd 8c 2f 60 3c f2 c4 af bb 90 99 a1 3c
       -0.05790873 0.013683211 -0.005364054 0.019726545
000360 35 0c fd bd 09 20 31 3d 17 e8 94 3b 76 e8 fd bd
       -0.12355844 0.04324344 0.004544269 -0.12397854
000370 14 c9 36 bd de cb 6c 3c f1 42 9b 3d a6 72 0a bc
       -0.044625357 0.014452903 0.075811274 -0.008450186
000380 07 c9 86 3a 01 06 7b 3c 19 52 26 3d 23 ab 49 3d
       0.00102833 0.015321256 0.04060564 0.049235474
000390 f2 3c 63 3b b8 5f fc bc 97 c2 a7 3c 62 88 53 bb
       0.0034673777 -0.030807361 0.02047853 -0.0032277335
0003a0 13 7d d4 3c 33 b6 9f bd c1 d1 82 bd e2 75 12 bd
       0.025938546 -0.077984236 -0.06387664 -0.035756953
0003b0 a1 b1 e4 3c a3 7a eb 3c 28 b1 16 be 44 b1 a8 bd
       0.027916731 0.028745001 -0.14716017 -0.08236936
0003c0 ac f4 53 3d 45 d0 97 bd 98 21 d1 3d 9b 54 96 bc
       0.05174701 -0.07412771 0.102114856 -0.01835089
0003d0 7b 5b 30 3c 2f 8b 41 3d 4a 69 ca 3c 3d ee 51 bd
       0.010763998 0.047251876 0.024708409 -0.051252592
0003e0 a9 17 74 bc 1f 47 be ba b5 f1 48 3d a0 f9 41 3d
       -0.014898219 -0.0014517045 0.049058635 0.0473572
0003f0 12 cd bc 3c fa 67 8e bd ab 5f 1d 3d 81 9d e1 3c
       0.023047004 -0.06953426 0.038421314 0.027540924

network_body.linear_encoder.seq_layers.0.bias f4 [128]
000000 fa 87 1a bd c2 39 eb bb 11 89 a4 3c cd d1 36 3d
       -0.037727334 -0.007178516 0.02008489 0.044633675
000010 c4 75 94 bd 7b fb 89 3c a7 f9 11 bd 66 87 bd 3c
       -0.072490245 0.016843548 -0.035638478 0.023135852
000020 79 f3 c3 bc df 19 0c bc be 0e 4c bd cd 4e a7 3d
       -0.023919808 -0.00855109 -0.049818747 0.08169327
000030 10 dd 60 bd 07 73 b9 bd e4 4b 7d 3d 75 db 16 bd
       -0.05489832 -0.09055143 0.061839953 -0.036830384
000040 e1 1a 59 bd 8c d0 00 3d 6a 41 a5 bd b5 b9 87 3d
       -0.05300415 0.031448886 -0.08069117 0.06627218
000050 b7 d0 f9 3c 95 4b b2 3c dd b1 a1 bd 6a df e2 3d
       0.03049503 0.021764556 -0.07895253 0.11077769
000060 98 a8 92 bd 34 0c d3 3d 01 67 f8 bb bc d6 4c bd
       -0.07161063 0.10305062 -0.0075806384 -0.050009474
000070 79 f7 89 bc bc d8 0c 3a df d4 db 3a 03 2d af bd
       -0.016841637 0.0005372872 0.0016771815 -0.08553507
000080 42 27 d2 bd 34 7f 9d 3d 72 78 0c bd 0c 70 16 bd
       -0.10261394 0.07690278 -0.034294553 -0.03672795
000090 e2 20 2d 3d e6 09 fb 3d 0c 6a 81 3d 51 5c 17 bd
       0.042267688 0.12257747 0.06319055 -0.036953274
0000a0 63 b9 84 3d 79 c4 83 bd 4b 4d d5 bd 94 5c 0b 3d
       0.06480672 -0.064339586 -0.10415133 0.034023836
0000b0 c9 de ba 3c d9 69 ad 3d 85 bc 44 bc 03 80 86 3d
       0.02281131 0.084674545 -0.012007837 0.06567385
0000c0 5c f2 9a bd 4d 19 bb bd e6 fe 98 bd 2e 38 c2 3a
       -0.07565758 -0.09135685 -0.07470493 0.0014817768
0000d0 d9 59 96 3d 9d e3 09 bd 92 1e 06 3d 4d 5c 92 bd
       0.07341356 -0.033664335 0.032743998 -0.07146511
0000e0 b6 93 0c bb 58 aa 14 bd ac 98 b2 3d a7 e6 40 bc
       -0.0021450347 -0.036295265 0.08720526 -0.011773742
0000f0 25 35 bc bc 41 2e 65 bd 5d f7 8f bc e9 3a 83 bd
       -0.02297456 -0.055952314 -0.017574007 -0.064077206
000100 18 5d 70 bd d9 ff 1d bd 3b 7f e2 3c 81 6f e2 bc
       -0.05868253 -0.038574073 0.027648559 -0.02764106
000110 6d 55 a7 bd 69 84 1f ba 39 b7 2c 3d 0d d2 86 bd
       -0.081705905 -0.00060850993 0.042166922 -0.06583033
000120 0f 0d 18 bc 29 ed 8a 3b 33 a6 47 3c 9b 43 c5 3c
       -0.009280457 0.0042396975 0.012185621 0.024080088
000130 b6 61 57 3d 10 9a 64 bc c9 f7 05 bd 5e 79 75 bd
       0.05258342 -0.013952747 -0.03270701 -0.059930198
000140 91 2a 0b be fd 45 44 3d 77 ba 54 bd 60 91 1d 3d
       -0.13590457 0.04791831 -0.05193564 0.03846872
000150 ab 6c 85 bd 8a 04 3a bd 33 e7 fd bc 4e 20 90 3c
       -0.065148674 -0.045414485 -0.030994033 0.01759353
000160 42 ca c6 3c cc 4b 01 bd bb e1 60 3d 13 86 6e bc
       0.024266366 -0.031566426 0.054902773 -0.014558333
000170 d4 44 9e bd 6e 4d 2b bd b3 ed 80 3d 41 54 43 3d
       -0.07727972 -0.04182189 0.062953375 0.047687773
000180 cc 15 03 bd 92 26 76 3c c8 6c 96 bd a7 19 d9 3c
       -0.03200321 0.015023844 -0.07344967 0.02650149
000190 ab 05 af bd 4d 54 bd bd ce a7 05 3d 50 39 9f bd
       -0.08546003 -0.09244595 0.032630734 -0.07774603
0001a0 f0 63 6b 3d cd f5 e3 bd bd 32 a5 bc d0 0d dd 3d
       0.057468355 -0.11130867 -0.020165795 0.1079365
0001b0 90 fa 19 bd 35 2c 04 3e ef 50 16 be af 4e 1d bd
       -0.03759247 0.12907489 -0.14679311 -0.038405117
0001c0 9c 23 3b bd f7 11 0d bd a1 b0 9f bb 6f 6c 7e 3c
       -0.045688257 -0.03444096 -0.0048733507 0.015528782
0001d0 87 16 3a 3d 9b 8d 22 3d 46 0b 56 bb 18 84 08 bd
       0.04543164 0.039685827 -0.0032660528 -0.0333291
0001e0 33 4f 3c bd ac 75 5a 3d 0a ca e2 3d 3c b2 78 bd
       -0.045973968 0.053334877 0.11073692 -0.060716853
0001f0 42 2d 19 3d 55 17 9e 3d 36 f7 8c 3d 74 c4 97 bd
       0.037396677 0.07719294 0.06883089 -0.07410517

network_body.linear_encoder.seq_layers.0.weight f4 [128, 8]
000000 2d 1b 5f 3e 8b ef 93 bb 0a 79 7d 3e 3b b7 2e 3f
       0.2178771 -0.0045146397 0.24753204 0.6824834
000010 b4 13 80 bd 07 17 c2 3e 24 67 1b bd 96 18 c8 be
       -0.06253758 0.37908193 -0.03794016 -0.39081258
000020 e9 95 b0 3c 76 d9 2a 3f 7c 99 02 3e cc 5f 1a 3f
       0.021555858 0.6673807 0.12753862 0.60302424
000030 84 cf e3 3c 99 9e c4 be 2d 23 81 3d a7 cc 43 3e
       0.027808912 -0.3840225 0.063055374 0.19121037
000040 78 50 0c bc 1e 2e f3 3d 8a 46 39 be 49 a1 09 be
       -0.008564107 0.118740305 -0.18093315 -0.13440432
000050 39 49 4f bd d6 22 0f 3f ab 3c 8e be 89 b5 2a 3f
       -0.05060694 0.5591253 -0.2778066 0.6668325
000060 a1 7b a0 3e 08 26 61 3d 53 08 6f 3d 12 ec d1 be
       0.3134432 0.05496791 0.058357548 -0.4100042
000070 1e 7e d9 3d 62 20 2b 3f c7 ed 3d be f9 40 0f be
       0.10619758 0.6684629 -0.18547736 -0.13989629
000080 91 0b 00 3e 71 76 de 3e ac 65 5f be 15 d0 f1 3e
       0.12504412 0.4344974 -0.21816128 0.47229066
000090 a6 7e 39 bf 9c dd 28 be ed f7 30 bf e5 9d 89 3e
       -0.72458875 -0.16490787 -0.69128305 0.26878276
0000a0 c9 ba 5a be 5d 17 02 3e 3b 99 da 3e c1 ba 85 3e
       -0.21360315 0.12704225 0.4269503 0.26119044
0000b0 2e 77 14 3f 08 9d 43 be bd f1 10 bf 20 90 10 bd
       0.57994354 -0.19102871 -0.56618863 -0.0352937
0000c0 7e da 2e 3c c0 d5 b7 bd c3 a7 b2 3d 17 63 31 be
       0.01067221 -0.089763165 0.08723404 -0.17322956
0000d0 f1 e0 59 be de 87 04 bf 86 65 34 be 0c ae 2a be
       -0.21277215 -0.51769817 -0.17616853 -0.16667956
0000e0 3d f5 89 3e 75 c1 a0 bd 8d 73 43 3e bb e9 21 3e
       0.26944914 -0.07849399 0.19087048 0.15811817
0000f0 27 b6 1f 3f 54 a4 1b 3f c7 7e 25 3e 8c 66 86 bd
       0.6238732 0.6079762 0.16161643 -0.06562528
000100 94 4f 2f be d3 d2 d7 be 0c 00 b1 3d 46 35 ef be
       -0.171202 -0.42153034 0.08642587 -0.46720332
000110 74 74 53 be d5 4d dc be 7f d9 02 bf 39 85 66 be
       -0.20649892 -0.4302813 -0.5111312 -0.22511758
000120 82 69 a3 bc e6 45 3d 3f aa 85 4c 3d c8 e7 00 3f
       -0.019947771 0.7393478 0.04993216 0.5035367
000130 7a 1a dd be 15 22 a9 3d a3 d2 31 3e bb 6e 4d be
       -0.43184263 0.08258454 0.17365508 -0.20061772
000140 bb 49 12 bf 62 2b f3 be 5a ce 9a 3e de 3e 9c 3d
       -0.57143754 -0.47494036 0.3023556 0.076291785
000150 8d 85 f3 3d 12 16 0e 3f 45 96 37 be ff 02 33 3f
       0.11890707 0.55502427 -0.17928417 0.69926447
000160 d2 99 33 be 40 2e a2 be 0a ea 32 bf 50 be e5 3e
       -0.17539147 -0.3167591 -0.69888365 0.4487176
000170 a1 7a 93 bd 5b 6c 01 3f d8 f8 bf be ca 6a 05 3f
       -0.07201124 0.5055596 -0.3749454 0.5211607
000180 c6 15 69 3f f2 24 a3 be 63 9b 11 3d b2 2d c1 3e
       0.9104885 -0.31864125 0.03554858 0.37730175
000190 73 af c3 3d 4b 85 ac be b8 e0 ae bd 64 69 82 bf
       0.09554949 -0.33695444 -0.085389555 -1.0188413
0001a0 a2 8e b3 3e 0d ff 16 bf d1 23 1f 3f 48 99 e9 bc
       0.35069758 -0.58982927 0.62164026 -0.028515473
0001b0 a1 04 be bc fa 13 0a bf 36 c5 4a 3f 18 4f 9d be
       -0.023195567 -0.5393673 0.7920717 -0.30724406
0001c0 0a f6 64 bf 9c 15 39 3e 98 eb 9d 3e a7 ec 81 3e
       -0.89437926 0.1807465 0.30843806 0.25375864
0001d0 64 b7 9c 3e 5f 86 3d bc 22 65 45 bd 5f 1d a8 be
       0.30608666 -0.011567681 -0.04819215 -0.32834908
0001e0 85 ef 19 3e cf 92 40 be 71 a9 d4 bd 3f a9 78 3e
       0.15032776 -0.18806003 -0.10383881 0.24283312
0001f0 5a 4b b2 3b d6 87 14 3e 92 c4 4c 3e 1f b0 c8 3d
       0.0054411115 0.14504942 0.1999686 0.097992174
000200 8d 38 80 3d 7e fe 93 3e 5b 57 3e bd 4f 7b 4f be
       0.06260786 0.289051 -0.046470027 -0.20261882
000210 38 58 da bd 9a f8 8b be be b9 37 3d e6 3f fb be
       -0.10661358 -0.27338105 0.044854872 -0.49072188
000220 69 d0 83 be 81 fe 04 3e 7a d0 72 3e fe 1d 26 be
       -0.25744942 0.1298771 0.2371234 -0.16222379
000230 16 27 8a bf d0 53 b5 be 60 e8 f4 3d 0d 97 e2 be
       -1.0793178 -0.35415506 0.119583845 -0.44255868
000240 8c 81 31 3e 3f f8 66 3d 91 ee f0 3d 25 51 d0 be
       0.17334574 0.05638909 0.11764253 -0.40686908
000250 33 4e e1 bd 99 5a f6 3d a4 3d 4c 3d 79 44 3d 3e
       -0.110012434 0.12028999 0.049863473 0.18483151
000260 fe ea 9c bd 81 65 27 bd 0e 9c 9a be d4 da bd be
       -0.07662009 -0.040868286 -0.30197185 -0.37081015
000270 4f b4 c7 be d3 f3 50 3f 70 78 fa be ba b8 11 be
       -0.39004752 0.81622046 -0.48920012 -0.14230624
000280 a4 71 25 3f 53 90 5c be 8d 3c 44 3d 2f 34 1f bf
       0.64626527 -0.2153943 0.04790931 -0.62189
000290 b4 13 cc 3e e7 2a 46 be 81 ae fa be 40 b3 43 bf
       0.39858782 -0.19352303 -0.4896126 -0.7644539
0002a0 bc 24 f8 3e 6b b2 d3 bd e1 be ec be 5e 6d 71 3e
       0.48465526 -0.10336765 -0.4623938 0.23576877
0002b0 c8 0b 1f bf 88 b1 44 be 6b 85 1d bf fe 50 88 3e
       -0.6212735 -0.19208348 -0.61531705 0.26624292
0002c0 95 16 80 be 2c 49 27 bc 95 bc 42 bd f9 eb c7 be
       -0.2501723 -0.010210317 -0.047543127 -0.3904722
0002d0 cc e4 94 bd e1 74 8e 3e 07 71 b2 be da 9d a8 3d
       -0.07270202 0.27823547 -0.34851858 0.08233233
0002e0 36 2e 82 3e 0e 1f f3 3e 2e 01 c5 be 82 03 7d 3e
       0.2542588 0.4748463 -0.38477463 0.2470837
0002f0 70 79 5c 3e f9 b8 fc 3e c0 cc d3 be aa b3 f2 3c
       0.215307 0.49359873 -0.4136715 0.029626686
000300 b8 3f 26 3e 00 27 07 3e 2b 8e c4 3e 4b a2 37 bd
       0.16235244 0.13198471 0.38389716 -0.04483251
000310 a1 72 bf 3e e9 6d 8f bd 1e 2a 30 3e 32 ec cf be
       0.37392142 -0.070033856 0.17203566 -0.4060989
000320 75 d0 1f bf d8 da 87 be fb de 61 3b b8 16 83 3d
       -0.62427455 -0.26534152 0.0034465182 0.06400818
000330 d4 3f 35 3f 7c 45 0a 3a eb 80 cd 3e 4d 39 a4 be
       0.7080052 0.0005274636 0.4013742 -0.32074967
000340 d0 a2 41 3f a4 76 85 be 6d 6c 88 be 9a db c2 bd
       0.7563906 -0.26067078 -0.26645222 -0.09514542
000350 17 7c 16 bf c9 d5 a7 be bd bb ae be 1a 2b dc 3e
       -0.58783096 -0.32780293 -0.34127608 0.43001634
000360 f9 5f 8c be b7 e5 2d bf 28 a1 07 3e 0e 7e bf 3e
       -0.2741697 -0.6792864 0.1324507 0.3740086
000370 61 28 a6 bd 8b 5d 5a 3c 81 17 a9 3d 37 81 2a 3e
       -0.081131704 0.013327966 0.08256436 0.16650854
000380 81 ea a6 be b4 11 73 3e 54 4a cb 3e aa 96 be bd
       -0.32600787 0.23737222 0.39705145 -0.09306081
000390 6f 53 f4 bd b3 d8 0b bc bd 6d e5 be 66 3d 77 be
       -0.11929976 -0.008535552 -0.44810286 -0.24144515
0003a0 6c c1 76 be e0 d7 09 be 99 2d 38 3e 40 df d5 3e
       -0.24097222 -0.13461256 0.17986144 0.4177189
0003b0 1a d9 1f 3f 7b d4 f4 3c 30 15 4f bf 36 96 bd 3e
       0.62440646 0.029886475 -0.80891705 0.37028664
0003c0 62 84 b5 be d4 07 b5 3d b8 db 6b 3e 68 a0 9d 3e
       -0.35452563 0.08839384 0.23033035 0.30786443
0003d0 f9 7b 60 be db ba c5 3e d0 b1 a3 3b 2f 3e b0 be
       -0.21922292 0.38619122 0.004995562 -0.34422442
0003e0 d9 2e 85 3d f6 7b 36 3f 40 d5 a4 3d 5b 01 ca 3d
       0.06503076 0.712829 0.08048487 0.0986354
0003f0 01 82 3b bf 5b 44 97 bd 8f 65 8c be 9c 8a 9c bd
       -0.73245245 -0.07386085 -0.27421233 -0.07643625

network_body.linear_encoder.seq_layers.2.bias f4 [128]
000000 e2 6d 6c 3d c4 3e 3d bc 67 ed 37 3d 9f 61 b3 3c
       0.05772198 -0.011550609 0.04490414 0.021897135
000010 7c 76 03 3d d5 cd a5 bc 5d ad a9 3d 64 eb 68 3d
       0.032095417 -0.02023975 0.082850195 0.05686511
000020 9d 2b bc bc 0b 6f b7 ba 7b a4 85 3d f4 b4 a4 3d
       -0.022970015 -0.0013994885 0.06525513 0.080423266
000030 08 ae 84 3d 8d 86 75 3d fd 99 66 3b dd e8 a8 3d
       0.06478506 0.05994277 0.0035187 0.0824754
000040 51 62 c2 3d 55 7c 66 3d df d6 76 bc bb 9b 26 3d
       0.094914086 0.056270916 -0.015065878 0.04067586
000050 37 56 3c bc ef 10 05 3c 2f 23 03 bc ad d0 79 3b
       -0.011495165 0.008121713 -0.008003994 0.0038118765
000060 c6 03 d6 3d b1 f9 78 3d 0d 06 e2 3c 8e d5 6f 3d
       0.104499385 0.060785 0.027590776 0.05855327
000070 37 dd c2 3c 54 7f 96 bd d4 ee 1a 3c 4c e5 00 bc
       0.023787124 -0.07348505 0.009456355 -0.007867169
000080 0b 7e 49 3c 49 a6 89 3d 37 ac 7d 3d 5c c1 e4 bc
       0.012298117 0.067211695 0.061931815 -0.027924232
000090 43 a9 b8 3d b0 a0 17 bd 50 ca 1c 3d 75 a3 9e bb
       0.09016659 -0.037018478 0.038278878 -0.004841263
0000a0 47 99 ef bc 8d 9e 91 bc 73 3c 13 3d 17 6f ec 3c
       -0.029247893 -0.017775798 0.03594632 0.028861566
0000b0 b3 bc 69 3d 35 0a 7a bd 85 e8 63 bd 57 14 17 3c
       0.057064723 -0.06104489 -0.05564167 0.009221158
0000c0 68 1b c0 3c e9 11 54 3d 8a f8 99 3b ba b2 81 3d
       0.023450568 0.051774893 0.0046988176 0.063329175
0000d0 9a e1 90 bd 8b f7 c4 3d c5 b6 74 3d 35 d1 dd 3d
       -0.0707428 0.096175276 0.059744615 0.10830919
0000e0 53 14 bb bc a0 ac 5a 3c 5e 94 28 3d 5b 63 60 3d
       -0.02283684 0.013346821 0.04115712 0.054782253
0000f0 c7 04 51 3d dc 1d 34 bd d0 7f d7 3b 51 dd 3a 3d
       0.051029947 -0.04397379 0.0065765157 0.04562122
000100 87 85 bd 3d 4a 59 0c bd 3b fa a0 3d c3 27 a7 bc
       0.09253984 -0.03426484 0.07860228 -0.020404702
000110 95 f9 45 3d c4 c0 ad 3b c5 2b 47 3d 49 65 7d bd
       0.048333723 0.0053025205 0.048625726 -0.06186417
000120 f4 91 00 bd a9 f5 e1 3d e7 e7 15 3c 20 12 a2 3d
       -0.03138919 0.11033184 0.009149528 0.07913613
000130 bc b3 1e 3c f5 b1 d6 3d 49 28 76 bb ac 1e 8d 3c
       0.009686407 0.10483161 -0.0037560633 0.01722654
000140 af 52 0c 3d e7 c0 10 bc 08 ef 55 3c 6a 15 81 3c
       0.03425854 -0.008835054 0.013057478 0.015757281
000150 b0 c7 6c b9 cd 5c 16 bd d2 15 b7 3a 5e ca 90 3c
       -0.00022581103 -0.036709595 0.0013968295 0.017674621
000160 7c 12 0a 3e 13 9a 92 3c 29 dc 67 3d 20 92 b9 3d
       0.13483614 0.017895734 0.056606445 0.09061074
000170 a2 1e 07 3d b2 cc d1 bc f7 4b c5 bb 9c f3 55 bb
       0.032988198 -0.025610302 -0.0060210186 -0.0032646423
000180 6f bb f7 bc 32 df db bd 91 4d 09 bd 9d b3 81 3c
       -0.030240742 -0.107359305 -0.03352124 0.015832717
000190 8c 0d ad 3c 06 ed 16 3c 0e 19 8a bc da a2 11 3b
       0.021124624 0.009211784 -0.01685765 0.0022222311
0001a0 63 15 17 bd 41 78 87 3d 9d 60 5d 3d 0c 1f ee 3c
       -0.03688563 0.066147335 0.054047216 0.029067539
0001b0 0c de 0d 3d 5d 8a 40 bc 55 21 29 3e 62 8d 10 3d
       0.03463559 -0.011751738 0.16516621 0.035291083
0001c0 7c 57 1c 3d ab ad ab 3d d7 67 38 3d e2 6d 5e 3d
       0.03816937 0.08382734 0.045020904 0.05430401
0001d0 2b 89 3f 3c fb 33 79 bc 0d d7 56 bc 00 e0 a5 3d
       0.011690418 -0.015210147 -0.013112796 0.08099365
0001e0 89 74 09 bd 8f fe 45 bd 75 e7 87 bd 9a fd 61 bc
       -0.033558402 -0.04833847 -0.06635944 -0.0137933735
0001f0 92 d8 10 3d d3 4e 71 3d dd 8b 0f 3c 66 83 e4 3c
       0.035362788 0.058913063 0.008761373 0.027894687

network_body.linear_encoder.seq_layers.2.weight f4 [128, 128]
000000 77 bb 63 3d e2 5e 33 be 9d 79 1d bd b5 d3 18 be
       0.055598702 -0.17516664 -0.038446058 -0.1492451
000010 02 20 95 3c b0 e6 1a 3e 1f 56 55 3d 98 56 92 3d
       0.01820374 0.15127063 0.052084085 0.07145423
000020 15 9a f2 3d ba 38 6c bb 3a 1a 8f bd e7 84 25 be
       0.11845795 -0.0036044554 -0.06987424 -0.1616398
000030 0d 1e c9 3d f8 dc 1c be 0e e1 4b 3e 23 7b ae bd
       0.09820185 -0.15318668 0.1991007 -0.0851958
000040 7c c9 50 bd 8e 0b 83 bd ca 06 84 bc f5 38 5f bc
       -0.0509734 -0.06398688 -0.016116519 -0.013624419
000050 aa 68 fb 3c f6 ca 15 bd 53 d9 2d bc 75 15 ac 3c
       0.030689556 -0.03657051 -0.010610896 0.021006325
000060 67 2d 14 3e 10 85 8a bd 69 86 14 bd 8d af 71 3d
       0.14470445 -0.06763661 -0.036260996 0.05900531
000070 06 5b fa 3d 7d 0a e4 3d bd c4 5a 3d e1 e3 f2 3d
       0.122243926 0.11134813 0.05341028 0.11859871
000080 9b 14 87 bd f0 56 ad 3d a3 ae 3a 3c 7a c4 0b be
       -0.06595727 0.08463848 0.011394176 -0.13649169
000090 7d 5b 91 3e d1 49 23 be 91 c5 e3 3d 8b 5e 15 be
       0.28390113 -0.15946127 0.11121667 -0.14586847
0000a0 76 f6 09 be d5 cc 27 bd ae 50 cf 3c d1 54 1d 3e
       -0.13472924 -0.040966827 0.025307026 0.15364386
0000b0 96 5c 9a 3d dd d4 28 3e 9d 09 1b 3b e2 1c a1 3c
       0.075371906 0.16487451 0.0023656853 0.019667093
0000c0 6f 2a 85 bd 46 36 e1 bc bb d8 49 3d 61 08 73 bd
       -0.06502234 -0.0274917 0.049278956 -0.059334163
0000d0 67 43 f2 bc 9a 4b e8 3d ac eb 34 bd 68 89 81 bd
       -0.029573156 0.11342545 -0.044170067 -0.06325036
0000e0 06 d9 7d 3c 26 ea 0d 3d f8 0f 24 3e 31 a6 95 3e
       0.015493637 0.03464713 0.16021717 0.29228356
0000f0 6e 76 3f bd 42 d5 68 3d 94 51 cd bd 56 2b fe 3d
       -0.046743803 0.056844003 -0.100253254 0.124106094
000100 ef 43 0e 3e 8b 36 02 be f6 34 70 3e 8e 7e c1 3d
       0.13893102 -0.12716119 0.23457703 0.094479665
000110 82 d6 7f bc 53 17 70 3d 6b db ba bd a0 82 85 bd
       -0.0156151075 0.058615994 -0.09123882 -0.06519055
000120 76 f5 a3 bd be 7b a4 bd 56 45 45 3e ab 7d 99 bd
       -0.08005802 -0.080314144 0.19264731 -0.074946724
000130 40 72 f1 bc f1 2e 62 3e 40 84 f3 3c 37 93 1b bd
       -0.029473424 0.22088219 0.029726148 -0.037982192
000140 ad 1f 9a 3c f0 70 ad ba 6c 9d 35 3d a0 dd 8f bd
       0.018813932 -0.001323251 0.044339582 -0.070246935
000150 94 1c 49 be 0c 77 07 3e c7 6f 05 3b 09 5e 2e 3d
       -0.19639808 0.13229007 0.0020360814 0.042570148
000160 d2 0d 65 3c 9d f4 c0 bd 76 74 dc bd e7 3c 4b 3d
       0.013980346 -0.09421656 -0.10764401 0.049618628
000170 00 08 69 bd 51 56 26 bc d2 f7 26 bb d6 f8 a6 3d
       -0.056892395 -0.010152415 -0.0025477302 0.081529304
000180 f0 00 88 3c 46 66 08 bc 3f 4f 2f 3e 63 98 3b 3c
       0.01660201 -0.008325165 0.17120074 0.011449906
000190 b3 25 ca 3d 50 35 d8 3c 21 5b ea bd 74 fd 4e bc
       0.09870472 0.026392609 -0.11443163 -0.01263367
0001a0 00 aa 62 3e 7c f6 ba bd d2 8f 82 3c 05 21 f4 bd
       0.22135162 -0.091290444 0.01593772 -0.119203605
0001b0 94 aa f9 bd 3f 93 cc bd 1b f0 09 be 75 02 ed bc
       -0.12190738 -0.099890225 -0.13470499 -0.028931836
0001c0 46 ca a6 3d 67 40 7b be b2 30 9c bd ce 9a 3f 3d
       0.08144049 -0.24536286 -0.076264754 0.046778493
0001d0 c5 ea 02 3e 16 a3 bd bd e8 78 76 3d 38 39 19 3e
       0.1278487 -0.09259622 0.0601739 0.14963233
0001e0 41 a0 88 bd 58 97 88 bd 90 2e 79 be 9e 2c 03 bc
       -0.06671191 -0.066694915 -0.24334168 -0.008006243
0001f0 78 6a a1 bd 71 10 8c 3d fe f5 7b 3d c6 49 50 3d
       -0.078816354 0.068390734 0.061513893 0.050851606
000200 33 28 27 bd ce 3e 89 3d 08 ca 45 be 4a 5a f3 bd
       -0.04080982 0.06701432 -0.1931535 -0.11882456
000210 2a ce 8b 3d fa 33 05 3c 11 8c 30 3d 81 a6 c5 bd
       0.06826432 0.008130068 0.043102328 -0.09650899
000220 4d 92 c6 bc 75 4e a1 bd 3e ce 8a bd f0 75 49 be
       -0.024239684 -0.078762926 -0.06777619 -0.19673896
000230 48 63 14 bd 15 be 08 bc d7 49 6d 3d 8f 2b 31 3e
       -0.036227494 -0.0083461 0.057931747 0.17301773
000240 42 8a aa bd 8f d8 ce bb 61 02 e5 bd fa bc f1 bd
       -0.08327152 -0.006312437 -0.11182094 -0.118036225
000250 25 ff d4 3d aa 73 82 bd 80 7f 00 bd 4b da 00 3d
       0.104002275 -0.063697174 -0.031371593 0.03145818
000260 ac 09 b1 3c bc a2 cc bd 5c df b8 bc fb 24 ae bc
       0.021611057 -0.099919766 -0.022567444 -0.021257868
000270 7a 92 dd bd 00 e5 fa 3d 1e 36 8b bd 2d f4 0f 3e
       -0.10818954 0.122507095 -0.067974314 0.1405799
000280 80 7c 60 bc 04 92 bf bb f1 4a 22 be 81 e2 17 bd
       -0.013701558 -0.005846264 -0.158489 -0.037081245
000290 a7 b7 21 be 9a b4 be 3d 66 9f 09 be 35 b6 d9 3d
       -0.15792714 0.09311791 -0.13439712 0.10630456
0002a0 bd 1f fc 3d 00 24 ff bd f8 a3 0a 3e 14 f8 49 3e
       0.12310741 -0.12458038 0.13539112 0.1972354
0002b0 d8 6f f5 bd 11 64 08 be 0e 7c 8a bd 56 37 de bc
       -0.11984223 -0.13319422 -0.06761943 -0.027125996
0002c0 a9 18 50 3d d4 6b 2a be b6 ff 59 3e de 00 1f 3e
       0.050804768 -0.16642696 0.21288952 0.15527675
0002d0 19 0f dd bd 03 dc 0a be 4a c2 4f bd b4 58 94 bd
       -0.10793895 -0.1356049 -0.050722398 -0.07243481
0002e0 2b dd 8e bd 63 c6 7f 3c 3f 18 3b bd 17 d2 44 3c
       -0.06975778 0.015611264 -0.04567742 0.01201298
0002f0 87 75 8d bd 81 09 eb 3d c0 da b7 bd fc f0 a2 3d
       -0.06907182 0.11476422 -0.0897727 0.0795612
000300 92 f3 5b bc 83 d5 6e 3d b2 cc 20 be 94 66 ed bd
       -0.013424771 0.05830909 -0.15703085 -0.11591831
000310 2b 89 2d 3e a6 eb bf ba 8b 30 8a bc 1c f9 7e bc
       0.16946857 -0.0014642372 -0.01686885 -0.015562322
000320 8a f9 19 bc e1 f4 55 3d 11 fe 05 be 0e 36 08 3d
       -0.009397874 0.052235488 -0.130852 0.033254676
000330 84 1f 17 be 37 84 96 bc e2 99 05 3d ec f5 a4 bd
       -0.14758116 -0.018373592 0.032617457 -0.080547184
000340 58 6b 1a bd 60 09 0f be bf d6 3e 3d 18 10 78 3c
       -0.037700027 -0.1396842 0.046591517 0.015140556
000350 ad be 68 bd 3d 4c c4 bb bb 50 0d bc 08 29 01 3e
       -0.056822468 -0.0059905336 -0.008625205 0.12613308
000360 89 de d4 bd dc 7d 9b 3b 18 b9 ea bc b8 50 00 3e
       -0.10394008 0.004745228 -0.028652713 0.12530792
000370 44 93 8c bd f1 37 c0 3c a6 eb 90 bd 0a 1f 48 bc
       -0.06864026 0.023464175 -0.07076196 -0.012214432
000380 2f fe 31 bd f8 2b 5d bd 49 5d 28 3a 1a 16 1a 3e
       -0.0434553 -0.05399701 0.0006422592 0.15047494
000390 8b 79 c5 bc ca 9c a1 3d 6b ba ac 3d 7c 70 52 bd
       -0.024105808 0.07891233 0.08433994 -0.051376805
0003a0 b8 7f c8 3c 62 e0 cc 3c 81 22 a9 3d 5e 4f 09 be
       0.024474964 0.025009338 0.08258534 -0.13409182
0003b0 3a d4 71 3d 40 d4 09 be 72 bd 19 3e 1b 79 09 bd
       0.059040286 -0.13459873 0.15013674 -0.03356276
0003c0 fa 4d e3 bc 34 d6 4d bb 3d 6c 05 3d 0d b3 77 3d
       -0.027747143 -0.0031408193 0.032573927 0.06047349
0003d0 ce c3 85 bd 3b 16 cf 3c 1f d4 64 be 63 85 68 be
       -0.065314874 0.025279155 -0.22346543 -0.22707133
0003e0 13 c0 67 3d e7 1d 80 bd 6d f3 7d bc fe 6c af 3d
       0.05657966 -0.062557034 -0.015499932 0.085657105
0003f0 d7 2c b9 3a 78 5c 68 bd 68 03 05 3e f5 35 1a be
       0.0014127743 -0.05672881 0.1298958 -0.15059645
