Assets/TFModels/SeekBehavior03.onnx (onnx, 73916 bytes, 7 tensors)

action_model._continuous_distribution.log_sigma f4 [1, 2]
-0.06073816 -0.05987055
00000000: 94c8 78bd d23a 75bd

action_model._continuous_distribution.mu.bias f4 [2]
0.022512522 0.00046446786
00000000: 2e6c b83c d283 f339

action_model._continuous_distribution.mu.weight f4 [2, 128]
-0.0805129 0.05192117 0.0013597951 0.0030840302 -0.027074842 0.010814417 -0.03336977 -0.10653278
-0.051911294 -0.034857415 0.023304453 -0.056222312 0.047679104 -0.048442814 0.0057382877 -0.054848436
-0.05235646 -0.06827174 -0.06426652 0.063890025 -0.07599577 -0.010029423 0.03025747 0.038545404
0.05580407 -0.047226906 0.012879641 0.11713609 -0.075548075 -0.054808803 0.010807575 -0.01821574
-0.004070447 -0.046547618 -0.009605799 0.019230235 -0.045126516 -0.13549282 0.06760036 0.03947853
0.022391343 0.016784897 0.056368224 0.055273037 0.05178196 0.00015361264 -0.034213465 -0.029889444
0.008458977 -0.09105108 -0.02097088 0.023697913 0.053423576 0.043358825 0.028525181 -0.012021332
-0.05576619 0.0942247 -0.0012353658 -0.008556116 -0.016645705 -0.081621505 -0.041706353 0.031618517
-0.0010865347 -0.07162071 0.04138143 0.022264149 0.036982425 -0.054470103 0.02826804 -0.038771495
0.036458325 0.039318547 0.008355473 -0.11620975 -0.00058970856 -0.023640791 -0.02835136 0.020941563
-0.07052717 -0.041569028 -0.056169868 -0.031192422 -0.07615725 -0.03674331 0.08372334 -0.050526947
0.035028808 -0.01980362 -0.03987892 -0.035151165 0.060779497 0.007803904 0.0014664143 0.06932599
0.07213588 0.017299922 0.009685854 0.024009736 -0.042315595 0.05499817 -0.038789492 -0.001628622
-0.022592925 -0.035889164 -0.013201334 0.06929313 0.023121592 0.022524418 -0.054541342 -0.052604448
-0.07196052 -0.026451869 -0.012226887 -0.053011544 0.0010133241 -0.036293786 -0.05903258 -0.030111687
-0.004382118 -5.512638e-05 0.027178774 0.02418527 0.058148697 0.07088541 0.051166512 -0.050506983
-0.010696654 -0.014969463 -0.036584567 0.123840734 0.05390221 -0.03146638 0.026417147 0.030343514
0.022586264 -0.040345833 -0.0021458592 0.020619627 -0.0020734956 0.03179544 0.025383787 -0.0014793827
-0.015997132 -0.03619329 -0.10220093 -0.0074132425 0.0065886048 0.03679544 -0.042892523 0.04240733
-0.046325922 -0.024722066 0.012466844 -0.0616077 0.02484514 0.0024081215 -0.036885574 -0.016949918
-0.10442619 -0.022385063 -0.09439861 -0.021893276 0.060417756 0.047241215 -0.042783413 0.036806606
0.0039802995 -0.078829706 0.026806634 0.0393789 0.044349097 0.02423574 -0.053694207 -0.031820446
0.06204712 0.07566557 -0.0441984 0.010818541 -0.007155753 0.027382024 0.045351684 0.050633844
-0.003061357 0.024710998 0.015478574 -0.03009969 0.05089905 0.013149228 -0.013445083 0.041691303
0.09115355 0.02088957 0.033574827 0.085328065 -0.048842877 0.060894463 -0.017500702 0.0042241914
0.06888467 0.051138733 -0.06463901 -0.039619282 0.07973696 0.074776344 0.02560118 -0.04474376
0.049829647 0.01724686 0.0084750885 -0.028070655 -0.045262326 0.0058510937 -0.03301749 -0.07557473
-0.029535783 0.09795913 -0.02138125 0.036577944 0.067160994 0.041921705 -0.03341844 -0.06144146
0.010049933 0.06401502 0.041075133 0.031248948 -0.033840995 0.011823443 -0.071591355 0.045432247
-0.022299292 -0.002380503 -0.010802176 -0.013674827 -0.0019192653 -0.048747305 -0.05455556 0.020467285
-0.015602189 0.0023988308 0.009882929 -0.09280666 -0.039988134 -0.025728406 0.059346575 0.027428595
-0.07319654 0.030679228 -0.027775036 0.042558532 -0.08226215 -0.03822065 0.0068367273 -0.053162575
00000000: f3e3 a4bd 4bab 543d 273b b23a 711d 4a3b
00000010: 0fcc ddbc f42e 313c bdae 08bd dc2d dabd
00000020: f0a0 54bd a6c6 0ebd fbe8 be3c 5e49 66bd
00000030: 2a4b 433d f96b 46bd 3f08 bc3b c1a8 60bd
00000040: ba73 56bd 0ed2 8bbd 2a9e 83bd c6d8 823d
00000050: aca3 9bbd 7352 24bc 84de f73c c9e1 1d3d
00000060: cf92 643d 0071 41bd 2105 533c 0ce5 ef3d
00000070: f3b8 9abd 327f 60bd 4112 313c 2d39 95bc
00000080: 6261 85bb b7a8 3ebd a461 1dbc ba88 9d3c
00000090: 95d6 38bd a1be 0abe 0f72 8a3d 3db4 213d
000000a0: 0d6e b73c 7b80 893c 5ee2 663d fb65 623d
000000b0: 5219 543d 1413 2139 6b23 0cbd b5da f4bc
000000c0: 8597 0a3c fd78 babd 1fcb abbc 2022 c23c
000000d0: aed2 5a3d 0699 313d a4ad e93c 1ff5 44bc
000000e0: 176b 64bd e1f8 c03d ffeb a1ba f42e 0cbc
000000f0: 935c 88bc 2d29 a7bd 48d4 2abd 6b82 013d
00000100: 0e6a 8eba e1ad 92bd 937f 293d 4e63 b63c
00000110: e27a 173d 0b1c 5fbd 6092 e73c dcce 1ebd
00000120: 5355 153d 7c0c 213d 65e5 083c 61ff edbd
00000130: ac96 1aba 55aa c1bc 1c41 e8bc a48d ab3c
00000140: 8d70 90bd 4944 2abd 6012 66bd 4087 ffbc
00000150: 55f8 9bbd 2780 16bd 2477 ab3d 58f5 4ebd
00000160: 5e7a 0f3d 343b a2bc 1458 23bd abfa 0fbd
00000170: ecf3 783d e4b7 ff3b b334 c03a c9fa 8d3d
00000180: fabb 933d 91b8 8d3c 6bb1 1e3c 11b0 c43c
00000190: 1e53 2dbd c345 613d bbe1 1ebd 7c77 d5ba
000001a0: cc14 b9bc 8400 13bd 684a 58bc 8ee9 8d3d
000001b0: 7e69 bd3c 2185 b83c be66 5fbd c377 57bd
000001c0: 0a60 93bd 97b1 d8bc 4853 48bc a222 59bd
000001d0: 84d1 843a cba8 14bd 26cc 71bd c9ac f6bc
000001e0: df97 8fbb 8037 67b8 05a6 de3c 3020 c63c
000001f0: 542d 6e3d 5f2c 913d fa93 513d 69e0 4ebd
00000200: 0541 2fbc 7b42 75bc b3d9 15bd 36a0 fd3d
00000210: 90c8 5c3d e4e2 00bd c668 d83c f692 f83c
00000220: d406 b93c ac41 25bd 8ba1 0cbb 7eea a83c
00000230: 7ce3 07bb ef3b 023d a9f1 cf3c d9e7 c1ba
00000240: 6b0c 83bc 6a3f 14bd b94e d1bd c9ea f2bb
00000250: 39e5 d73b d1b6 163d 12b0 2fbd 4fb3 2d3d
00000260: 40c0 3dbd ee85 cabc bc41 4c3c 5b58 7cbd
00000270: 0988 cb3c 93d1 1d3b 5415 17bd 8eda 8abc
00000280: 66dd d5bd e160 b7bc 0f54 c1bd 8759 b3bc
00000290: 9c78 773d 0180 413d a93d 2fbd 86c2 163d
000002a0: 2c6d 823b 7871 a1bd 9699 db3c c54b 213d
000002b0: 66a7 353d 088a c63c 75ee 5bbd 2856 02bd
000002c0: 1f25 7e3d 8df6 9a3d 6209 35bd 4040 313c
000002d0: cf7a eabb 4450 e03c b0c2 393d 6f65 4f3d
000002e0: 0ca1 48bb b86e ca3c d899 7d3c a093 f6bc
000002f0: 867b 503d dc6f 573c c448 5cbc 80c4 2a3d
00000300: b6ae ba3d 9a20 ab3c c285 093d 7bc0 ae3d
00000310: 780f 48bd 796c 793d a25d 8fbc 166b 8a3b
00000320: 6813 8d3d d976 513d 7561 84bd d447 22bd
00000330: 224d a33d 5724 993d 91b9 d13c 3c45 37bd
00000340: 2c1a 4c3d 4949 8d3c 19db 0a3c 6ef4 e5bc
00000350: fd64 39bd 88ba bf3b 593d 07bd edc6 9abd
00000360: 07f5 f1bc cc9e c83d bb27 afbc c1d2 153d
00000370: b48b 893d 18b6 2b3d c6e1 08bd 0aaa 7bbd
00000380: 79a8 243c 4f1a 833d 663e 283d cbfd ff3c
00000390: db9c 0abd 1db7 413c 7d9e 92bd 2a17 3a3d
000003a0: 01ad b6bc 3702 1cbb 9cfb 30bc 620c 60bc
000003b0: db8f fbba 41ab 47bd a775 5fbd 02ab a73c
000003c0: 53a0 7fbc b435 1d3b 02ec 213c 6b11 bebd
000003d0: 99ca 23bd 61c4 d2bc 6515 733d efb1 e03c
000003e0: 11e8 95bd 0153 fb3c 7988 e3bc db51 2e3d
000003f0: 0f79 a8bd 428d 1cbd a006 e03b 00c1 59bd

network_body.linear_encoder.seq_layers.0.bias f4 [128]
0.044734854 0.035186645 0.031158237 0.07278667 0.011726876 -0.019175576 0.05351594 -0.023392849
0.006790448 -0.04758842 0.0038775916 0.04932669 0.060123492 0.027696561 0.0429597 0.025582768
-0.037014708 -0.00469596 0.011121115 -0.023963472 0.0438647 0.03443753 0.09976815 0.06321067
-0.022747217 0.023622965 0.06305052 0.015334387 0.023568667 0.04132164 0.03483012 -0.008681287
0.05238657 0.0900184 0.020063056 0.03731793 0.009879601 -0.01279149 0.033633377 0.01068682
0.011610798 0.08395796 0.040983938 -0.0015455842 0.0145905 -0.0017194228 0.052996058 0.07793137
-0.0011988844 0.010671308 0.05761022 0.078206666 0.05751775 -0.015034254 -0.0004341216 0.020474838
0.0053010415 0.047112174 0.033198103 0.0018249705 -0.03121575 0.008155229 0.008844876 0.010074058
-0.03627141 -0.056130704 0.067839995 0.03214222 0.050375268 0.07157868 0.05226905 0.061762135
0.0673068 -0.008233914 -0.010209756 0.0010651167 0.05982458 0.0048138355 0.051516216 0.02457491
0.011263342 0.026550017 0.06927124 0.038533647 0.013999304 -0.018878752 0.04009148 0.034190305
0.039732125 -0.05007585 0.017247804 0.021071225 0.017038776 0.038328394 0.06508864 -0.018042868
0.035024688 -0.00025910707 0.073508225 0.06266518 0.06580146 0.00075730815 0.06306813 0.0224899
0.06349233 0.030633869 0.024139661 0.06626182 0.052060664 -0.025330542 0.060666956 0.03476999
0.073682114 0.04493531 0.0038717706 0.07801531 0.022413889 0.055045046 -0.00028772888 -0.024044052
0.020067785 0.051836397 0.022506975 0.014144399 0.04545551 -0.048306447 -0.022238497 0.081970714
00000000: e53b 373d df1f 103d 8f3f ff3c 2d11 953d
00000010: 1522 403c 1916 9dbc 8833 5b3d 5ca2 bfbc
00000020: 6882 de3b 13ec 42bd 311f 7e3b c90a 4a3d
00000030: 0d44 763d e6e3 e23c 83f6 2f3d f492 d13c
00000040: bc9c 17bd 91e0 99bb 5635 363c 0b4f c4bc
00000050: 79ab 333d 5e0e 0d3d 3e53 cc3d 9974 813d
00000060: 5f58 babc f384 c13c a220 813d 153d 7b3c
00000070: 1413 c13c e140 293d 07aa 0e3d f53b 0ebc
00000080: 4d93 563d 915b b83d 475b a43c b0da 183d
00000090: 0dde 213c 6693 51bc 27c3 093d c617 2f3c
000000a0: 373b 3e3c 27f2 ab3d c6de 273d 3395 caba
000000b0: fe0c 6f3c 415e e1ba 6512 593d 7b9a 9f3d
000000c0: e323 9dba b6d6 2e3c b2f8 6b3d d12a a03d
000000d0: bb97 6b3d 3b52 76bc d19a e3b9 d9ba a73c
000000e0: 5cb4 ad3b b2f8 403d bcfa 073d d933 ef3a
000000f0: 2cb8 ffbc 829d 053c 19ea 103c a90d 253c
00000100: 5491 14bd 4fe9 65bd b2ef 8a3d 8fa7 033d
00000110: 4c56 4e3d d897 923d 1218 563d 4bfa 7c3d
00000120: 26d8 893d 8ae7 06bc d246 27bc 639b 8b3a
00000130: 9e0a 753d 61bd 9d3b ab02 533d 5251 c93c
00000140: e189 383c 6c7f d93c 14de 8d3d 75d5 1d3d
00000150: 565d 653c 9da7 9abc f736 243d 220b 0c3d
00000160: 27be 223d 561c 4dbd 444b 8d3c 909d ac3c
00000170: e794 8b3c 3cfe 1c3d 314d 853d a3ce 93bc
00000180: 0c76 0f3d c3d8 87b9 7b8b 963d 9a56 803d
00000190: eac2 863d 1786 463a dd29 813d bd3c b83c
000001a0: 4408 823d e1f3 fa3c 8ac0 c53c 47b4 873d
000001b0: 903d 553d ff81 cfbc ea7d 783d fa6a 0e3d
000001c0: a6e6 963d 160e 383d 88bd 7d3b 7ec6 9f3d
000001d0: 559d b73c ea76 613d 51da 96b9 08f8 c4bc
000001e0: 3265 a43c 6752 543d 8c60 b83c e9bd 673c
000001f0: 8f2f 3a3d fbdc 45bd 822d b6bc 43e0 a73d

network_body.linear_encoder.seq_layers.0.weight f4 [128, 8]
-0.42297214 0.5777086 0.5790508 -0.6408352 -0.032088343 -0.80245656 -0.6759603 0.02816186
0.27098888 -0.17414455 0.38190767 0.595259 0.33776018 0.020072483 0.38575953 -0.3908621
0.36470476 0.09742031 0.5533235 0.3112289 -0.28373334 0.5334982 0.2571715 0.6076989
0.15969932 0.11938444 0.17468849 -0.055330176 1.1416835 0.16153234 0.04220007 0.49378893
0.3752981 0.8399317 0.045231156 -0.6148334 0.16165568 -0.2844684 -0.804449 0.27131733
-0.49560016 0.6202949 -0.27195153 -0.83665615 -0.45771295 0.112968035 -0.47650966 -0.13514496
0.11448929 0.38409236 0.7165558 0.002335876 0.19884586 0.08215593 -0.55951816 0.07482379
-0.53328264 0.35844046 0.071504444 0.16322817 0.024598617 0.77962124 0.120125994 -0.78632724
-0.19996794 0.3427458 -0.020623762 -0.62470937 0.01703802 -0.17899269 -0.23794743 -0.24214491
-0.03299369 -0.3910416 -0.13034065 -0.8597137 0.3311379 0.7753404 0.4536475 -0.12953843
0.15055959 -0.08912479 0.39172614 -0.5024114 0.06394399 0.09790796 -0.2807238 -0.12059389
0.34750047 0.016114099 -0.4985989 0.07331266 -0.032685444 0.5565012 0.046568777 -0.14827833
0.048226 0.014451425 -0.414067 0.39190018 -0.013760348 0.22561364 0.2002169 0.035121776
-0.29490364 0.25601053 0.56643164 0.11132417 0.5362267 0.6998388 0.043975726 -0.56793165
-1.0654647 -0.07774161 0.5782086 0.11438463 0.030112216 -0.011268891 0.3022563 0.112035654
0.13247755 -0.24111883 -0.8135559 0.6956293 0.25010696 -0.29452062 0.11867607 0.18812783
-0.33645922 0.18184645 -0.16758494 0.46612802 -0.22159001 -0.4325534 -0.30402973 0.27904975
0.049344316 0.22268596 -0.15235728 -0.2255647 -0.31245998 0.16752417 0.0075638704 0.36352533
0.1650057 -0.70709383 -0.4720706 -0.6320917 0.48137143 0.20695141 0.054767232 -0.2922912
-0.29473263 0.03992232 -0.18609728 -0.21769528 0.21247768 0.23726791 -0.48342323 0.2832531
0.26022306 -0.14775176 0.30053988 0.3958747 -0.3777341 -0.10539749 0.5444406 0.60562736
0.30423814 0.69729125 -0.16196282 -0.6813526 -0.7990702 -0.03710107 -0.021800864 -0.38563842
0.3902378 -0.43788195 -0.5490725 -0.1755883 0.17492203 0.5186005 -0.1691065 0.27559802
-0.3203302 0.06685189 -0.5611168 0.28175813 0.38256267 -0.34377804 -0.06112572 -0.6978077
0.02994164 -0.042081486 -0.30943546 0.22141035 0.37689036 -0.3093928 -0.37308505 0.03125444
-0.63918823 -0.18046993 -0.34014514 -0.14949284 -0.07203532 -0.39136532 -0.03460362 -0.20177601
-0.041830447 0.36196437 0.7358273 0.040892653 -0.3106411 -0.23971003 -1.015303 -0.14676324
-0.22955309 -0.25700492 0.1810438 0.19901875 -0.3713373 0.11024162 -0.34445286 -0.26407224
0.06468177 -0.17651147 -0.26712623 -0.129663 0.4320924 0.27853972 0.55008835 -0.21061048
0.18804081 -0.060155064 0.24788532 0.10569326 0.30930188 0.38012972 -0.38435996 -0.37839702
0.33555225 -0.45953894 0.18348978 0.08752667 0.015757367 0.12101875 0.10745419 -0.7015134
0.14650424 0.52012056 -0.17763522 -0.32730466 0.045592148 0.13454889 -0.7474407 -0.27072906
00000000: ce8f d8be b6e4 133f ac3c 143f c70d 24bf
00000010: 116f 03bd cb6d 4dbf bc0b 2dbf b3b3 e63c
00000020: 0ebf 8a3e f352 32be 6789 c33e e562 183f
00000030: e7ee ac3e 0c6f a43c 4682 c53e 141f c8be
00000040: 95ba ba3e 4d84 c73d 9ca6 0d3f 6559 9f3e
00000050: 7f45 91be 5793 083f fcab 833e 2892 1b3f
00000060: 3888 233e d47f f43d 8ae1 323e e5a1 62bd
00000070: af22 923f bc68 253e fbd9 2c3d e7d1 fc3e
00000080: 1327 c03e c405 573f 4e44 393d b965 1dbf
00000090: 1189 253e d8a5 91be 5ff0 4dbf 1bea 8a3e
000000a0: 4ebf fdbe a6cb 1e3f 3b3d 8bbe 192f 56bf
000000b0: 5a59 eabe c95b e73d 13f9 f3be 7163 0abe
000000c0: 5c79 ea3d c1a7 c43e 3370 373f 7f15 193b
000000d0: 409e 4b3e 5e41 a83d 953c 0fbf 373d 993d
000000e0: 3685 08bf 8285 b73e ec70 923d 4925 273e
000000f0: 0a83 c93c 4295 473f 9e04 f63d be4c 49bf
00000100: 65c4 4cbe 617c af3e 2af3 a8bc f4ec 1fbf
00000110: 5193 8b3c dc49 37be 7ea8 73be d6f4 77be
00000120: 6424 07bd 9b36 c8be 0578 05be 3216 5cbf
00000130: e88a a93e b57c 463f 7c44 e83e b9a5 04be
00000140: 4b2c 1a3e 0f87 b6bd 5490 c83e 099e 00bf
00000150: 11f5 823d f883 c83d 08bb 8fbe eef9 f6bd
00000160: 95eb b13e b701 843c 5b48 ffbe f324 963d
00000170: 2ce1 05bd dd76 0e3f e7be 3e3d 46d6 17be
00000180: a088 453d abc5 6c3c 9700 d4be 24a7 c83e
00000190: 1573 61bc 4307 673e a905 4d3e dadb 0f3d
000001a0: 9cfd 96be d013 833e aa01 113f edfd e33d
000001b0: 2746 093f a328 333f e41f 343d f863 11bf
000001c0: 2661 88bf fe36 9fbd 7b05 143f 7d42 ea3d
000001d0: e5ad f63c 28a1 38bc 56c1 9a3e f372 e53d
000001e0: 32a8 073e dbe7 76be 3345 50bf c314 323f
000001f0: 050e 803e 68cb 96be 700c f33d 95a4 403e
00000200: 6244 acbe f535 3a3e 639b 2bbe 55a8 ee3e
00000210: 7ee8 62be a477 ddbe c9a9 9bbe 9cdf 8e3e
00000220: 441d 4a3d ca07 643e 8c03 1cbe 6ffa 66be
00000230: c1fa 9fbe 758b 2b3e 58da f73b fe1f ba3e
00000240: 41f7 283e 1a04 35bf 3db3 f1be c3d0 21bf
00000250: 5176 f63e 12eb 533e 9b53 603d 31a7 95be
00000260: 32e7 96be 9685 233d 4990 3ebe 83eb 5ebe
00000270: c093 593e 5cf6 723e 4083 f7be 8d06 913e
00000280: f53b 853e 3d4c 17be 5de0 993e 17b0 ca3e
00000290: 5d66 c1be a4da d7bd 7660 0b3f 650a 1b3f
000002a0: 1ac5 9b3e ae81 323f 95d9 25be 206d 2ebf
000002b0: dd8f 4cbf 4bf7 17bd ba97 b2bc 6672 c5be
000002c0: 40cd c73e 1032 e0be 0490 0cbf 6bcd 33be
000002d0: c31e 333e 01c3 043f 412a 2dbe 2f1b 8d3e
000002e0: 5202 a4be a5e9 883d 5aa5 0fbf 9a42 903e
000002f0: 41df c33e ad03 b0be f75e 7abd 87a3 32bf
00000300: 2c48 f53c a35d 2cbd 536e 9ebe 65b9 623e
00000310: c6f7 c03e bc68 9ebe 0105 bfbe a804 003d
00000320: d7a1 23bf 1ccd 38be 8127 aebe a714 19be
00000330: 4187 93bd 0961 c8be 87bc 0dbd 5f9e 4ebe
00000340: 6756 2bbd 6553 b93e 2e5f 3c3f 0e7f 273d
00000350: 5a0c 9fbe 8c76 75be 73f5 81bf 1a49 16be
00000360: f70f 6bbe 2696 83be 8c63 393e 92cb 4b3e
00000370: ec1f bebe 5cc6 e13d 205c b0be 7a34 87be
00000380: e077 843d 6cbf 34be c5c4 88be 61c6 04be
00000390: 373b dd3e c29c 8e3e 97d2 0c3f 46aa 57be
000003a0: c58d 403e 2865 76bd a6d5 7d3e b575 d83d
000003b0: d15c 9e3e 5da0 c23e d4ca c4be 41bd c1be
000003c0: 81cd ab3e b048 ebbe bfe4 3b3e 2f41 b33d
000003d0: 9815 813c aed8 f73d f110 dc3d 6296 33bf
000003e0: 3505 163e 9f26 053f 02e6 35be 7a94 a7be
000003f0: d5be 3a3d 2fc7 093e 4658 3fbf 009d 8abe

network_body.linear_encoder.seq_layers.2.bias f4 [128]
0.024799503 0.047018904 0.009080743 0.0696888 0.049829785 0.034995943 -0.0007913371 0.05307114
0.0077503324 -0.00081500615 0.02464354 0.035054903 0.031523846 0.030761631 0.014090417 -0.005472507
-0.003850984 0.01161202 0.0707553 0.07272995 0.012530912 -0.0052036312 0.04629507 0.031198252
0.041062582 0.0065926258 0.013984461 0.07887995 0.052520804 -0.0013730341 0.0137953395 -0.0028213973
0.03137197 0.023208018 0.058935452 0.014591338 0.0463453 0.042924706 0.086081386 0.04692876
0.009264473 0.05879936 0.05603263 0.05388801 0.03281209 -0.012757524 0.053428497 -0.007159633
0.03526194 0.056897134 0.025735896 0.010992017 0.05131637 0.051275704 0.02936466 0.024396814
0.04981777 0.054165 0.008042986 -0.0012687522 0.03915 0.025049213 0.0031946106 0.03772612
0.056194283 0.058389682 0.027113404 0.04777104 0.04256253 0.029373277 0.043075997 -0.0075658252
0.050009925 0.042159304 0.027785053 0.054851696 0.05712582 0.0354041 0.020733936 0.015164965
0.063697495 -0.020564115 0.008249659 -0.030387903 0.054107286 -0.0035544324 0.05738586 0.037046835
0.033927366 0.048182532 0.041017767 0.007290117 0.048618708 0.0403455 0.014014131 0.036551546
0.064632036 0.02445078 0.017861838 0.040207136 0.020561423 0.020358587 0.0395859 0.04084337
-0.0052537154 -0.026640976 -0.029070111 0.066985756 0.0023814857 0.034637265 0.018888943 0.024494587
0.009235993 -0.012216831 -0.023048911 0.056454927 0.022128165 -0.0154314665 0.0038767054 0.0068606245
0.020139659 0.003364595 0.03750719 0.045901716 0.07191375 0.07147637 0.049614776 0.032633647
00000000: 5428 cb3c e596 403d 66c7 143c 00b9 8e3d
00000010: 511a 4c3d e857 0f3d bc71 4fba 2061 593d
00000020: 80f6 fd3b 23a6 55ba 40e1 c93c bb95 0f3d
00000030: 261f 013d d1ff fb3c 7edb 663c b752 b3bb
00000040: ca60 7cbb 5840 3e3c 28e8 903d 71f3 943d
00000050: 744e 4d3c 3983 aabb e69f 3d3d 7a93 ff3c
00000060: 3d31 283d f406 d83b 151f 653c d08b a13d
00000070: 0e20 573d 61f7 b3ba d905 623c 31e7 38bb
00000080: e57f 003d be1e be3c 4d66 713d 8210 6f3c
00000090: 92d4 3d3d d1d1 2f3d 704b b03d 5f38 403d
000000a0: 04ca 173c 99d7 703d 7982 653d adb9 5c3d
000000b0: f865 063d ef04 51bc d7d7 5a3d 5b9b eabb
000000c0: d36e 103d f80c 693d 16d4 d23c dc17 343c
000000d0: 1d31 523d 7906 523d 288e f03c d4db c73c
000000e0: b80d 4c3d 1edc 5d3d bac6 033c 424c a6ba
000000f0: c05b 203d 0234 cd3c ac5c 513b b486 1a3d
00000100: fa2b 663d 052a 6f3d ee1c de3c 91ab 433d
00000110: 0c56 2e3d 3aa0 f03c 7570 303d beea f7bb
00000120: 35d7 4c3d 3caf 2c3d 7b9d e33c 2cac 603d
00000130: c4fc 693d e403 113d 37da a93c 7976 783c
00000140: d573 823d 1376 a8bc 9429 073c 0df0 f8bc
00000150: 9a9f 5d3d 7bf1 68bb 6f0d 6b3d 6cbe 173d
00000160: 6cf7 0a3d 0c5b 453d 3f02 283d efe1 ee3b
00000170: 6924 473d 5341 253d 879b 653c 13b7 153d
00000180: cd5d 843d 014d c83c fd52 923c 3db0 243d
00000190: 6e70 a83c 0dc7 a63c d324 223d 614b 273d
000001a0: 5c27 acbb 2d3e dabc 7124 eebc d42f 893d
000001b0: b312 1c3b cedf 0d3d fcbc 9a3c dfa8 c83c
000001c0: 9052 173c 1a29 48bc 12d1 bcbc 483d 673d
000001d0: 2046 b53c 43d4 7cbc 5310 7e3b 17cf e03b
000001e0: edfb a43c 8980 5c3b 24a1 193d 7003 3c3d
000001f0: 8447 933d 3462 923d dd38 4b3d dcaa 053d

network_body.linear_encoder.seq_layers.2.weight f4 [128, 128]
-0.091977924 0.12601666 -0.008218937 0.076799035 -0.062848106 0.06789962 -0.107956834 0.06278906
-0.057044726 0.034452755 -0.15891995 -0.08800757 0.08361556 0.14946787 0.024053352 -0.00809968
0.02473772 0.1575615 0.061871763 0.035284624 0.07658159 -0.10187222 0.04563763 0.075989924
0.015647503 0.05404036 -0.09239259 0.020779913 0.0168819 -0.15173726 0.004892794 0.038278334
0.19756515 -0.020543607 0.06289962 0.09780271 -0.1657504 0.03088544 -0.09614075 0.06921985
-0.006861988 -0.16476794 -0.015867034 0.17865887 -0.038168143 -0.13988045 -0.14988331 -0.047674578
0.028488232 0.030528244 -0.08435718 0.06918078 -0.13519351 -0.026604544 -0.05889316 0.046776764
0.037430987 -0.05406088 -0.0504911 -0.049516715 -0.057612434 -0.13036142 0.15650228 0.036021907
-0.08036763 -0.0883055 0.08295226 0.14894697 0.06444206 -0.122628994 0.03546673 0.04103563
-0.11449611 0.006089772 -0.021020854 0.08751612 0.19916977 -0.058671337 0.13566567 0.14022475
0.013745964 0.059356954 -0.1315093 -0.17017776 -0.0073409085 -0.07555685 -0.011280324 -0.022915235
0.053150084 -0.15303427 -0.116547704 0.026628235 0.13656817 -0.04856521 0.09127038 -0.011228946
0.09041523 -0.035282604 -0.05154255 0.13364957 0.0019973142 0.04586528 0.1289526 0.029929185
0.2052631 0.07486743 -0.018379275 0.08772269 0.0010985945 -0.024377985 0.05250896 0.11384233
-0.14769907 -0.062547 -0.045049123 -0.03135111 0.0024221344 0.07420357 0.007467178 0.056125276
0.017998138 -0.08315866 -0.033683363 0.07745979 0.13846472 0.06660775 -0.082360655 0.21688312
0.11396553 -0.018216783 0.017799538 0.13077112 0.2201649 -0.0770471 0.10908298 -0.008786672
0.16530615 0.04226842 0.11257372 -0.014142595 0.06075171 0.09659599 -0.099148035 -0.0014428875
-0.030531874 -0.069247365 0.10884563 -0.12525396 -0.036535315 -0.094534084 -0.068068415 0.092591755
0.15147993 0.102039196 0.002415613 -0.10555026 0.011849367 0.023284521 0.07526949 0.038730383
0.10347653 0.17540622 0.07684523 -0.02125163 -0.017757436 0.04933091 -0.032050874 0.09093305
0.033926897 0.20360918 -0.03761589 -0.21808906 -0.13471764 -0.13527419 0.025214694 0.09814567
-0.12820327 -0.0049883015 0.082270816 0.14439392 0.11201351 0.03669546 0.06829045 0.15388225
-0.14015439 0.045869324 0.090118974 0.0639071 0.09506511 -0.03401149 0.04927075 0.03205574
0.03326099 -0.09525119 0.088122316 -0.025537957 -0.0036123933 0.015672749 -0.012571227 -0.025740549
0.059591923 0.12117685 0.08885862 0.006162773 0.08562929 -0.09607915 -0.04360113 -0.026944222
-0.14701632 -0.046707056 0.103696 0.022084203 0.06061899 0.03370396 -0.20575869 0.047424495
-0.03006445 -0.281571 -0.0069028656 -0.034042537 -0.18094122 0.022723977 -0.13363834 0.04063578
0.09339068 0.017520186 0.011249709 0.064486064 0.24541257 -0.17655337 -0.049404334 -0.105204836
0.15038674 0.101099275 0.09519491 -0.022189733 -0.077207424 0.04801138 0.014322132 0.14772543
0.023888873 0.07066872 -0.05765177 -0.0784076 -0.06569552 -0.12077245 0.047605373 -0.054623466
-0.12821452 -0.0026236903 0.0995228 0.17124858 0.03968913 0.021893203 0.05832751 0.080840625
00000000: ec5e bcbd 830a 013e b8a8 06bc d048 9d3d
00000010: 82b6 80bd f50e 8b3d 7918 ddbd 8d97 803d
00000020: bba7 69bd 551e 0d3d e9bb 22be 503d b4bd
00000030: a23e ab3d 1b0e 193e 890b c53c 85b4 04bc
00000040: c2a6 ca3c cd57 213e 3f6d 7d3d 9c86 103d
00000050: cfd6 9c3d 62a2 d0bd 86ee 3a3d 9ba0 9b3d
00000060: 312f 803c 6d59 5d3d 5438 bdbd a33a aa3c
00000070: e94b 8a3c 0361 1bbe bb53 a03b bec9 1c3d
00000080: 854e 4a3e 114b a8bc 84d1 803d ca4c c83d
00000090: 79ba 29be 7603 fd3c 71e5 c4bd 23c3 8d3d
000000a0: 87da e0bb edb8 28be 95fb 81bc 5af2 363e
000000b0: 3356 1cbd d23c 0fbe 037b 19be 6b46 43bd
000000c0: 2760 e93c 5e16 fa3c 75c3 acbd a7ae 8d3d
000000d0: 2b70 0abe c6f1 d9bc f439 71bd fe98 3f3d
000000e0: 3c51 193d f16e 5dbd c1cf 4ebd 0ad2 4abd
000000f0: 04fb 6bbd 777d 05be 2242 203e b58b 133d
00000100: c997 a4bd 84d9 b4bd e0e2 a93d 8e85 183e
00000110: 33fa 833d e924 fbbd 9045 113d fa14 283d
00000120: f07c eabd b68c c73b ed33 acbc a73b b33d
00000130: 29f3 4b3e 5b51 70bd f1eb 0a3e 1497 0f3e
00000140: c036 613c 4720 733d 60aa 06be 1443 2ebe
00000150: 018c f0bb 8dbd 9abd 1cd1 38bc bbb8 bbbc
00000160: e7b3 593d 04b5 1cbe 90b0 eebd 7523 da3c
00000170: 87d8 0b3e 50ec 46bd f7eb ba3d 9df9 37bc
00000180: 9f2b b93d 7e84 10bd 481e 53bd 6fdb 083e
00000190: 5fe5 023b 3bdd 3b3d 260c 043e 0d2e f53c
000001a0: 7d30 523e 1854 993d 2290 96bc f4a7 b33d
000001b0: b7fe 8f3a 57b4 c7bc a313 573d 2b26 e93d
000001c0: 6d3e 17be a418 80bd 6e85 38bd 066a 00bd
000001d0: acbc 1e3b 0bf8 973d 3baf f43b 9ee3 653d
000001e0: d570 933c 164f aabd 91f7 09bd 3da3 9e3d
000001f0: b2c9 0d3e a569 883d b4ac a8bd 9c16 5e3e
00000200: c366 e93d 5d3b 95bc 56d0 913c dde8 053e
00000210: e872 613e dfca 9dbd e666 df3d f9f5 0fbc
00000220: 0446 293e a721 2d3d 0d8d e63d 58b6 67bc
00000230: c9d6 783d 1ed4 c53d 200e cbbd 451f bdba
00000240: fb1d fabc 90d1 8dbd 75ea de3d 9342 00be
00000250: 0ea6 15bd 169b c1bd 7467 8bbd bfa0 bd3d
00000260: 8e1d 1b3e edf9 d03d 434f 1e3b bc2a d8bd
00000270: d923 423c 2ebf be3c e426 9a3d c0a3 1e3d
00000280: 81eb d33d b09d 333e 0861 9d3d e617 aebc
00000290: 0b78 91bc 350f 4a3d c747 03bd 1b3b ba3d
000002a0: eef6 0a3d ed7e 503e 1f13 1abd bd52 5fbe
000002b0: 6cf3 09be 5185 0abe 0c8f ce3c 9900 c93d
000002c0: b847 03be e874 a3bb 9a7d a83d 00dc 133e
000002d0: 5767 e53d fb4d 163d dddb 8b3d 4f93 1d3e
000002e0: a284 0fbe 79e1 3b3d 4c90 b83d bae1 823d
000002f0: 7fb1 c23d a24f 0bbd 20d0 493d e14c 033d
00000300: ad3c 083d 0e13 c3bd 7979 b43d fa34 d1bc
00000310: e7bd 6cbb 2364 803c 8cf7 4dbc d8dd d2bc
00000320: a916 743d 912b f83d 82fb b53d 16f1 c93b
00000330: 695e af3d 25c5 c4bd 1997 32bd 21ba dcbc
00000340: 728b 16be e64f 3fbd 925e d43d eee9 b43c
00000350: 9e4b 783d 2a0d 0a3d 68b2 52be 3040 423d
00000360: b949 f6bc 132a 90be 6f31 e2bb 3070 0bbd
00000370: a848 39be a227 ba3c 7dd8 08be b471 263d
00000380: 9d43 bf3d 7e86 8f3c b350 383c 4511 843d
00000390: 6f4d 7b3e 68ca 34be 335c 4abd a275 d7bd
000003a0: fbfe 193e 230d cf3d 8df5 c23d 3ec7 b5bc
000003b0: ed1e 9ebd 95a7 443d 60a7 6a3c 5645 173e
000003c0: 99b2 c33c c3ba 903d 4324 6cbd 2a94 a0bd
000003d0: 5f8b 86bd 8c57 f7bd dafd 423d dbbc 5fbd
000003e0: ab4a 03be 38f2 2bbb 9cd2 cb3d ca5b 2f3e
000003f0: 1291 223d 6059 b33c d4e8 6e3d c58f a53d
