Assets/TFModels/SeekBehavior04.onnx (onnx, 73916 bytes, 7 tensors)

action_model._continuous_distribution.log_sigma f4 [1, 2]
0	0xbd617340	-0.05504155
1	0xbd510701	-0.05103207

action_model._continuous_distribution.mu.bias f4 [2]
0	0xbbfbb13c	-0.00768104
1	0x3c90d844	0.017681248

action_model._continuous_distribution.mu.weight f4 [2, 128]
0	0x3c569480	0.013096929
1	0xbd10e15f	-0.03537118
2	0x3d0eb009	0.03483585
3	0xbc3c012f	-0.011474892
4	0x3d3860ec	0.045014307
5	0x3d05ff0b	0.03271393
6	0xbc087c59	-0.008330428
7	0x3b2597de	0.0025267522
8	0x3c773573	0.015088427
9	0x3c3fc6bb	0.011705096
10	0xbd3e2de7	-0.046430495
11	0xbd727f12	-0.059203215
12	0x3d5a1715	0.05324467
13	0xbd1640bf	-0.03668284
14	0x3d1dca6b	0.03852312
15	0xbd9e7814	-0.07737747
16	0x3cc6476f	0.024203984
17	0xbc4a93ef	-0.012364372
18	0xbd2bcf3d	-0.041945685
19	0xbcf16f93	-0.029472148
20	0x3cb3d37b	0.021951428
21	0xbca1691e	-0.019703444
22	0xbb607afc	-0.0034252992
23	0x3d9ffb9a	0.07811661
24	0x3cb870e0	0.02251476
25	0x3c102f5a	0.008800352
26	0xbc157be1	-0.009123773
27	0x3d3d52b5	0.046221454
28	0xbd65f8ed	-0.056145597
29	0xbd716f30	-0.058943927
30	0xbd495035	-0.049148757
31	0x3d5413f0	0.051776826
32	0xbd15ee23	-0.036604058
33	0x3d51b469	0.051197443
34	0xbd3ca075	-0.04605146
35	0x3d3a4948	0.045480043
36	0x3cd211a1	0.025643172
37	0xbd35c25e	-0.044374816
38	0xbb70c723	-0.0036739788
39	0x3d6045a4	0.054753914
40	0x3dc5bd70	0.09655273
41	0x3cac5a5e	0.021039184
42	0xbc79b4a8	-0.015240826
43	0xbcdf5214	-0.027260818
44	0x3c9750cc	0.018471144
45	0x3d8c0320	0.068365335
46	0x3d81bfe7	0.063354306
47	0xbd1fad3e	-0.038983576
48	0x3d6d2f3c	0.057906374
49	0xbcaef27a	-0.021355856
50	0xbcc91f1e	-0.02455097
51	0xbd897dab	-0.067134224
52	0xbcdb39cc	-0.026760958
53	0xbc8b7f72	-0.017028544
54	0x3c90c916	0.01767401
55	0x3ca87fca	0.020568747
56	0xbd9d90df	-0.076936476
57	0x3c873c95	0.01650838
58	0x3d1d5f17	0.038420763
59	0xbca3c27e	-0.019990202
60	0xbd41cd3f	-0.04731488
61	0x3c772b49	0.015086004
62	0x3d282905	0.041054744
63	0x3d240f07	0.040053394
64	0xbdb3fcd0	-0.087884545
65	0xbd6703f3	-0.05640025
66	0xbcea1182	-0.028572802
67	0xbd8609c7	-0.06544834
68	0xbd3cc80d	-0.04608922
69	0xbc5067e3	-0.012720081
70	0xbd05a82a	-0.032631077
71	0xbbbe5e6e	-0.0058095967
72	0xbd4a5286	-0.049395107
73	0x3b99f69a	0.0046985867
74	0xbb2301d0	-0.0024872907
75	0x3c4f1d24	0.012641225
76	0x3d4014b5	0.046894748
77	0x3d5ab99e	0.053399675
78	0x3cd83e96	0.02639703
79	0xbcbfa5ff	-0.023394583
80	0x3cb6bb7d	0.022306198
81	0xbd47c040	-0.04876733
82	0x3c882f54	0.01662413
83	0x3c381ed9	0.011237823
84	0x3d1e20e3	0.038605582
85	0x3a918176	0.0011101204
86	0x3ce19c40	0.027540326
87	0x3d390016	0.045166098
88	0xbdae853d	-0.08521507
89	0x3c8a4b6a	0.016881663
90	0xbd2c6530	-0.042088687
91	0xbc4ce858	-0.012506567
92	0xbce4aae0	-0.02791351
93	0x3cb44321	0.022004666
94	0xbcd6242f	-0.0261403
95	0x3c10419c	0.008804705
96	0x3d2fd6e6	0.042929552
97	0x3c3f7579	0.0116857225
98	0xbccbaab2	-0.024861667
99	0x3d311ff6	0.04324337
100	0xbbd8179a	-0.0065946104
101	0x3d9ad33d	0.07559822
102	0x3c8a5705	0.016887197
103	0x3d62fa23	0.05541433
104	0x3cdc74cb	0.02691116
105	0xbcea53dc	-0.02860444
106	0x3d1323ba	0.035922743
107	0xbcf57450	-0.029962689
108	0xbc204d46	-0.009784048
109	0xbd1e26ea	-0.03861133
110	0x3cccccfb	0.025000086
111	0xbd1b42a5	-0.037905354
112	0xbc8303fa	-0.015993107
113	0x3d93f4e3	0.07224443
114	0xbcc39070	-0.023872584
115	0x3d84ca28	0.06483871
116	0x3d69f497	0.057118025
117	0xbd9a2d7d	-0.075282075
118	0x3cc7bf56	0.024383228
119	0xbbb72d27	-0.0055900994
120	0x3c3750cf	0.0111887
121	0x3d3b4bd7	0.045726623
122	0xbd1ed2ed	-0.038775373
123	0xbd996811	-0.07490552
124	0xbce3242a	-0.027727205
125	0xbd2c023a	-0.04199431
126	0x3d22ce86	0.039747737
127	0xbc52065c	-0.012818899
128	0x3cc566fa	0.024096955
129	0xbd27d90d	-0.04097848
130	0xbd1346b8	-0.035956115
131	0xbc0fb126	-0.008770263
132	0x3d4b9117	0.049698915
133	0x3cda43ec	0.026643716
134	0xbd51f473	-0.051258516
135	0xbcf7a7b2	-0.03023133
136	0xbd748fdf	-0.05970752
137	0xbc239684	-0.009984616
138	0x3bf326ad	0.007420382
139	0x3c5e5751	0.013570623
140	0x3d4eb589	0.050466094
141	0x3d0804a7	0.03320756
142	0xbd298aef	-0.041392263
143	0x3d18cefe	0.037306778
144	0xbc830773	-0.015994763
145	0x3d0ee81f	0.034889337
146	0x3bc19748	0.0059079267
147	0xb9e0be4d	-0.00042866395
148	0x3d3353a8	0.043780953
149	0xbd807c68	-0.062737286
150	0xb928c89f	-0.00016096466
151	0xbd783814	-0.060600355
152	0x3cd6678c	0.026172422
153	0xbd3a0df0	-0.045423448
154	0xbd861533	-0.06547012
155	0xbd80f8e0	-0.06297469
156	0xbc05298e	-0.008127583
157	0xbb35b0e3	-0.002772384
158	0xbd9950b6	-0.074860975
159	0xbda0548a	-0.078286245
160	0xbd03e05e	-0.032196395
161	0xbc60c776	-0.01371943
162	0xbc864377	-0.016389592
163	0xbd4fe3b9	-0.050754283
164	0x3cf0976c	0.029369079
165	0x3cbe3333	0.023217773
166	0xbd7571fc	-0.059923157
167	0xbd246e95	-0.04014452
168	0x3d754c31	0.059887115
169	0xbd24d244	-0.040239587
170	0x3c7b2103	0.015327695
171	0xbd05b266	-0.032640837
172	0xbd133ad6	-0.035944782
173	0x3c11e310	0.008904234
174	0xbd3d1a1d	-0.04616748
175	0x3cf58002	0.029968265
176	0x3d0115c8	0.031514913
177	0xbca64cd1	-0.0203003
178	0x3d2699f6	0.040674172
179	0xbdb7582d	-0.08952365
180	0x3d5cb011	0.053878848
181	0x3d7584f1	0.059941236
182	0xbcb47be5	-0.022031734
183	0x3d8f561d	0.06998847
184	0xbc9781e1	-0.018494548
185	0x3d4492c8	0.047991544
186	0xbc02e6ce	-0.007989598
187	0x3c1089cf	0.008821919
188	0xbb1690ef	-0.002297457
189	0x3cad75ff	0.021174429
190	0x3cb2353b	0.021753898
191	0xbc84cfec	-0.016212426
192	0xbda6d990	-0.081469655
193	0x3d401690	0.046896517
194	0xbd8e4ddb	-0.069484435
195	0x3d25ff58	0.040526718
196	0xba6a8f9f	-0.0008947793
197	0x3d726eb2	0.0591876
198	0xbd82e0cc	-0.06390533
199	0x3d0d7c4d	0.03454237
200	0x3cc07421	0.023492875
201	0xbc6fd0d7	-0.014637194
202	0x3bb7b0d3	0.005605796
203	0xbd65298b	-0.05594782
204	0xbd0e691d	-0.034768213
205	0x3cf75602	0.030192379
206	0xbd504230	-0.05084437
207	0xbc87c88f	-0.016575126
208	0xbbf9f5e5	-0.00762819
209	0x3c0a8af4	0.008455981
210	0xbca9d3ff	-0.02073097
211	0x3cd6c1fa	0.026215542
212	0xbd7c6120	-0.061616063
213	0xbb083ea0	-0.002078928
214	0xbd6c66ff	-0.057715412
215	0xbcba4334	-0.022737123
216	0x3ca71895	0.020397464
217	0x3d8ed6a8	0.06974536
218	0x3bf96fd4	0.007612208
219	0xbc004b8b	-0.007830511
220	0x3c84eda4	0.016226597
221	0x3cb481a2	0.02203447
222	0xbd25d2f0	-0.04048437
223	0xbcfa329c	-0.03054171
224	0x3cbeb97d	0.023281807
225	0xbd29ed21	-0.04148591
226	0xbacd828f	-0.0015679168
227	0xbd40be68	-0.047056586
228	0x3d8b699d	0.068072535
229	0x3d3b1341	0.04567266
230	0x3d83befb	0.06432911
231	0xbc5775f0	-0.013150677
232	0xbc7fb729	-0.015607634
233	0xbd2618b2	-0.040550895
234	0x3c9b7b42	0.018979672
235	0x3cd081cc	0.025452517
236	0xbcf58f67	-0.029975606
237	0x3d896fca	0.06710775
238	0x3d43be08	0.04778865
239	0x3c6cddbb	0.014457162
240	0xbd6c029c	-0.057619676
241	0xbd5d0e19	-0.053968523
242	0xbd645194	-0.05574186
243	0x3d0b9a83	0.0340829
244	0xbd63137a	-0.055438496
245	0x3ce369b2	0.02776036
246	0x3cbf6670	0.023364276
247	0xbd567e28	-0.052366406
248	0x3c990867	0.018680764
249	0xba96be36	-0.0011500779
250	0x3b920327	0.004455942
251	0x3ca3ceae	0.019996013
252	0xbd976af5	-0.07393447
253	0x3c8eb714	0.017421283
254	0xbb52bbe5	-0.003215545
255	0x3c551b24	0.013006959

network_body.linear_encoder.seq_layers.0.bias f4 [128]
0	0x3afc1535	0.0019232394
1	0x3d270372	0.04077477
2	0xbc873eab	-0.016509375
3	0x3ccea1f8	0.025223717
4	0x3c8396e7	0.016063167
5	0xb8f0f8c0	-0.00011490425
6	0x3bae4ee9	0.0053194654
7	0xbc3ef688	-0.011655457
8	0x3cbfa2a3	0.02339298
9	0x3b5d3a75	0.0033756767
10	0x3c88ed75	0.01671479
11	0x3baa2b69	0.005193163
12	0x3b8e060e	0.004334218
13	0xbd02897e	-0.031869404
14	0x3d2521de	0.0403155
15	0x3d8c44ac	0.068490356
16	0x3c055e7c	0.008140203
17	0x3cc3bd47	0.023893965
18	0x3cc1b7fc	0.0236473
19	0x3cc087d1	0.023502262
20	0x3d999d6b	0.07500728
21	0x3d7bc2bb	0.061465006
22	0x3b9f1907	0.0048552784
23	0xbc21e85f	-0.009882062
24	0x3d0144da	0.031559803
25	0x3c1db39a	0.00962534
26	0x3d5b6333	0.0535614
27	0x3d4b6310	0.04965502
28	0x3c8eef6c	0.01744815
29	0xbd28aa47	-0.041178014
30	0xbd3b72e5	-0.04576387
31	0x3d52375f	0.051322337
32	0x3cd331eb	0.025780639
33	0xba6b018b	-0.00089647685
34	0xbc9ecca1	-0.019384684
35	0x3d825715	0.06364266
36	0x3d4d16ea	0.05007068
37	0xbcdb6384	-0.026780851
38	0x3d08fd4b	0.033444684
39	0x3cf37f48	0.029723778
40	0xbc569b6c	-0.013098579
41	0xbb232e7f	-0.002489954
42	0x3d44c2ad	0.04803722
43	0xbbb404ea	-0.00549375
44	0x3d354ea7	0.04426446
45	0x3d8c0097	0.0683605
46	0x3ce83237	0.028344257
47	0x3c0d807e	0.008636592
48	0x3d713dfb	0.058897
49	0x3c9947a3	0.018710917
50	0x3d1cbd78	0.03826663
51	0xbbdd2e44	-0.0067499
52	0xbbb77a63	-0.0055993064
53	0x3cd42ead	0.025901163
54	0x3cd09088	0.025459543
55	0xbd7443c8	-0.059634954
56	0x3c2c19d8	0.0105042085
57	0x3d231951	0.039819065
58	0xbc9dbb71	-0.019254418
59	0x3cdd3ace	0.02700558
60	0x3cab47ad	0.020908201
61	0xbc33195a	-0.010931337
62	0x3cf5aa56	0.029988449
63	0xbce6bb81	-0.02816558
64	0x3cab835d	0.020936662
65	0xbc690a41	-0.014223636
66	0x3d1f12b0	0.03883618
67	0xbc794e37	-0.015216402
68	0x3d1384c4	0.036015287
69	0x3c80c191	0.0157173
70	0x3b9b75b0	0.004744254
71	0x3cf93d99	0.03042488
72	0x3ca1b7f5	0.019741038
73	0x3b9091a2	0.004411892
74	0x3c2c8775	0.010530342
75	0x3d337a7e	0.04381799
76	0x3d936fe7	0.07199078
77	0x3d43249f	0.047642346
78	0x3c75968b	0.0149895055
79	0xbc950ea1	-0.018195452
80	0x3a78aa3f	0.0009485818
81	0x3ace532a	0.0015741338
82	0x3d6a2eea	0.057173647
83	0xbd14115c	-0.036149368
84	0xbb57036b	-0.0032808434
85	0x3d2b916b	0.04188673
86	0x3d6f7930	0.058465183
87	0xbc4447c6	-0.011980003
88	0xbd3c9738	-0.04604265
89	0x3c90bf23	0.017669266
90	0x3b2d421c	0.002643711
91	0x3d2531bd	0.040330637
92	0xbcaa96c8	-0.020823851
93	0x3d315779	0.04329631
94	0xbd350dd0	-0.044202626
95	0x3cd5beb9	0.02609192
96	0x3d4912aa	0.049090065
97	0x3d270e52	0.04078514
98	0x3c91045a	0.01770227
99	0xbb08c840	-0.0020871311
100	0x3d8bae6d	0.068203785
101	0x3c8960d7	0.01676981
102	0x3c4c06c2	0.012452783
103	0x3ccc94b8	0.024973258
104	0x3cf175d4	0.02947513
105	0xbc7833b0	-0.015149042
106	0x39d827c8	0.0004122837
107	0x3d3785ba	0.044805266
108	0x3c8c9dc3	0.01716507
109	0x3cd7a879	0.026325451
110	0xbd374a21	-0.04474843
111	0xbcb36270	-0.021897525
112	0x3c6ae16e	0.014335973
113	0x3d2094b3	0.03920431
114	0x3d46a3d9	0.0484961
115	0xbcd847c2	-0.026401404
116	0x3cd884a1	0.02643043
117	0xbbacfa5f	-0.00527887
118	0xbc96b1d5	-0.018395344
119	0x3d02cc9b	0.03193341
120	0xbcccb081	-0.024986507
121	0x3c5ee0aa	0.013603369
122	0xbac809aa	-0.0015261669
123	0x3d7ed636	0.062216006
124	0x3d17ec45	0.03709056
125	0x3b6bb029	0.0035963154
126	0x3c8e715e	0.017388042
127	0x3c60660f	0.013696208

network_body.linear_encoder.seq_layers.0.weight f4 [128, 8]
0	0x3da34aa2	0.079732195
1	0x3edda2ab	0.43288168
2	0x3f468f23	0.7756216
3	0xbee2878b	-0.44244036
4	0x3d51f57f	0.051259514
5	0xbe65698a	-0.22403541
6	0xbec956eb	-0.39324126
7	0x3d68641f	0.056736108
8	0x3e6d0715	0.23147233
9	0x3d85c829	0.06532318
10	0xbde9365c	-0.11387321
11	0x3dc148de	0.094377264
12	0xbdd33b3d	-0.10314033
13	0x3ccda36c	0.02510234
14	0x3ec1dce9	0.37863854
15	0x3f417292	0.75565445
16	0x3e3bae28	0.18328154
17	0xbf0167b8	-0.5054889
18	0xbdba9d8f	-0.09112083
19	0x3e432ed6	0.19060835
20	0xbe480218	-0.19532049
21	0xbed84e71	-0.42247346
22	0xbe89da77	-0.26924488
23	0xbeb8c076	-0.36084336
24	0x3c0b06d2	0.008485513
25	0xbe67e733	-0.22646789
26	0x3efc700d	0.49304238
27	0xbf18e49c	-0.5972383
28	0x3e71461d	0.23561902
29	0xbed7016c	-0.41993272
30	0xbebbdf14	-0.36693633
31	0xbe951246	-0.29115504
32	0xbeef3a1c	-0.4672402
33	0x3eb049ab	0.34431204
34	0xbe11435f	-0.14185856
35	0x3e4eb539	0.20186318
36	0xbe2795ea	-0.16365781
37	0xbe1ffeaa	-0.1562449
38	0xbe5b7120	-0.21429873
39	0xbe943352	-0.28945404
40	0x3f3dd676	0.74155366
41	0x3df2ac55	0.11849276
42	0x3ec58f55	0.38585916
43	0x3e392ad4	0.18082744
44	0xbe7b9f35	-0.24572451
45	0xbe43bb27	-0.19114362
46	0xbed5779e	-0.41692823
47	0x3e5e6db2	0.21721533
48	0x3f310684	0.6915057
49	0xbeb6d884	-0.35712063
50	0xbe415a8e	-0.188822
51	0xbe2f1862	-0.17099145
52	0x3e80ec29	0.25180176
53	0x3eb659cf	0.35615394
54	0xbe0f3158	-0.13983667
55	0xbe7d9459	-0.24763621
56	0xbe99fc26	-0.30075186
57	0x3d8e2707	0.069410376
58	0x3e913654	0.28361762
59	0xbecc4725	-0.3989803
60	0xbe2a87d3	-0.16653375
61	0xbe9e1b55	-0.30880228
62	0xbee37f9c	-0.44433296
63	0xbdb25cfd	-0.08709142
64	0xbecf710e	-0.4051594
65	0x3db83a54	0.089955
66	0x3e8de6db	0.2771519
67	0x3e0d988a	0.1382772
68	0x3f14d512	0.5813762
69	0xbd9a2c40	-0.07527971
70	0x3d062a3b	0.032755118
71	0xbd96c64a	-0.073620394
72	0x3f0f30d8	0.55933905
73	0xbe8c5892	-0.27411324
74	0xba39d32c	-0.0007088657
75	0x3f2daaee	0.67838943
76	0xbea0422a	-0.3130048
77	0x3f124b82	0.57146466
78	0x3e51d531	0.20491482
79	0xbd8307d0	-0.063979745
80	0x3ea062ab	0.31325278
81	0x3def5339	0.11685795
82	0x3d918ef2	0.07107343
83	0xbe7b3084	-0.24530226
84	0xbd68a5a5	-0.056798596
85	0x3e354ef1	0.17705895
86	0x3e9e3962	0.30903155
87	0xbe248a90	-0.16068482
88	0xbe3f55d8	-0.1868509
89	0x3e16db83	0.14732175
90	0xbe8b73d5	-0.2723681
91	0xbe35c2ea	-0.17750135
92	0xbe80b884	-0.25140774
93	0x3f0f1832	0.55896294
94	0x3f1c5068	0.6106019
95	0x3e53d9d5	0.20688565
96	0xbd8d5855	-0.069016136
97	0x3e9efab7	0.31050655
98	0xbe9a9618	-0.30192637
99	0xbc594814	-0.013261814
100	0x3c6adf1c	0.01433542
101	0x3e2c8838	0.16848838
102	0x3eae2264	0.34010613
103	0xbed69ba6	-0.41915625
104	0xbe9996a9	-0.29997757
105	0xbeb930ca	-0.36170036
106	0x3babc290	0.0052416995
107	0x3f0d16a9	0.551127
108	0xbdd4ea55	-0.10396258
109	0xbef796fd	-0.48357382
110	0xbe8e8c60	-0.27841473
111	0x3e45b519	0.19307365
112	0x3c2635ab	0.010144631
113	0x3f6568d7	0.896131
114	0xbe8fc1e4	-0.28077614
115	0x3f06a4b1	0.5259505
116	0x3e2fc60d	0.17165394
117	0xbee4c08f	-0.4467816
118	0x3d289fc3	0.041167986
119	0xbf13178b	-0.574578
120	0xbe19cd01	-0.15019609
121	0x3f742957	0.9537558
122	0x3dfead83	0.124354385
123	0x3dba3cb4	0.090936095
124	0x3b8df43d	0.004332094
125	0xbdeb1278	-0.11478132
126	0xbe0ccc06	-0.13749704
127	0x3e5a0bcd	0.21293564
128	0xbf6f8f62	-0.9357816
129	0x3ea32e6e	0.3187136
130	0x3d9a3397	0.07529371
131	0x3f3b3497	0.7312712
132	0xbea4458e	-0.32084316
133	0x3e077dc0	0.13231564
134	0xbe7f2737	-0.24917303
135	0x3d005b98	0.03133735
136	0x3e09a58b	0.13442056
137	0x3e408826	0.18801937
138	0x3d98e82f	0.074661605
139	0xbe1aca05	-0.15116127
140	0x3d838361	0.06421543
141	0xbe3aa93b	-0.18228619
142	0xbe8adbe6	-0.27120894
143	0xbf3f7ff2	-0.74804604
144	0x3eadbc22	0.33932596
145	0x3e111fbf	0.14172266
146	0x3d7e9114	0.062150076
147	0x3ddaf036	0.10690348
148	0xbe03842c	-0.12843388
149	0xbdc99e4e	-0.09844647
150	0xbd37cb5b	-0.04487167
151	0x3ee66c65	0.45004573
152	0xbdc8e303	-0.09808924
153	0x3f7fb31d	0.9988268
154	0xbe91e943	-0.28498277
155	0x3e9fa668	0.31181645
156	0x3ddb32d4	0.10703054
157	0xbdaaac38	-0.08333629
158	0x3e45ceb3	0.1931713
159	0x3f2f6e6a	0.68527853
160	0x3f26c4a5	0.65143806
161	0x3ccefae4	0.025266118
162	0x3e71353b	0.23555462
163	0xbf1cea60	-0.6129513
164	0xbe190c52	-0.14946106
165	0x3e5fb836	0.21847615
166	0xbe8d9988	-0.27656198
167	0xbe1dfd7f	-0.15428732
168	0x3e504779	0.20339765
169	0xbe4eabf3	-0.20182781
170	0x3e44fd0f	0.19237159
171	0xbe97204d	-0.2951683
172	0x3d97ebd0	0.074180245
173	0x3e0eb2df	0.13935421
174	0xbf20dadf	-0.6283397
175	0xbd974b79	-0.07387442
176	0xbf028c09	-0.50994927
177	0x3cdc463a	0.026888955
178	0xbeb54ab4	-0.35408556
179	0x3eb3c0a9	0.35107926
180	0xbee64d4d	-0.4498085
181	0xbf92dca0	-1.147358
182	0xbe769313	-0.24079542
183	0xbeb9e318	-0.3630607
184	0xbdfd7b1f	-0.12376999
185	0x3c28f387	0.010311968
186	0xbde1cb2a	-0.110250786
187	0x3db1fed9	0.086911865
188	0xbec2b4ad	-0.3802847
189	0x3f413c65	0.7548278
190	0x3ee5aead	0.4485983
191	0xbdc6ad3d	-0.09701011
192	0x3ded6e00	0.115932465
193	0xbc20186b	-0.009771447
194	0xbdb1bf15	-0.08679024
195	0x3e13f6b0	0.14449573
196	0x3e83b3c0	0.25723076
197	0xbc32aba1	-0.010905177
198	0xbd9c795c	-0.07640335
199	0x3f19633b	0.5991704
200	0xbb9bcfbe	-0.0047549894
201	0xbe1a9962	-0.15097573
202	0xbea95eb3	-0.33080062
203	0xbea47667	-0.32121584
204	0x3e6af8e2	0.22946504
205	0xbf128853	-0.57239264
206	0xbde8b8c3	-0.113633655
207	0x3f54567e	0.82944477
208	0x3f6340f5	0.8877099
209	0x3ed51a8e	0.41621822
210	0x3dbb8575	0.09156314
211	0x3ba08daf	0.0048997025
212	0xbef3cebf	-0.47618672
213	0x3ec9133e	0.39272493
214	0xbdbd2b6f	-0.092368
215	0xbc826bd0	-0.01592055
216	0x3e6e5ca0	0.23277521
217	0x3e8d837a	0.2763937
218	0x3f37dafb	0.7181851
219	0xbeb8fc20	-0.36129856
220	0x3ee4adc2	0.44663817
221	0xbe364a8e	-0.17801878
222	0xbef0ff69	-0.47069862
223	0xbf17d561	-0.59309965
224	0x3d2aca92	0.041697092
225	0x3f5d6a2c	0.8649013
226	0xbcf45eb3	-0.029830312
227	0xbd96204a	-0.073303774
228	0xbf5d2fb0	-0.8640089
229	0xbee658da	-0.44989663
230	0xbf213ef0	-0.6298666
231	0xbc4fb32e	-0.012676997
232	0xbc6570da	-0.014003957
233	0x3ea65480	0.32486343
234	0x3e6033d9	0.21894778
235	0x3d57c6dd	0.052679885
236	0xbf0728db	-0.52796715
237	0xbe1f8008	-0.15576184
238	0x3e6cb2f8	0.23115146
239	0x3e761aeb	0.24033706
240	0xbb6cf110	-0.0036154427
241	0x3d67c482	0.05658389
242	0xbdd69c92	-0.10479082
243	0xbe79dd0a	-0.24400726
244	0xbbd56bf6	-0.006513114
245	0xbe7d6b68	-0.24748003
246	0x3de8e18b	0.11371144
247	0xbe0d0801	-0.13772584
248	0xbe9a0f6b	-0.30089888
249	0xbec38c7a	-0.38193113
250	0x3e286082	0.16443065
251	0x3e82217a	0.25416166
252	0xbe8deaf6	-0.27718323
253	0xbe3cc598	-0.18434751
254	0x3f2d7c80	0.67768097
255	0xbf4654b9	-0.77473027

network_body.linear_encoder.seq_layers.2.bias f4 [128]
0	0x3c38f8b4	0.011289764
1	0x3cbf62e3	0.023362583
2	0xba9c3152	-0.0011916554
3	0xbc645a33	-0.013937521
4	0x3d4bbaf1	0.049738828
5	0x3d0160f8	0.031586617
6	0x3a737873	0.00092876627
7	0xbbadaa4e	-0.005299843
8	0x3b54fffd	0.0032501214
9	0xbca7b14a	-0.02047028
10	0x3cb28779	0.021793114
11	0x3d5f4168	0.054505736
12	0x3d027428	0.031849056
13	0x3d319419	0.043354128
14	0x392e6c07	0.00016634176
15	0x3d90326a	0.07040866
16	0x3b322f8f	0.0027188992
17	0x3d00d306	0.031451248
18	0x3c83ff4d	0.016112948
19	0x3be03158	0.0068418197
20	0x3d358c7c	0.04432343
21	0x3c17f9a1	0.009275825
22	0xbcafe1d6	-0.021469992
23	0x3d1a6fd8	0.03770432
24	0x3ce9adf5	0.028525332
25	0xbc18cdaf	-0.009326383
26	0x3ccddec9	0.025130646
27	0x3d601700	0.054709435
28	0x3cd90543	0.026491767
29	0x3d23ff5c	0.04003845
30	0x3d001183	0.0312667
31	0x3d2b2cad	0.041790653
32	0x3ceb01aa	0.028687317
33	0x3d0b2f13	0.03398044
34	0x3c84a2cb	0.016190907
35	0x3a9121a6	0.001107265
36	0x3d0081b6	0.031373702
37	0x3d21e865	0.03952827
38	0x3cabd6a9	0.020976381
39	0x3cbe96fa	0.02326535
40	0x3d65f1f8	0.056138963
41	0x3b9f34f8	0.0048586093
42	0x3cb1a12c	0.021683298
43	0x3b238b05	0.0024954688
44	0xba8b3cc6	-0.001062297
45	0x3d2f56d0	0.0428074
46	0x3ca85709	0.020549314
47	0x3d411e22	0.047147878
48	0x3c94cb9f	0.0181635
49	0x3c0bbc52	0.008528786
50	0x3d0e6bd4	0.0347708
51	0x3d81ffc6	0.06347613
52	0x3cffbbcc	0.031217478
53	0x3ce50ad4	0.027959265
54	0xbc24d8a4	-0.010061417
55	0x3d4c22bb	0.04983781
56	0x3d1bfbbd	0.038081873
57	0x3cbcb674	0.02303622
58	0xbbe0509d	-0.0068455474
59	0x3c89fa43	0.016842967
60	0x3cf8f488	0.03039004
61	0x3c08d21f	0.008350878
62	0x3c8e517e	0.017372843
63	0x3bcc8ccc	0.0062423702
64	0x3d80e5c5	0.06293825
65	0x3d688969	0.05677167
66	0x3d3a36c8	0.0454624
67	0x3d3c9146	0.04603698
68	0x3cc315c7	0.023814095
69	0x3cb4f0a3	0.0220874
70	0x3bde088a	0.0067759203
71	0x3d217bd5	0.039424736
72	0x3d6077f5	0.0548019
73	0xbc5c2d07	-0.01343847
74	0xbbaf77dc	-0.0053548645
75	0x3ba53125	0.005041259
76	0x3c876094	0.016525544
77	0x3d02d9f1	0.031946126
78	0x3c4514d4	0.012028892
79	0xbc2cd531	-0.010548876
80	0xbc3f69b8	-0.01168292
81	0x3b28efe3	0.002577775
82	0xbcdd79ff	-0.027035711
83	0x3d2b3295	0.041796286
84	0x3ca7a74c	0.020465516
85	0xbcd29939	-0.025707828
86	0x3befc312	0.0073169554
87	0x3ce20ea4	0.027594872
88	0x3d58034e	0.052737527
89	0x3d3a5101	0.045487408
90	0x3c8a355f	0.016871152
91	0xbb6a8856	-0.003578683
92	0x3cab1b64	0.020887084
93	0x3cba7fb3	0.02276597
94	0xbc469ba6	-0.01212207
95	0xbb5401df	-0.0032349748
96	0x3d681f91	0.05667073
97	0x3be30a04	0.006928684
98	0xbc7e9fac	-0.015540998
99	0xbb4e80d5	-0.0031509895
100	0x3d2ae0d4	0.04171832
101	0x3d018f12	0.031630583
102	0x3d3d44bf	0.04620814
103	0x3cbad7de	0.022808012
104	0x3b817030	0.0039501414
105	0x3c6b9098	0.014377736
106	0x3ab6611d	0.001391444
107	0x3d1cfeb0	0.038328826
108	0xbbe073e5	-0.006849753
109	0x3d16f215	0.03685196
110	0x3cd7dcac	0.026350342
111	0x3cd3d890	0.025860101
112	0x3d22e295	0.039766867
113	0x3cec64fc	0.028856747
114	0x3cafe02b	0.021469196
115	0x3ce8a784	0.02840019
116	0x3d0d6df7	0.0345287
117	0x3d330a73	0.043711137
118	0x3cdd7b75	0.027036408
119	0x3bbc859f	0.0057532336
120	0x3bd52423	0.006504552
121	0x3bac1aa2	0.0052521983
122	0x3cbf48d5	0.023350159
123	0x3d0e4b43	0.034739744
124	0x3d43d140	0.04780698
125	0x3d3327b8	0.04373905
126	0x3c923f76	0.017852526
127	0x3b55b399	0.003260827

network_body.linear_encoder.seq_layers.2.weight f4 [128, 128]
0	0x3c97ce4f	0.018530993
1	0x3d280304	0.0410185
2	0xbe046e10	-0.1293261
3	0xbd7c108b	-0.061539214
4	0x3da5f714	0.08103767
5	0x3d972ab6	0.07381193
6	0xbd751c6b	-0.059841555
7	0x3bd6ce21	0.006555334
8	0xbd97026d	-0.073735096
9	0x3e3ef190	0.18646836
10	0xbc211290	-0.009831086
11	0x3d8ce257	0.068791084
12	0xbd17b7a0	-0.037040353
13	0xbc3c8052	-0.011505203
14	0xbdd4775d	-0.10374329
15	0xbd416800	-0.047218323
16	0xbdd780ba	-0.105225995
17	0x3d8e3c4b	0.06945094
18	0xbdfee648	-0.124462664
19	0xbdd3bc67	-0.10338669
20	0x3d1b14fd	0.037861813
21	0xba97a49e	-0.0011569445
22	0xbcfc2fd0	-0.030784518
23	0xbe32a6c3	-0.17446427
24	0x3d032eac	0.03202693
25	0xbd6a893a	-0.057259776
26	0x3ccf4745	0.025302539
27	0xbcd3daee	-0.02586123
28	0xbd2ef8ac	-0.04271762
29	0x3c828b7b	0.01593565
30	0xbdf03e68	-0.11730653
31	0xbd9a87da	-0.07545443
32	0x3cf007a0	0.02930051
33	0xbd7e6510	-0.0621081
34	0x3dbd6cd2	0.092492715
35	0x3d21d534	0.039509967
36	0x3d6f84cf	0.058476266
37	0x3d4d669b	0.05014668
38	0x3dbf5bad	0.09343658
39	0xbc5a7c1f	-0.013335257
40	0xbca43b20	-0.020047724
41	0x3dc9112a	0.09817727
42	0x3d299874	0.041405156
43	0x3dc9b42f	0.098488204
44	0x3cd5efb7	0.026115282
45	0x3d6d8ee4	0.0579976
46	0x3bda8fde	0.0066699823
47	0x3d633f16	0.055480085
48	0xbcd32fdf	-0.025779663
49	0xbcc9feec	-0.024657689
50	0x3d8882c6	0.06665568
51	0xbc9b834a	-0.018983502
52	0xbd4ed802	-0.05049897
53	0x3c3ead18	0.011637948
54	0x3d1c8e22	0.038221486
55	0x3db08462	0.08619
56	0xbdc2ec83	-0.09517767
57	0xbd9c535d	-0.07633088
58	0x3ccf402d	0.025299156
59	0xbd1f985a	-0.038963653
60	0x3ce0b656	0.027430695
61	0x3df473ff	0.11936187
62	0xbe3026da	-0.1720232
63	0xbce3ee3d	-0.027823562
64	0xbc31f590	-0.010861769
65	0x3dbd1286	0.09232049
66	0xbe06dcf4	-0.13170224
67	0xba0c8c3d	-0.00053614733
68	0x3e1af3b7	0.15132032
69	0x3df23eb0	0.11828363
70	0x3e2951ef	0.16535161
71	0xbd0fdc98	-0.035122484
72	0x3ce84489	0.028352993
73	0xbca3d6eb	-0.019999942
74	0x3d8a9c0a	0.06768043
75	0xbd46afef	-0.048507627
76	0x3dfaba98	0.12242621
77	0xbdaa953c	-0.083292454
78	0x3caa4b23	0.020787781
79	0x3ba04b52	0.0048917914
80	0x3d524051	0.05133087
81	0xbb928d42	-0.0044724056
82	0x3cd2ddac	0.025740467
83	0xbe7a1c7e	-0.24424931
84	0xbcd2c807	-0.025730146
85	0xbd0d6e00	-0.034528732
86	0xbe1a2eb3	-0.15056877
87	0x3dc85040	0.097809315
88	0x3cc02f97	0.023460193
89	0xbdfb9f8a	-0.12286289
90	0x3e121a57	0.1426786
91	0xbd7f8b5c	-0.062388763
92	0xbcbe393c	-0.02322065
93	0x3d56e177	0.052461114
94	0x3d56fd1b	0.052487474
95	0xbda9248e	-0.082589254
96	0x3e54420b	0.20728318
97	0xbd2b73c0	-0.041858435
98	0xbdb582f4	-0.08862868
99	0xbcbe2864	-0.02321262
100	0x3e4548c5	0.1926604
101	0xbe2d48b3	-0.16922264
102	0xbc52ff2f	-0.012878223
103	0xbde29d2a	-0.11065133
104	0x3d363cfc	0.044491753
105	0x3b87d2c3	0.004144998
106	0x3bd51661	0.006502912
107	0xbd50c4c3	-0.050968897
108	0x3de34be4	0.11098459
109	0xbd38b75c	-0.04509674
110	0x3dcc5eb8	0.09979004
111	0x3d17d1ee	0.03706544
112	0xbd4c66ab	-0.0499026
113	0xbdc4a31d	-0.09601424
114	0x3c3f8a15	0.011690636
115	0xbd334596	-0.043767534
116	0xbcd26839	-0.025684463
117	0x3d244008	0.040100127
118	0xbd4c93fe	-0.049945824
119	0x3cfd2da7	0.030905558
120	0x3cee33ed	0.029077495
121	0x399ab8da	0.00029510894
122	0x3d514b08	0.051096946
123	0xbe3cc206	-0.18433389
124	0x3c03c5db	0.008042778
125	0xbd40e6f6	-0.04709526
126	0x3d01be88	0.031675845
127	0x3d29782b	0.041374367
128	0x3dc7c510	0.097543836
129	0x3ccf07ae	0.025272217
130	0xbe687877	-0.22702204
131	0xbe0fa387	-0.14027224
132	0x3c274017	0.010208151
133	0x3dedba85	0.116078414
134	0x3deab3e3	0.11460092
135	0xbdb4a2a5	-0.088200845
136	0xbe49fed9	-0.19726123
137	0x3d75d808	0.060020477
138	0xbd7352e6	-0.05940523
139	0x3c46ee26	0.01214174
140	0x3d9e1c73	0.0772027
141	0xbdccc2df	-0.09998106
142	0x3c08278a	0.008310208
143	0x3d7c5daa	0.061612763
144	0xbd517ab6	-0.051142417
145	0x3d2ffa78	0.042963475
146	0xbd59d1db	-0.05317865
147	0xb9ee57b2	-0.00045460236
148	0xbe0428e9	-0.12906231
149	0xbd5f4fa7	-0.05451932
150	0x3d6dfe46	0.058103822
151	0x3e402fcc	0.18768233
152	0x3e280fc2	0.16412261
153	0xbd77677d	-0.06040143
154	0xbd89938d	-0.06717596
155	0xbd838c4c	-0.06423244
156	0xbc9428e5	-0.018085906
157	0xbdfaacd5	-0.12239996
158	0xbd2d2fbc	-0.04228185
159	0x3d6821e3	0.056672942
160	0x3e37390c	0.17892855
161	0x3d074cba	0.033032157
162	0xbd0b914a	-0.034074105
163	0xbbe3ba34	-0.0069496874
164	0xbdba612c	-0.09100565
165	0x3d441fc5	0.04788186
166	0x3deeb466	0.11655502
167	0x3ca73c61	0.020414533
168	0x3ce22cbe	0.027609225
169	0x3c8603a1	0.016359152
170	0xbe397cc9	-0.18114008
171	0xbd2ae459	-0.041721676
172	0x3d24418a	0.040101565
173	0xbd227d86	-0.03967049
174	0x3dd6ce27	0.10488539
175	0x3c83794b	0.016049048
176	0x3d69a25d	0.057039607
177	0x3ccdc254	0.025117077
178	0xbd632b71	-0.05546135
179	0x3d810216	0.06299226
180	0xbd9a72ac	-0.07541403
181	0xbd8481d3	-0.064700745
182	0x3c8a20f0	0.016861409
183	0x3d78eeed	0.060774732
184	0xbe0fc21a	-0.14038888
185	0x3cf9db56	0.030500095
186	0xbc1e8fdf	-0.009677856
187	0x3d43f3f3	0.04784007
188	0x3d2438d4	0.040093258
189	0xbc20a610	-0.009805217
190	0xbc1e4866	-0.009660816
191	0xbcb955a5	-0.022623846
192	0xbd8746fc	-0.06605336
193	0xbcd4576c	-0.025920592
194	0x3d7f40cf	0.062317666
195	0x3e27b273	0.16376667
196	0x3dd1d79c	0.10246202
197	0x3d8ab04c	0.06771907
198	0x3d2ae4b2	0.041722007
199	0x3d09e4bb	0.0336654
200	0xbd8eacfa	-0.069665864
201	0xbc9b1c1c	-0.018934302
202	0x3d452152	0.04812748
203	0x3e1e8967	0.15482102
204	0x3de0680a	0.10957344
205	0x3c38074d	0.011232209
206	0xbdd003e4	-0.10156992
207	0x3da40ab0	0.08009851
208	0xbd611427	-0.05495086
209	0x3a4b57b1	0.00077569025
210	0xbe3f0f63	-0.18658213
211	0xbd47e259	-0.048799846
212	0xbebfd215	-0.37464967
213	0x3c431ab0	0.011908218
214	0xbd8a2799	-0.06745834
215	0x3d6e8f29	0.058241997
216	0xb9c547e6	-0.00037628337
217	0xbdfc11d5	-0.12308089
218	0x3e3a6f69	0.18206562
219	0x3cfe6cfe	0.03105783
220	0xbd918c12	-0.071067944
221	0x3cdded71	0.02709076
222	0x3dff2190	0.124575734
223	0xbb0a1298	-0.0021068212
224	0x3d1f7eba	0.038939215
225	0x3d0d1a1a	0.03444872
226	0x3e3c751a	0.18404046
227	0x3cc25bba	0.02372538
228	0x3c53b060	0.012920469
229	0x3dbb886f	0.09156882
230	0xbdc03236	-0.09384577
231	0x3d8aa7ca	0.067702845
232	0xb9dfd5a3	-0.00042693046
233	0xbd9182fc	-0.071050614
234	0xbdb3fc0a	-0.08788307
235	0xbc31b084	-0.010845307
236	0x3e0450bd	0.12921424
237	0x3c23d88a	0.010000357
238	0x3da2a4d8	0.07941598
239	0xbd1800ab	-0.037110012
240	0xbe45de0c	-0.19322985
241	0x3d59effa	0.053207375
242	0x3e31de2d	0.1736991
243	0xbe0cecb7	-0.13762175
244	0x3da07920	0.07835603
245	0x3e031edf	0.12804745
246	0xbe272016	-0.16320834
247	0xbe022efa	-0.12713233
248	0x3d95e51b	0.07319089
249	0x3da20a94	0.07912174
250	0xbd1fd335	-0.039019782
251	0x3d83efe9	0.064422436
252	0x3cc07661	0.023493947
253	0x3c7ea787	0.015542871
254	0xbd83dd62	-0.0643871
255	0xbd8f3ef2	-0.06994428
