Assets/TFModels/SeekBehaviorWithJumpingSkill.onnx (onnx, 76114 bytes, 9 tensors)

action_model._continuous_distribution.log_sigma f4 [1, 2]
000000 c3 1e d1 bd 86 8e dc bd
       -0.102109455 -0.10769372

action_model._continuous_distribution.mu.bias f4 [2]
000000 4d 19 ee 3b 9a 2b 9e bb
       0.0072661997 -0.004826975

action_model._continuous_distribution.mu.weight f4 [2, 128]
000000 4a 62 6b 3d ba 55 8d bc 4d 4b 31 bc a8 4b 7a bc
       0.057466783 -0.017252792 -0.010821176 -0.015276827
000010 cd 75 45 bc 9b 56 5c bd 5a bc 1d 3d 5e 32 03 3c
       -0.012052012 -0.05379353 0.038509704 0.008007614
000020 44 10 68 3d 43 34 b1 3c c9 8f 68 3c 55 66 5b 3d
       0.056656137 0.021631366 0.014194437 0.05356439
000030 bd c7 c2 b9 d5 cc 4a bd c1 49 6d bc b2 14 3e 3b
       -0.0003715138 -0.04951175 -0.014482916 0.0029004035
000040 dd ec 62 3c a7 66 94 bd 7c 5b 83 bd 57 64 0e 3a
       0.013850418 -0.07246142 -0.06413934 0.0005431822
000050 87 b1 98 bb f1 e5 d1 3c e3 84 1b 3d c6 5f 22 3d
       -0.004659835 0.02562234 0.037968528 0.039642118
000060 30 25 8a 3b f3 4a 50 3d 06 9a d4 bc 8b ca b6 bc
       0.004215859 0.050852727 -0.02595235 -0.022313377
000070 a0 77 ad 3c 0a 86 11 3d 2c 78 0e bd 05 f6 d9 bd
       0.021175206 0.03552822 -0.034782574 -0.106426276
000080 db 90 9b 3d 50 4d 96 3c 9a e1 13 ba 08 19 ac bd
       0.07595988 0.018347412 -0.0005641222 -0.08403212
000090 ea b8 ea bc c5 79 6d 3c 98 67 90 3d 06 9c 09 3b
       -0.028652627 0.014494364 0.07051009 0.0020997538
0000a0 d0 a5 8b 3d 4a 32 0d bd f6 67 9e 3c 81 94 23 bd
       0.068187356 -0.034471788 0.019336682 -0.039936546
0000b0 0c da cd 3c 88 81 0f bd 79 dc 0a 3b 9c 45 be bc
       0.025128387 -0.03503564 0.002118854 -0.023226552
0000c0 05 7a c4 3c 48 f0 93 bb 46 0f 76 bd c2 07 23 3d
       0.023983965 -0.0045147277 -0.06007316 0.03980232
0000d0 7b 19 02 3c 09 17 f0 bc 45 e1 0f bd 1d 83 1c 3d
       0.007940645 -0.029307859 -0.035126943 0.038210977
0000e0 ce d1 53 3d e7 1e 9f bc 45 04 73 3d e3 ca 2a bd
       0.051713757 -0.019423915 0.059330244 -0.041697394
0000f0 b0 da 18 3d 52 31 60 bc a4 59 13 bd 3a cf 25 bd
       0.03731793 -0.013683634 -0.03597416 -0.04048083
000100 8a cc e1 bb 0a aa 90 bd 9b 22 f4 3b e7 24 58 3d
       -0.006890838 -0.070636824 0.0074504144 0.052769568
000110 15 2e 44 bd ae 64 e4 bb bc 44 60 bc 19 f0 06 bd
       -0.04789551 -0.0069700098 -0.013688263 -0.03294382
000120 d1 fd 15 bc 97 c6 24 3d f4 fb 9d bb c2 5a b3 bc
       -0.009154753 0.040228453 -0.004821295 -0.021893863
000130 40 6f a9 3a 75 ba a1 bc 40 66 2a bc fc 58 0d bd
       0.0012926832 -0.01974223 -0.010400355 -0.03450869
000140 14 2c b1 3c 4c ca 10 3d dc 52 45 3c e5 ec 81 3d
       0.021627463 0.035349175 0.012043681 0.06344012
000150 ca 17 3e bd ee d6 e8 bd c4 3c 78 bd aa 9b 9a bd
       -0.046409406 -0.113691196 -0.060604826 -0.07549222
000160 8e 65 01 3b 26 8a 37 bd 8f 9d d4 3b 0e 94 65 bc
       0.001974437 -0.044809483 0.006488509 -0.01401235
000170 e2 a9 6d 3d f2 76 a8 3d d1 0d 54 3d 33 32 39 3d
       0.05802334 0.08225812 0.05177099 0.04521389
000180 c8 bb 59 3d 19 a8 1d 3d cb 97 9e bc 60 17 a6 3d
       0.053157598 0.03849039 -0.01935949 0.08109927
000190 0a 6f aa ba 4e 0a ec bc bf c7 14 bd be 39 ba ba
       -0.0013003063 -0.028813507 -0.036323305 -0.0014207882
0001a0 14 d5 70 bc 01 87 ce bc 2e ff 55 3a 1a 11 10 3d
       -0.014699239 -0.02521086 0.000816333 0.03517256
0001b0 5b fa a8 bc 8c 5c a7 b8 2f 83 50 bc 3a 36 a9 bb
       -0.020627191 -7.980419e-05 -0.012726589 -0.005163935
0001c0 ba bc 51 bd f7 cd e5 3c 96 a3 cc bc 18 0a d9 3c
       -0.051205374 0.028052313 -0.024980348 0.02649407
0001d0 e8 eb bf bc 24 c8 22 3c ff 1a b6 bc b8 d1 bb bd
       -0.023427919 0.009935413 -0.02222967 -0.0917086
0001e0 3a 50 f9 bc d1 54 6e 3d de b2 bd 3d a6 12 2e 3d
       -0.030433763 0.058186356 0.09262632 0.042498253
0001f0 80 ec da bc f3 35 42 bb fb 86 1b 3d d6 f7 d2 bc
       -0.0267241 -0.0029634207 0.037970524 -0.025752943
000200 5a b5 c0 bd f3 ab 90 bc e5 a9 b1 3c 10 bf 15 bc
       -0.0940959 -0.017660117 0.021687457 -0.009139791
000210 c5 70 ee bc 02 e5 72 bd 13 e3 5d 3d 9e a7 67 3d
       -0.029106507 -0.05930043 0.054171633 0.056556337
000220 9e 7d 1b 3c 86 43 c2 3d d8 63 d0 3c b4 52 86 3a
       0.009490399 0.09485535 0.025438234 0.0010248036
000230 71 84 fb 3b 20 9a 59 3d c6 82 9b bc 86 79 7f bc
       0.0076757004 0.0531255 -0.018983256 -0.015592938
000240 b4 a1 90 bd 5b ec 65 bd 41 22 bf bc 00 9a 47 3d
       -0.070620924 -0.05613361 -0.023331763 0.04873085
000250 b6 33 db bb fa e9 c7 bc a3 4d 27 3c 5c 59 23 bd
       -0.006689514 -0.02440356 0.010211381 -0.03988014
000260 cf 61 91 3d ff 8c e7 3b d3 de 7e 3d e8 32 97 bb
       0.07098734 0.0070663686 0.06222422 -0.004614223
000270 2a b7 56 bc c5 ae 94 3d fa 7d a1 3d 0f c5 bb 3d
       -0.013105193 0.07259897 0.07885356 0.09168445
000280 de 3d af bd e4 c0 5d bb 52 28 27 bd 0f 70 8f 3c
       -0.08556722 -0.0033836896 -0.040809937 0.017509488
000290 15 d0 ce bc 6d 63 31 bc 85 09 78 bb 76 ca 08 bd
       -0.025245706 -0.010826928 -0.003784747 -0.033396207
0002a0 da 1c 35 bd 6a 78 88 ba fd c4 0b 3d 7e 48 51 bd
       -0.044216968 -0.0010411863 0.03412341 -0.051094525
0002b0 db 37 bd 3c 6d 5b 84 3c 3f e8 52 3d f4 87 30 bd
       0.023097923 0.016156876 0.05149102 -0.043098405
0002c0 fc d9 22 bc 44 a5 18 bd 67 14 9e bb d0 8a c6 3c
       -0.009939667 -0.037266985 -0.0048242095 0.024236113
0002d0 c4 3c 0c bd b5 0c a9 3c de d6 a6 3c ad a4 58 3d
       -0.034237638 0.020635942 0.020366129 0.052891422
0002e0 bd 84 36 bd 29 00 2e bd 60 83 36 3d b3 79 3c bc
       -0.044560183 -0.04248062 0.044558883 -0.011503625
0002f0 2a 27 da bc d6 08 08 bd 34 e9 9f bc b1 b0 b3 bc
       -0.026630003 -0.03321155 -0.01952038 -0.021934839
000300 1c c1 f8 bb 40 f0 e6 3d 55 fe a7 bc 28 8a c4 3c
       -0.00759138 0.11276293 -0.020507017 0.02399166
000310 3f 1f 0e 3c e0 c0 a0 3c d9 ef 91 3c 7a 0c 6d 3d
       0.008674442 0.01962322 0.017814564 0.057873227
000320 51 21 7b 3b b6 b5 5d 3d c4 b4 9c 3c e9 65 de bc
       0.0038319419 0.05412837 0.019129165 -0.027148204
000330 11 d2 21 bd 6a 46 55 3d 57 3b fb bc c5 04 8d bc
       -0.039506976 0.052069105 -0.030667944 -0.017214188
000340 f8 a2 f4 bc 55 43 37 3d 12 d0 eb 3c 41 4d 9a 3c
       -0.029862866 0.044741947 0.02878574 0.018835666
000350 5d 3b 31 bd b1 d1 d9 3c 49 9a aa bc 2e cd be 3c
       -0.043269504 0.026589246 -0.020825522 0.023291197
000360 a8 eb 8c bd cd c0 4f bc bf 03 0c 3d 35 d0 84 bd
       -0.06880885 -0.012680245 0.03418326 -0.06485025
000370 a1 a4 77 bd 25 11 b7 3c 88 9f 08 3d 98 75 86 bb
       -0.060459737 0.022347042 0.033355266 -0.0041033737
000380 f2 9c ce bb fc a8 a0 bb a6 e6 c3 bc a7 bb 4a bd
       -0.0063053304 -0.004902957 -0.023913693 -0.049495365
000390 d6 06 89 3d be bf 8a bd 57 b1 8e bd df 87 ba bd
       0.06690757 -0.06774853 -0.06967419 -0.091079466
0003a0 fe 86 36 3b f2 aa 97 bd fa 31 64 bc 5b 22 bb 3c
       0.0027851458 -0.07405652 -0.013927931 0.02284353
0003b0 0d d6 33 bd f5 a5 da bc 77 8e 29 3d 87 4c fc 3b
       -0.043905307 -0.026690463 0.04139563 0.0076995525
0003c0 58 7d e1 3a fc a2 50 3d f8 08 61 3d e9 c9 96 3b
       0.0017203493 0.050936684 0.054940194 0.0046017063
0003d0 16 1c 01 bd 93 83 27 3d 74 3e ea 3c cb 88 be 3d
       -0.031520925 0.040896963 0.028594233 0.09303435
0003e0 85 70 6a bd 44 58 9d 3b 78 cc c7 bc 3c 17 96 b9
       -0.057236213 0.004801782 -0.02438949 -0.0002862754
0003f0 f3 33 3a bd 1e e2 7f 3c f8 3e e1 b6 08 37 32 3d
       -0.0454597 0.015617875 -6.712853e-06 0.043509513

action_model._discrete_distribution.branches.0.bias f4 [2]
000000 da fe ad 3b de fe ad bb
       0.0053099217 -0.0053099236

action_model._discrete_distribution.branches.0.weight f4 [2, 128]
000000 a5 2c 90 ba 7b 9e 10 bc d3 97 37 bb 16 45 77 bc
       -0.0010999633 -0.008826847 -0.0028014078 -0.015092155
000010 d8 aa 48 bc 6e b2 0d bc 55 66 0c bb c0 74 b4 bb
       -0.012247764 -0.008648498 -0.00214233 -0.0055070817
000020 b1 47 d5 b9 ff 48 9b bc 9c bb b9 bc de dc f7 bc
       -0.0004067994 -0.018955706 -0.022672467 -0.030256685
000030 6c 1c 31 bc dc 30 ff bc 5c 6e 8d 3c 7b c9 aa bb
       -0.010809999 -0.031151228 0.017264538 -0.0052120066
000040 1c 6c 2e bb a6 1f 56 3b 5d f1 f6 bb 0f 16 9e ba
       -0.0026614731 0.0032672673 -0.007536097 -0.0012061017
000050 f8 06 ab bc 5e a9 ce 3c 7a 6c 49 3c cf 9f d8 bc
       -0.020877346 0.025227245 0.012293929 -0.02644339
000060 0f a8 ad bb 60 89 3e 3b 67 b9 dd b9 54 a9 83 3b
       -0.005299575 0.002907358 -0.0004229054 0.004017988
000070 df e2 bd bc 97 d7 ea ba 15 b3 c6 3c bc 10 0e 3c
       -0.02317947 -0.0017917034 0.024255315 0.008670982
000080 df 0b c5 bc 70 7f 1c 3a 88 92 23 bc a0 ef ca bc
       -0.024053512 0.00059699174 -0.009983666 -0.024772465
000090 ec 2b fe 3b f6 c6 57 bc 97 eb 14 3b 5b 64 29 3b
       0.0077567007 -0.013169995 0.002272343 0.002584717
0000a0 14 f2 c3 3c 49 e7 ec 3b da ff 8e b9 05 9c 7b bc
       0.023919143 0.00722972 -0.00027274975 -0.015357022
0000b0 67 97 7f 3b ce 82 e3 bc 97 3b 40 3c 75 1b 5a 3b
       0.0039000155 -0.027772333 0.011732957 0.0033280526
0000c0 f5 b0 ef bb c3 e7 5f bb cb 17 38 3c 9b f2 90 3c
       -0.007314796 -0.003416524 0.011236141 0.017693808
0000d0 8b 6d dd bb 4f d2 0a 3c bb 82 80 bb 57 af fa 39
       -0.0067574433 0.008472993 -0.0039218343 0.00047814354
0000e0 33 86 06 bd fd 7d 4a bb f2 87 2e bc 90 5d b3 bb
       -0.032842826 -0.0030897849 -0.010652529 -0.0054738
0000f0 a6 05 a8 bc 8d 49 19 bc 60 31 b3 bc 87 15 d0 bb
       -0.020510506 -0.009355915 -0.02187413 -0.0063502225
000100 75 1e 54 3c 94 4a 61 bc 48 97 80 bb d0 14 b0 bb
       0.012946715 -0.013750691 -0.003924284 -0.005373575
000110 17 cc 0d bc e8 a5 73 bc ea a9 5b ba 54 f2 61 bc
       -0.008654616 -0.014871098 -0.0008379506 -0.013790686
000120 cb ad 47 bc 69 2f 82 bb 0d 90 06 3d c3 1d 3b bc
       -0.012187432 -0.003972937 0.03285222 -0.01142067
000130 74 f6 8a 3c c5 b2 0d bb 31 c9 d3 bb 36 93 5d bc
       0.016963221 -0.0021621448 -0.006463193 -0.013523867
000140 d9 a8 fc bb 1c b3 fa bb 27 9a 1c 3b 07 f7 fd bb
       -0.007710558 -0.007650746 0.0023895593 -0.007750395
000150 40 f0 78 bb 41 0b ed bb 13 5b 62 bc 96 85 f3 ba
       -0.0037984997 -0.0072340076 -0.013815659 -0.001857924
000160 2a 98 a9 bb b6 24 cf 3b da de e7 3b 38 db 2f bc
       -0.00517561 0.006321515 0.0070761265 -0.010733418
000170 6b 56 7e bc b6 01 54 bc d9 dc e6 3a 65 18 0d bc
       -0.015523533 -0.012939861 0.0017613425 -0.008611773
000180 43 57 9d 3b 2c a4 e2 3a bd f7 ad 3b 60 a5 80 bb
       0.004801662 0.0017291359 0.0053090737 -0.0039259642
000190 bb 7f 8c 3c 61 fa 0b bc 07 84 3c 3c 54 7b f5 3b
       0.01715075 -0.008543582 0.011506087 0.0074915085
0001a0 2a 81 f0 bb 68 64 f3 3b 60 4f e1 3b 80 fd b4 ba
       -0.0073396163 0.007427741 0.0068759173 -0.0013808459
0001b0 67 99 ee bc 03 93 56 3c 24 e9 8f bb 38 b5 9e bc
       -0.029125882 0.013096574 -0.004391806 -0.019373521
0001c0 91 94 db bb 7e 40 17 3d 11 99 d9 bb 12 f3 d5 bb
       -0.00670106 0.03692674 -0.0066405614 -0.0065292204
0001d0 ae 73 cc 3c 31 9d 1b bc a8 46 9f 3c af 7b 2a 3c
       0.024957504 -0.009497927 0.019442871 0.010405465
0001e0 ea 24 04 3c 33 8c 9f bb cb 94 c2 b9 57 61 4e 3b
       0.008065442 -0.004869008 -0.00037113423 0.0031491125
0001f0 ae a7 61 bc e3 59 eb 3b c2 25 93 3c 35 44 99 bb
       -0.013772888 0.007182346 0.01796234 -0.0046773204
000200 e7 5f a8 3c 51 55 da 3b d8 f7 0e bb ed 16 27 3c
       0.020553542 0.0066630025 -0.0021815207 0.010198337
000210 23 8f 4d ba 73 6e 5e 3a be 71 ac bc fd 9b fa bb
       -0.00078414584 0.0008485086 -0.02105033 -0.00764799
000220 c0 66 d3 3b 42 c3 ba 3c 79 2e b0 3c c3 cc 2a 3c
       0.0064514577 0.022798184 0.021506535 0.010424796
000230 8e 79 1c 3b 1b b1 a2 3c 8f 98 8e bc dd fb 8c 3b
       0.0023876163 0.019859841 -0.01740673 0.0043024854
000240 ab 22 c0 bb bf cc b4 bc 03 96 7f bb 0e 85 96 bc
       -0.0058635077 -0.022070287 -0.0038999326 -0.018373992
000250 45 2c bc 3a d1 18 3a bb 3d 83 b8 bc cd 09 ce 3c
       0.0014356455 -0.002839614 -0.022523517 0.025151158
000260 bf 56 4a 3c b4 42 6e 3c b3 0f ce bb 60 9e 04 3c
       0.012349783 0.01454227 -0.0062884926 0.0080944
000270 5f 35 13 3c bd 89 56 3c ff f9 a5 bc 82 0c 0e bc
       0.008984893 0.013094363 -0.020260809 -0.008669974
000280 44 5a 02 3d 98 26 89 3b f8 69 9f b8 0c b8 62 3c
       0.031824365 0.004185509 -7.601449e-05 0.0138378255
000290 e4 e0 70 3c ca 82 df 3c 6c 94 b6 b9 f6 97 1f 3c
       0.014702056 0.027284045 -0.00034824328 0.00974082
0002a0 36 f7 0a 3c 4b 79 99 3b 67 8a 19 3c 76 76 0c 3b
       0.008481791 0.0046836487 0.009371377 0.0021432913
0002b0 1b b6 5b bc 52 48 4c 3c f6 49 3b bc d9 8f 4d bc
       -0.013410117 0.012468414 -0.011431208 -0.012546503
0002c0 c5 67 2a bb 62 f9 84 bc d6 34 4d bc 96 dc ee bc
       -0.0026001793 -0.016232196 -0.012524804 -0.029157918
0002d0 7e c7 29 bb 6a f0 c9 3b 69 f1 6c ba fd 03 1a 3c
       -0.002590626 0.006162693 -0.00090386585 0.009400365
0002e0 ff a5 8e 3c 41 ab c3 3b 9b 41 4a 3b 00 72 be 3a
       0.017413137 0.005971343 0.0030861858 0.0014529824
0002f0 72 de 46 3c bc 43 c9 3c f8 48 61 3c 03 28 14 3b
       0.012137996 0.024568431 0.013750307 0.0022606857
000300 12 6b f8 3b bc 13 c3 3c 4c 9c 70 3c b5 84 cd bb
       0.007581123 0.023813121 0.014685702 -0.0062719234
000310 66 31 7c 3c de 34 53 bb f6 81 f0 3b 79 28 05 3b
       0.015392637 -0.0032227556 0.0073397113 0.0020318313
000320 aa 3a a0 3c 42 95 67 3c 41 5e 89 bc 45 b4 6e 3c
       0.019559223 0.014134707 -0.016768577 0.014569347
000330 ca 28 5a bb 7e 1e 97 3b af b1 a6 3b c4 62 2f 3c
       -0.0033288472 0.0046117892 0.0050870995 0.0107047
000340 4e 80 86 3b 9a b3 26 bb 32 b0 b4 bc 06 b9 17 3c
       0.0041046506 -0.002543664 -0.022056673 0.009260422
000350 79 3f 0a 3c df 1f e3 3c fb 1d c0 3a 1f 8a b2 bb
       0.008437985 0.027725158 0.0014657372 -0.005448594
000360 a0 64 80 ba 17 68 08 3c c9 48 e6 3b 8c 43 43 3b
       -0.0009795614 0.008325598 0.0070277196 0.00297949
000370 7f c2 15 3c c2 1f df 3b b5 71 81 3b 19 d6 56 bc
       0.00914061 0.0068092057 0.0039503225 -0.013112568
000380 71 5d 4c bc 93 51 70 3c 9c d2 a5 bc ff c5 1a bc
       -0.01247345 0.014667886 -0.020242028 -0.00944662
000390 91 be 84 3b 8e 56 93 bc 5c a4 b3 bc 77 ac a7 3b
       0.0040510376 -0.017985608 -0.021928959 0.005116995
0003a0 4a 14 ba bb 42 a3 94 ba 19 c4 a4 3a 6c 29 9b bc
       -0.005678688 -0.0011340159 0.0012570649 -0.01894065
0003b0 db dd 17 3c 34 ab 0f bc 1e 46 40 3a b1 d1 13 3c
       0.009269203 -0.008768845 0.0007334667 0.009022162
0003c0 05 9a bf 3b 01 ed 02 bc 8a dc 2d 3a 24 76 f3 3b
       0.005847218 -0.007991076 0.0006632289 0.007429855
0003d0 15 95 fe ba fc 6b cc 3b bc 2c 16 3b 1b 28 38 bc
       -0.0019423092 0.0062384587 0.0022914847 -0.011240031
0003e0 54 27 94 3b 4e 41 cb 3b 00 c5 11 3c 33 b2 53 3b
       0.00452129 0.0062028533 0.008897066 0.003230226
0003f0 0e 49 1e 3b d3 bb 9d 3b 33 ac 0d bc 14 fd 87 3b
       0.002415243 0.00481365 -0.0086470125 0.0041500423

network_body.linear_encoder.seq_layers.0.bias f4 [128]
000000 cc 92 3e 3d 3a 5f 08 bc 07 af 38 3d 2e 5a 1d 3d
       0.046526715 -0.008323485 0.045088794 0.03841608
000010 75 45 83 3d 01 8d 9f 3c f5 b6 85 3b 16 ab e8 3c
       0.06409732 0.019476416 0.004080648 0.028401893
000020 ff 1c 95 bb 97 b8 d3 3d 89 21 57 3d 63 b8 12 3c
       -0.0045505757 0.10337942 0.052522216 0.008955094
000030 ff 52 94 3d b2 95 51 bd 27 be f9 bb 6d 7a 6c 3d
       0.07242393 -0.05116815 -0.007621545 0.05773394
000040 73 02 f8 3c ce 83 65 bb 86 bc 11 3d ef 3a 39 3d
       0.030274605 -0.0035021189 0.03558018 0.04522222
000050 5f 96 0a bd 41 4f ba 3c e5 0e 11 3d f0 f2 b5 bc
       -0.03383481 0.02274287 0.035414595 -0.022210568
000060 ef ba 3d 3c e1 71 45 3d 49 73 5d 3d 87 7e 7a 3c
       0.011580213 0.048204307 0.054065023 0.0152889555
000070 d0 7e 9d bc 45 11 a8 bc 00 ff b6 3d aa 24 7b 3d
       -0.019225508 -0.020516047 0.08935356 0.061314262
000080 8c cf 69 3c 3e b8 7d 3c e1 9d 20 3d 7a d5 64 3d
       0.014270674 0.015485821 0.039213065 0.05586765
000090 83 fe 93 3c ae 4c c6 bc e0 ed 3e 3d 28 01 40 3d
       0.018065697 -0.024206486 0.046613574 0.046876103
0000a0 4a 9e 56 bc 39 6b 81 3d 14 3e 94 3d 60 c3 b3 3c
       -0.0130992625 0.06319279 0.07238403 0.021943748
0000b0 f0 1c cb 3b 15 cc 6d 3d b7 a7 da bc de 7e 5e 3d
       0.006198518 0.058055956 -0.0266913 0.05432021
0000c0 f0 e4 3a 3d 85 eb ce ba f5 02 61 3c e4 7b a7 3d
       0.045628488 -0.0015786743 0.013733615 0.08177927
0000d0 7c 4d 08 bd 11 24 3b 3c 54 e6 8a bc 4f 87 ba 3c
       -0.03327702 0.011422173 -0.016955532 0.022769598
0000e0 cc 91 83 bc 5c d0 95 3d 35 68 04 3d 33 e5 92 3c
       -0.016060732 0.07315132 0.032325942 0.017931556
0000f0 fb db 70 3c 10 dc ac 3c e0 11 a6 3d e2 e6 a3 3d
       0.014700885 0.021101028 0.08108878 0.08003022
000100 5a 7c 27 3d e1 7c 2b 3d 60 f8 2c bc 15 b7 37 3d
       0.040890075 0.04186714 -0.010557264 0.044852335
000110 02 9e 44 3c 44 79 e8 bb 29 20 88 3d 85 b7 9c 3c
       0.012000563 -0.007094534 0.06646759 0.019130478
000120 4b 03 d0 3d 0e 99 c7 3c af 6e bc 3d 6b 12 62 bc
       0.10156878 0.024364974 0.09200799 -0.0137983365
000130 19 63 f2 bc 4b 76 4c bc 23 d0 42 3d 40 3c 77 bd
       -0.02958827 -0.012479375 0.047561776 -0.060360193
000140 5f 2a 13 3c ee 26 ce 3c 46 26 6f 3d e3 c0 8d 3d
       0.00898227 0.025165047 0.05838611 0.06921556
000150 32 7e 58 3c 8c 23 52 3d e0 7a a6 3d ec 85 4b 3d
       0.013213681 0.05130343 0.08128905 0.049688265
000160 bf e3 b9 bc 4c 50 35 3d 17 72 93 3d af 0f 4a 3d
       -0.022691606 0.04426603 0.07199495 0.049331363
000170 df 37 a7 bc 0f 1c 56 3d cc e7 18 3d f9 cd 19 3d
       -0.020412384 0.052272853 0.037330434 0.037549946
000180 20 05 e2 3c bf 0b 28 3d 6b d6 61 bb db 82 e6 3c
       0.027590334 0.041026827 -0.0034460078 0.028138569
000190 97 b4 a8 3d e1 be 0f 3d 7f 06 59 3d 9a 9d 38 bd
       0.0823757 0.035094146 0.05298471 -0.045072176
0001a0 c7 cb 92 3c 4f 61 99 3c c1 a7 57 bc 19 36 1b 3d
       0.017919434 0.018723158 -0.013162554 0.03789339
0001b0 35 d4 0c bb 46 80 f9 bb dd 3a 88 3d 14 27 61 3d
       -0.002148879 -0.0076141683 0.06651852 0.05496891
0001c0 fc 78 5f 3d 70 d2 63 bb 38 c5 d1 3a 3e df 75 3d
       0.05455874 -0.0034762882 0.001600421 0.060027353
0001d0 11 ea 01 3d c9 d5 0a bd 04 60 7f 3d b3 c7 9d 3d
       0.031717364 -0.033895288 0.062347427 0.07704105
0001e0 66 7b a6 3d 3d d9 ed 3c 3d 08 b9 bb 5f 53 46 3d
       0.08129005 0.029034251 -0.005646734 0.048419353
0001f0 a0 6d 66 3d f5 6b b0 3c 8a f0 e6 3c ec 11 68 3d
       0.05625689 0.021535853 0.02819087 0.056657717

network_body.linear_encoder.seq_layers.0.weight f4 [128, 9]
000000 49 41 73 be 17 51 37 3e 80 fd 5b 3f 49 9c ea bd
       -0.23755373 0.17902027 0.85933685 -0.1145559
000010 c7 77 3c be 48 00 47 bd 8a 9c 2c bd 53 21 b3 3b
       -0.18405066 -0.048584253 -0.042141475 0.005466619
000020 02 aa a5 3e 3b ad 5f be 89 72 23 be 40 0e d8 3e
       0.32356268 -0.21843426 -0.1596166 0.42198372
000030 fb 0f a9 3e da 27 98 3e 9e 60 89 3e f2 05 07 bf
       0.33020005 0.29717904 0.26831526 -0.52743447
000040 60 fc e2 3e fc 70 a1 bc 07 ae b2 3e 2c 00 94 be
       0.44333172 -0.019707195 0.34898397 -0.2890638
000050 7f b5 4d bf 61 23 18 be 78 c8 de 3d 4f 94 5e 3e
       -0.80355066 -0.14857246 0.1087808 0.21736263
000060 c8 b7 1c 3f 04 f5 bc 3e 30 81 f8 be ed 41 2c be
       0.6121793 0.36905682 -0.48536062 -0.16822024
000070 7c 15 11 3f c2 5b ab 3e 6d 1e 96 be 1c 2f 33 3f
       0.5667341 0.33468443 -0.29320088 0.6999376
000080 e0 66 c8 be c9 08 02 be 13 83 4c be fd 60 93 be
       -0.39140987 -0.12698664 -0.19971876 -0.28784934
000090 59 80 9e bd c3 bc b2 3e 7e 91 33 3e 52 0a 26 bf
       -0.07739324 0.3490964 0.1753597 -0.648595
0000a0 0b 0c 1e 3f bd c8 04 3c 8f d1 97 3e ef d0 9b 3c
       0.61737126 0.0081045 0.29652068 0.019020526
0000b0 ed ed 87 be 91 02 91 3d 2d ce 1c bf 8b 48 91 be
       -0.2654871 0.07080568 -0.612521 -0.28375658
0000c0 ce b5 98 3e fc e8 11 be bf 33 5c 3e 64 e3 60 be
       0.29826206 -0.14249033 0.21504115 -0.21961743
0000d0 cd c5 ac 3d f4 1f 10 be 45 0c 1e 3e 05 cd 96 be
       0.08436165 -0.14074689 0.15434368 -0.29453292
0000e0 cd a3 97 3e 12 5d 8b 3e d3 b0 9f 3e d0 09 b6 be
       0.29617158 0.27219445 0.31189594 -0.3555436
0000f0 3e 13 03 bf da eb b1 be cf bb 92 3e e7 21 d1 3d
       -0.51201236 -0.34750253 0.28658912 0.102115445
000100 18 57 b4 3e 5e 42 21 3d 33 c5 1b 3c 0e f4 4d 3e
       0.35222697 0.039369933 0.009507465 0.2011263
000110 d6 be 29 bd 95 f9 a7 be 69 67 04 be aa 58 1c bf
       -0.04144176 -0.32807603 -0.12930073 -0.6107279
000120 cb 5e 48 be dd 77 2a 3f 4d a5 36 bd f7 27 39 3e
       -0.1956741 0.66589147 -0.044591237 0.18081652
000130 e0 1c 01 be e1 66 5b 3e 5f b0 a2 bd 62 aa 6b be
       -0.12608671 0.21425964 -0.07943796 -0.23014215
000140 5a e5 ff 3e 38 ff 55 bd f9 9e a0 3e ee 18 f5 be
       0.4997967 -0.05224535 0.31371287 -0.47870582
000150 84 80 de 3e 2c af ff 3e 4f 19 c8 be dc 88 4f bd
       0.43457425 0.49938333 -0.3908181 -0.05066763
000160 f8 87 11 3f 82 12 14 3f 8c 74 af bc c5 4d 8a 3e
       0.56848097 0.5784074 -0.021417879 0.27012458
000170 16 67 be 3e 22 b8 c2 bd 98 68 b7 3e b2 40 03 3e
       0.37188023 -0.09507777 0.35821986 0.12817648
000180 7f a4 54 be 00 70 b6 3d a2 61 98 be 22 a5 2f 3e
       -0.20765875 0.08908081 -0.29761988 0.17152837
000190 18 db 5b be 58 0f 48 3e 3b cd d9 3d 3a c9 2e 3e
       -0.21470296 0.19537103 0.10634848 0.1706895
0001a0 b3 19 82 bd a5 71 f0 be 17 a8 b6 be 09 e7 30 3c
       -0.06352558 -0.46961704 -0.35675117 0.010797271
0001b0 fb fb ba 3d 51 ce 10 bd 37 4c d1 be 2c 55 b1 3e
       0.09130093 -0.03535301 -0.4087846 0.34635293
0001c0 9c 5c c5 3e d3 c7 00 3f 65 98 88 3e c3 f6 f6 3e
       0.38547218 0.5030491 0.26678768 0.4823514
0001d0 7c 41 c7 3e 1f 32 c6 be f8 f9 fe bd cd 48 ea 3d
       0.38917148 -0.38710114 -0.124500215 0.11439667
0001e0 3b de 0f 3e e4 23 3b be 70 30 87 3e 3f 0d e6 be
       0.14049618 -0.1827541 0.26404142 -0.4493198
0001f0 54 8e 8a bd 29 43 9d 3e 94 44 2a bd 7d 80 0b 3e
       -0.06765428 0.30715302 -0.041569307 0.13623233
000200 49 43 80 3e 79 d0 87 be b9 66 d4 be fa 60 91 be
       0.25051335 -0.2652624 -0.4148462 -0.283943
000210 9d f2 90 be 1c ff a0 3d e2 ee 86 3e 67 9a bc bc
       -0.283101 0.07861158 0.26354128 -0.023022844
000220 17 3a fb 3e c6 fd ed bd 3f 1d 4c 3f 6d f0 ab 3e
       0.49067757 -0.11620669 0.79732126 0.33581868
000230 42 67 39 be 04 76 cb 3e 0d 69 1f 3f c9 bc e6 3d
       -0.18105796 0.39738476 0.6226967 0.11266477
000240 70 69 ae be ee 70 25 3d 18 4c 1a bf 1a b0 21 bc
       -0.34064817 0.0403909 -0.6027236 -0.009868646
000250 98 13 1d 3f e8 54 40 3e c0 c9 be bd 1d bc 03 3f
       0.6135802 0.18782389 -0.093158245 0.51458913
000260 68 d9 c8 3e 61 ff 32 3e 55 34 43 bd f1 da a0 be
       0.39228368 0.17480232 -0.04765733 -0.3141704
000270 90 4d 43 bd bc fe 56 bf 80 37 ce bd ce 66 a0 3e
       -0.04768139 -0.83982444 -0.100691795 0.31328434
000280 07 e0 47 3e f0 d3 a5 bc 72 82 dd 3d f4 ce 19 3e
       0.19519053 -0.020242661 0.10815896 0.15020353
000290 93 6d af 3d 8e c2 ea be 02 8d 79 be 12 d1 af 3e
       0.085658215 -0.45851558 -0.24370196 0.34339195
0002a0 ff 4c af bd 7f b8 8c 3e 71 88 a1 bd 82 0e 5d be
       -0.08559608 0.2748451 -0.07887352 -0.21587566
0002b0 7c 26 80 3d d1 f5 6f 3d 24 60 c6 3d a2 eb a7 3d
       0.0625734 0.05858404 0.09686306 0.0819924
0002c0 e6 6f aa 3e 19 2c 4e 3b 90 88 b0 3b 9b be ca be
       0.33288497 0.003145939 0.0053873733 -0.39598545
0002d0 b1 66 35 bf c5 64 e1 be ae 82 97 be 57 72 03 bf
       -0.7085982 -0.44022194 -0.29591888 -0.51346344
0002e0 51 d6 e9 be 7f f9 bb 3e 89 9a 8e bc c3 80 b1 3e
       -0.45671323 0.36713788 -0.017407672 0.3466855
0002f0 c9 be 86 be c8 01 dc 3e 17 a5 28 bb 1a e2 f1 3e
       -0.26317433 0.4297011 -0.0025733167 0.47242814
000300 58 1b 95 3e 4e cf 33 be 16 d3 a2 bd 50 2c 76 be
       0.29122424 -0.17559549 -0.07950418 -0.24040341
000310 20 13 01 be 2f 2c b1 be 53 92 57 3e 48 52 02 3e
       -0.12604952 -0.34604022 0.21051912 0.127267
000320 a4 f3 81 bc 76 40 2d 3e 2c c4 12 3e b5 e7 3c bf
       -0.015863247 0.16919121 0.14332646 -0.73791057
000330 a7 f9 2a bf 93 37 cd 3e 54 72 fd be 1d 7a a2 3e
       -0.6678719 0.40081462 -0.49501288 0.3173379
000340 52 48 a4 3e 6f 71 e1 bc 30 55 5e be bd 16 16 bf
       0.32086426 -0.02751991 -0.21712184 -0.58628446
000350 06 ff 0c 3e b1 a4 13 bf 09 8b 5d bd e6 6a 4a be
       0.13769159 -0.57673174 -0.054087672 -0.19767341
000360 67 d6 e9 be e1 a2 1a be 68 05 a2 bd 09 30 be be
       -0.45671389 -0.15101196 -0.079111874 -0.37146023
000370 e3 6f 3a 3e 52 e6 99 be 22 fe 3e be 01 7d a6 3e
       0.18206744 -0.30058533 -0.18651631 0.32517245
000380 a1 90 78 3d a5 7e 21 3e 0c 43 80 bd 34 a5 83 3e
       0.060684804 0.15770967 -0.06262788 0.25711977
000390 1c 5d 25 3d 68 e5 e3 3d 24 3f 0b be fa af 2a 3f
       0.040372 0.1112774 -0.13598305 0.6667477
0003a0 0b 72 0e 3e 7e dd c3 3e 24 dd a2 be 70 7e cf be
       0.13910691 0.38254923 -0.31809342 -0.40526152
0003b0 8a 11 73 3e bc fd ba 3e 89 b0 01 3f 97 05 a8 be
       0.2373716 0.3652171 0.50659996 -0.32816765
0003c0 33 41 02 bf 5a 03 07 3f 35 d3 67 3e 9a 04 c8 bd
       -0.50880736 0.5273949 0.22639163 -0.09766503
0003d0 f5 98 34 3e fd c5 63 3e b5 e2 1d 3e aa 90 4d bf
       0.17636473 0.22243495 0.15418513 -0.80298865
0003e0 2e 89 1b bf f0 51 0f 3e 86 a7 33 3e d1 b8 99 3e
       -0.60756195 0.139961 0.17544374 0.30023816
0003f0 a7 11 06 3f d6 5a bf 3d 8d dd 04 3e e6 3c 2e bf
       0.52370685 0.093434975 0.1297514 -0.68061674

network_body.linear_encoder.seq_layers.2.bias f4 [128]
000000 cb 64 8f 3d 51 e3 bd 3b 12 16 98 bc 5e 88 03 bd
       0.070016466 0.0057949205 -0.018565211 -0.03211247
000010 a3 6d e9 3c 61 b1 b9 3b 40 dd 03 3d 58 01 48 3d
       0.028494662 0.005666897 0.032193422 0.048829406
000020 e9 a7 d3 3c fd 6b 76 3d 92 69 21 3b d0 3e f5 3c
       0.025836902 0.06016158 0.0024629575 0.029937178
000030 ca fc c4 bc 1d c5 71 bd 6f ec 87 3b 47 02 bd bb
       -0.02404632 -0.059025872 0.004148058 -0.0057680937
000040 66 22 05 3d 0c e8 a0 3d 32 f3 d8 3c 18 c5 88 3c
       0.032503508 0.078567594 0.026483152 0.016695544
000050 9f 9d a7 bc 87 b9 6f ba a2 61 5b 3c 02 2f e9 3c
       -0.020460902 -0.0009144772 0.013389977 0.028464798
000060 b2 31 57 3d 18 33 0e 3d 8c 7a 5c 3d a8 03 32 bc
       0.052537628 0.034716696 0.053827807 -0.0108651295
000070 f5 8e 86 3b 27 10 f8 3c fd 64 90 3d 14 9b 5a 3d
       0.0041063973 0.03028114 0.07050512 0.05337055
000080 0c 82 53 3d 50 ca db 3c f3 7c 7f 3c d2 70 c7 3c
       0.051637694 0.026829869 0.015593755 0.02434579
000090 be 15 31 3d ac 9e a8 3c 66 ef 25 3d 46 75 c7 3c
       0.043233626 0.020583473 0.04051151 0.024347913
0000a0 0a 3a 43 3d 3c b0 d6 3b 4f 93 44 bc 76 d8 95 3c
       0.047662772 0.0065517705 -0.011998012 0.018291693
0000b0 4e fa 08 bd d8 2e 5f 3c e2 05 8d 3c 91 51 19 3c
       -0.033441834 0.013622008 0.01721472 0.009357826
0000c0 da 66 88 3c aa 7a 31 3d e2 9f 24 3d 68 2f ba 3c
       0.016650606 0.043329872 0.04019154 0.022727683
0000d0 89 22 83 3c d6 94 a3 3b ff bc 77 3c b7 3e 56 3d
       0.016007679 0.004992108 0.015120744 0.052305903
0000e0 51 c5 58 3d 8a ce 2d 3d e4 2e 25 3d a2 22 00 ba
       0.05292255 0.0424333 0.04032792 -0.0004887973
0000f0 81 53 22 3d ff c7 36 3d c0 42 3e 3c 71 97 e3 3c
       0.039630417 0.044624325 0.011612594 0.027782174
000100 5c 49 6f bb dc 43 bf 3d 3c 36 33 3c 76 b7 c7 3c
       -0.0036512231 0.09339115 0.010938223 0.024379473
000110 21 c0 99 3c d9 1b ee 3b 6d 7e ab bc 1a d0 37 3d
       0.018768372 0.0072665033 -0.020934308 0.044876195
000120 ca 10 02 bd 96 b8 0b 3d ff dc 7f bc a5 3c b1 3c
       -0.031754293 0.03411158 -0.015616654 0.021635363
000130 f1 c1 f4 3c d2 36 f2 3b bc 67 0b ba 5e ca 34 3d
       0.029877635 0.007391789 -0.0005317887 0.044138305
000140 0d 29 a6 ba 23 20 dd 3c 5d c6 e2 bb 9a 62 80 3d
       -0.0012677029 0.026992863 -0.0069206194 0.06268807
000150 97 81 78 3d 8b 81 92 3d c7 da a5 3c ee 61 7a 3d
       0.06067046 0.071536146 0.020245923 0.06112855
000160 3e bd 65 3d b5 06 5e 3c cd 1c 62 3d 58 ab 7d 3c
       0.05608868 0.013551404 0.055203248 0.015482746
000170 b4 e5 90 3d cf 33 a2 3d 43 c6 ec 3c 4d 2a db 3c
       0.070750624 0.07920038 0.028903132 0.026753569
000180 67 e8 28 3d e9 de ba 3c 36 32 11 3c 33 e5 4f 3d
       0.04123726 0.02281137 0.008862069 0.05075569
000190 fd f1 5b 3d d3 9e 71 3d b9 2f 2a 3d 15 0b 81 3d
       0.053697575 0.058989357 0.041549418 0.06300942
0001a0 b2 83 44 bc 7c 40 61 3d a8 0b b9 ba fd 10 14 3d
       -0.011994289 0.054993138 -0.0014117854 0.036149014
0001b0 b9 33 c5 3c 4e 2f 0e 3c 84 37 8f bb 4d a2 95 bb
       0.024072515 0.0086782705 -0.0043706317 -0.004566467
0001c0 57 3a dc 3c d0 2e cd 3c 00 9e ae 3c 03 92 24 3c
       0.026883287 0.025046736 0.021315575 0.0100445775
0001d0 b5 ba 0c 3d c5 a6 44 3b 3b 56 f2 3b 59 4f 81 3d
       0.034357745 0.003000663 0.0073955334 0.063139625
0001e0 01 92 87 3d 40 e1 00 3d 0b 9f a5 3d 6b 8a 37 3d
       0.06619645 0.031464815 0.08086976 0.04480974
0001f0 b6 dd 05 3d 5f fc 1e bb 26 06 44 3d 75 79 41 3d
       0.032682143 -0.0024259312 0.047857426 0.04723497

network_body.linear_encoder.seq_layers.2.weight f4 [128, 128]
000000 fc ce 75 bc 89 e9 28 3e 27 f0 79 bd b4 81 93 bd
       -0.015002962 0.16495337 -0.061020043 -0.07202473
000010 ef 1c ff bd 29 11 23 3e 86 3b e7 3c f2 7a 9b 3d
       -0.124566905 0.15924515 0.028226625 0.07591809
000020 db 7a 33 3e 55 39 ba bd d0 5c 9c 3d e5 97 d0 3d
       0.17527334 -0.090929665 0.0763489 0.101852216
000030 c3 01 cd 3d 84 48 22 bb 95 d9 f4 bd 16 a6 b0 bd
       0.10010102 -0.002476246 -0.11955563 -0.086254284
000040 58 ff e1 3d 26 fd da 3c f4 6f 30 3d 95 96 3f 3b
       0.11035031 0.026732039 0.043075517 0.002923404
000050 a0 32 67 3d 1c 11 5d 3c 4e ab 08 3c fc 8e 89 bd
       0.056444764 0.013492849 0.0083416235 -0.06716725
000060 12 51 94 bd 91 f9 07 3d 96 39 8a bc 1b be 27 bb
       -0.072420254 0.03319699 -0.016873162 -0.002559549
000070 92 06 78 3d 4f 47 cf bb 7c 14 98 3c 17 75 29 3e
       0.06055314 -0.0063256393 0.018564455 0.16548572
000080 b1 33 d0 bc 0f 4b 40 3d 19 e8 d2 bd 5d c1 da bd
       -0.025415273 0.04694658 -0.10298175 -0.10681412
000090 96 a8 24 be d2 d9 d8 bd 5a e4 a1 bb 3e 98 6c 3d
       -0.16079935 -0.10588421 -0.0049405517 0.057762377
0000a0 cf ac 7f be 18 0a 1b 3e 8e 07 59 3d 80 20 92 3d
       -0.24968265 0.15140569 0.05298572 0.07135105
0000b0 61 38 ec 3d 04 92 88 bd da fd 80 bd 89 6a bd bd
       0.11534191 -0.06668475 -0.06298418 -0.092488356
0000c0 6d 4b 49 3d 3b 01 29 3d 4c 16 2b bd 4c 60 58 3d
       0.049144197 0.04126094 -0.04176931 0.05282621
0000d0 e9 fe 61 bd 76 a1 e4 bc ee e4 4b 3e 8d 01 ab bc
       -0.055174742 -0.027909022 0.19911548 -0.020874763
0000e0 93 7c 93 3b 94 51 27 3e 73 8f 07 be 2f d7 84 3d
       0.0045009344 0.16339713 -0.13238315 0.064863555
0000f0 53 19 98 ba 40 4e 23 be 25 de 99 3d 8f d1 e4 3d
       -0.0011604227 -0.15947819 0.07513074 0.11172783
000100 10 a5 da 3d 9e 41 8b 3b 89 40 48 be bd bf aa 3d
       0.106760144 0.0042497655 -0.19555868 0.083373524
000110 f3 23 11 3d 62 13 00 3d ac c6 34 3d 2d 36 a6 bd
       0.035434674 0.031268485 0.04413478 -0.08115802
000120 b0 c6 f3 3d bc 14 83 bd 4d 0b 84 be 81 8e 8b 3d
       0.11903131 -0.06400439 -0.25789872 0.0681429
000130 b2 86 ef bd f2 9a 80 be 88 da 9f 3c 05 d2 51 bd
       -0.11695613 -0.25118214 0.019513384 -0.05122568
000140 93 3e c2 bd a7 33 62 bd ee 35 57 be 7e b7 07 be
       -0.09484591 -0.05522504 -0.21016666 -0.1325359
000150 15 19 8d bc 0f 39 a5 3d 51 d6 bc bd b9 86 e0 3d
       -0.017223874 0.08067524 -0.09220565 0.10963196
000160 ba a0 2c 3c 68 01 30 3e db c7 46 3c 2c 35 72 bd
       0.010536367 0.17188036 0.01213261 -0.05913274
000170 f2 a1 27 3e 7f ef 26 3d 45 6e 0e 3c 34 ef ea bd
       0.16370371 0.040755745 0.0086932825 -0.114714056
000180 87 1a c3 3d a0 bb 21 bc 7e 58 13 3e 49 2b f4 bc
       0.09526544 -0.009871393 0.14389226 -0.029805796
000190 6a a6 d5 3d b8 88 82 3d 79 24 3c 3d db 15 86 bd
       0.104321316 0.06373733 0.04593322 -0.06547137
0001a0 80 85 c3 3d 42 5f 45 be 89 89 2a bc 34 de 14 be
       0.095469475 -0.19274619 -0.0104087675 -0.14537889
0001b0 e5 5b cf bd cf bc 05 be 1d 7c 3f 3e ce e2 55 bd
       -0.10124949 -0.13060306 0.18699689 -0.05221825
0001c0 28 f8 51 3e bf 7f fd 3d 54 2d 90 3d 2b d0 83 bd
       0.2050482 0.12377881 0.07039896 -0.06436189
0001d0 3c bc 23 be c9 7a 97 bd 8b f8 74 bc d9 92 20 bd
       -0.15989774 -0.07396466 -0.014951835 -0.039202545
0001e0 df ee 8d 3b 88 a4 d9 bd 7d 33 44 3d 90 ba 07 3e
       0.004331454 -0.10627085 0.047900666 0.13254762
0001f0 49 72 53 3d d0 c1 df 3c a5 de 63 bd 1e 8c 8b 3c
       0.051622663 0.027314097 -0.055632252 0.017034587
000200 11 d0 80 bb bb e9 a1 bd 28 7b 81 3c a7 e2 e7 bb
       -0.0039310534 -0.07905909 0.015805796 -0.0070765796
000210 b6 ac 34 bc 32 56 8c bd f9 8b 5a 3c 45 2d 1b bd
       -0.011027506 -0.06852378 0.013339036 -0.03788497
000220 83 f7 06 3e 05 24 cb 3c 04 53 83 bb 67 43 98 bd
       0.13180356 0.024797449 -0.004007699 -0.07434731
000230 ed 42 02 3d 7c cd be 3c 16 72 ec bd 01 16 86 bd
       0.031802107 0.023291342 -0.11545198 -0.06547166
000240 c7 76 33 be 03 8f 98 bd 9c 9d c4 3d b0 00 92 bd
       -0.17525779 -0.07449152 0.09600374 -0.071290374
000250 28 13 8a 3d 45 f6 0f bd 2f 10 12 be 49 7b 3f 3e
       0.06741935 -0.03514697 -0.14263986 0.18699373
000260 94 af 1c 3d 8f 21 06 be af 7f 24 bc b6 7a f7 3b
       0.03825338 -0.13098739 -0.010040208 0.00755247
000270 8e 40 d5 bd 27 d2 c7 bd 15 c1 66 bd 82 a0 82 3d
       -0.104127035 -0.0975688 -0.05633648 0.06378271
000280 26 8a 09 be cd c5 22 be 1f 55 18 3e b1 94 f3 bd
       -0.13431606 -0.15895768 0.14876221 -0.11893595
000290 f1 fa ad 3d b4 54 f3 bc 8f 8c 7a bd fa a1 d6 3d
       0.08495129 -0.029703476 -0.061169203 0.10480113
0002a0 73 9d af bd 90 7f be bc 7e a8 ec 3d f1 00 31 bd
       -0.08574953 -0.023254186 0.11555575 -0.04321379
0002b0 6d a0 36 3e 05 7c 06 3d c6 39 81 3d c1 d5 66 bc
       0.17834635 0.032833118 0.063098475 -0.014089049
0002c0 1a d6 aa 3d 05 58 f7 bd 0a fb e8 bd 34 a3 f1 3d
       0.08341618 -0.12077335 -0.11376007 0.11798707
0002d0 67 48 21 bc 07 ff 13 be ed c1 c3 3d 09 ce 1f be
       -0.009843922 -0.14452754 0.09558473 -0.1560594
0002e0 9d e2 0b 3d 90 8a 4c 3d 29 35 98 3d 2b ee 8d bc
       0.034151662 0.04993683 0.074320145 -0.017325481
0002f0 d1 2e 99 3d 9a 53 f1 bd 3c 22 10 bd 86 1b 91 3d
       0.07479633 -0.11783524 -0.0351889 0.07085328
000300 a0 8e cd bb c4 31 3d be 3c 5a 51 3d 1c be 38 3d
       -0.0062731057 -0.18476015 0.051111445 0.045103177
000310 99 ab 0d be d0 59 a8 bc 9e e5 7c 3d b5 e2 05 3e
       -0.1383499 -0.020550638 0.061742418 0.13074763
000320 8e fb b7 bd de 25 a6 3e c7 39 f0 bd 66 02 77 bd
       -0.08983527 0.32450765 -0.1172977 -0.06030502
000330 96 7f aa 3d 50 06 13 be 1f c0 6c be f9 8c ac bd
       0.08325116 -0.14357877 -0.23120163 -0.08425326
000340 eb 50 68 bc 2c 12 8b 3c f6 cd 67 bd df a7 e7 3d
       -0.014179449 0.016976438 -0.056592904 0.11311316
000350 a2 12 47 3e 58 de c2 3c 2f 17 2d bd 3d b3 05 bc
       0.19440702 0.023787662 -0.042258438 -0.0081604095
000360 e0 87 6d 3c e3 9e c4 bc c8 04 e6 3c 58 ef 00 be
       0.014497727 -0.024001544 0.028078452 -0.12591302
000370 fa d2 33 3d 17 9f 9b bd 2b 11 71 3d e4 fc b6 3b
       0.043902375 -0.07598703 0.058854263 0.005584346
000380 98 45 19 be fb 18 91 bd 2d 6d 35 3d 8a d9 a6 bd
       -0.14967954 -0.07084843 0.04429357 -0.08146961
000390 95 8b 3b be 52 b2 b1 3d 66 3c 25 be 65 e2 93 bd
       -0.18314965 0.0867659 -0.16136321 -0.07220916
0003a0 98 dc 88 bd de d1 5c bd 9c af 27 3d 86 0f 29 3d
       -0.066827 -0.053911082 0.04093896 0.04127457
0003b0 14 32 61 3c ce c3 10 3e 49 fa ce bd ff b4 36 3e
       0.01374485 0.14137194 -0.10106332 0.17842482
0003c0 45 25 59 3d 22 29 5c bc d0 bd 1b bd 7e 9f 17 be
       0.05301406 -0.013437541 -0.038022816 -0.14806935
0003d0 be d2 88 bd 11 c8 56 bd 80 5d 00 3e b2 94 e9 bd
       -0.06680821 -0.052436892 0.12535667 -0.114053145
0003e0 6b 51 9a bd 05 ee fb bc 53 a9 6e 3d c5 c8 03 3e
       -0.075350605 -0.030753145 0.05826695 0.12869556
0003f0 07 54 19 3d c3 01 28 be 6b 2e 2f 3c 5a a9 27 3d
       0.03743365 -0.16406922 0.010692219 0.04093299
