Assets/TFModels/SeekBehavior01.onnx (onnx, 73916 bytes, 7 tensors)

action_model._continuous_distribution.log_sigma f4 [1, 2]
00000000: 1eb2 c8bd a440 babd
-0.09799598 -0.090943605

action_model._continuous_distribution.mu.bias f4 [2]
00000000: 350d 193b deef 5a3b
0.002335382 0.0033407132

action_model._continuous_distribution.mu.weight f4 [2, 128]
00000000: 0ad6 b7bd 77f2 79bd 2507 18bc 9aae dfbc
00000010: f25a 153c 3350 8f3d ada4 8fbd e31d c93c
00000020: 469f 333d b48d 39bd b6f5 c53c f420 3ebd
00000030: 280e 0e3d 07e5 4fbd 6584 25bd 0027 2bbd
00000040: da72 d4bc 2240 9cbd dff5 173c 4139 0bbd
00000050: a7ef 083d f7c2 b3bc 1ea2 9cbd 61a6 50bc
00000060: 1bed 653d 9591 64bd bb2b 29bd a87f 0fbd
00000070: 9b29 a3bd 2c0b 9b3d 4a86 b23c f8d3 b9bd
00000080: a46e f73c 687a b93d 212a 7f3d 7c85 aa3b
00000090: 88f5 ba3c 399a bd3d 4a16 783c 543a 6f3d
000000a0: 9432 05bd 92ee 08bd 3e31 ed3c 6d25 0c3d
000000b0: 3923 fbbc 44d3 1bbd 088c a73b c59a c73c
000000c0: 9293 213c eaa1 15bd 709e b13c 15e6 113d
000000d0: d142 853d 640b 933d aa36 1f3d d668 24bd
000000e0: ca96 8c3d 400e cdbd 4d71 803d 8789 8b3b
000000f0: 3336 69bd 4682 adbc 8283 0a3d ef1c bebc
00000100: 6961 8cbc d2ea b53c 94fb e0bc f4d3 09bd
00000110: ff3d 553d 499b e7bc 75f2 0c3a 1a1f c43c
00000120: 158d 783c d245 73bd fc79 c83d 7bc0 86bd
00000130: 90bb 573d 41de 763c b9e7 293d 5091 683b
00000140: 65ef 55bd 90d5 df3c 1eeb 813d 32f5 2f3d
00000150: d6b6 403d 6bf5 a7bc 6125 33bc 5ff5 b83c
00000160: 1b0b ccbc 4ade 39bd 6d19 0bbd 4956 a0bc
00000170: f556 1b3c 9d62 56bd 4cf5 2d3c a040 c3bb
00000180: 3ef9 fcbc 7971 f63a 160a 613d 41f0 04bd
00000190: 71d3 6c3c fbe7 96bd 13ef 723c 7838 e1bc
000001a0: 79c5 293d 433e dcbc ac49 c93c 04dc e0bc
000001b0: dc0f 1b3d 81d3 c0bd fb64 80bd ea14 7f3c
000001c0: 0588 fd3c e76d 4cbd a122 363c c5ae 85bd
000001d0: 26d8 fcbc 8894 953c 32b5 7ebd 77dd b3bd
000001e0: 0473 95bd 0972 8cbc 9f0d 1cbc 6b41 b63d
000001f0: 6db7 5abc 7402 493d 8376 4a3d c6b0 613a
00000200: 02b0 3a3d 5911 2bbd 40de 0c3d 5460 1dbc
00000210: 9fe1 fabc ff4a 0e3b ce13 87bb ee5d f8bc
00000220: 2db0 8bbc 405a 82bd b832 39bc 294d c9bc
00000230: a09b 25bd 2608 31bb 7882 6b3d 4cef 13bd
00000240: 935e c4bd 62fa aa3c dc40 a9bd db0f edbc
00000250: 6fa1 e7bc 6c22 62bd 410c 083d 1c05 8dbd
00000260: e08f 673d 3076 293d ace1 403c 1420 ebba
00000270: 6191 053d ce7e a93d fbf4 3c3d a8c1 dbbc
00000280: 9b5e 8b3d bb5e acbc 58b1 41bd d1a0 a6bd
00000290: 7ccf 14bd 961c 813d 0e0f 25bc 1326 153d
000002a0: 47ba f73c f2a7 92bd 06bd 40bd 3cf4 ce3c
000002b0: 7b0b 1bbd 8ad0 7a3d f548 abbd eeed 13bd
000002c0: c295 043d 36cf 603c 2699 993a d626 feba
000002d0: 5811 a7bc 8d0f 023c bbb9 c53c 2446 223c
000002e0: 540b c43d e871 8f3c 37ed c5bc e489 503c
000002f0: cb92 bc3c bfa7 f5bc 356e 27bd 7524 55bd
00000300: 1578 1a3d 0d52 3bbd a3cb 81bd 77a1 02bd
00000310: 039b 3abd ba5d 443b 0440 843d b01a 823d
00000320: d9a6 b5bd 41c9 e6bc 27f6 d83a 3e86 94bd
00000330: 8c42 073d 13ed 88bc 617b b63c fd64 a0bc
00000340: 665f 843c 0f8c b0bd f47f 78bd f76c 093c
00000350: ed00 9f3d 2a94 e43d d80d 40bc aa46 bb3a
00000360: ae29 0fbd ea2a d53c eec0 df3a 29d8 90bd
00000370: 27af 0d3d e198 dd3c d708 7cbc 4eb5 f2bb
00000380: b4a9 71bd 1eec 13bd fb43 04bc abfe c1bc
00000390: 31f6 9abd ef68 38bd 5e44 113d e313 1a3d
000003a0: e858 e4bc 682d 13bb 6830 8e3d 0c38 3bbc
000003b0: bdfd 70bd 6c24 47bc c52e 92bc dfe6 fa3a
000003c0: 4b1f f93c 3816 b83d ba75 d7bc f0d6 1ebd
000003d0: 2ad7 823c e3be 9b3c 27c5 ad3d fd43 923d
000003e0: 2920 403b c646 183d c90f 923c 6fae 913d
000003f0: bfe3 64bd f100 113d 9484 36bd b931 34bd
-0.089763716 -0.061022248 -0.009279047 -0.027304936 0.009115921 0.06997719 -0.07013831 0.024550384
0.043853067 -0.045301154 0.024165016 -0.046418145 0.03468147 -0.050755527 -0.040409464 -0.04178524
-0.025933672 -0.0762942 0.009274929 -0.03399015 0.033431675 -0.021943552 -0.07648109 -0.01273498
0.056134325 -0.0558029 -0.04130147 -0.03503385 -0.0796692 0.0757049 0.02179255 -0.09073633
0.030204125 0.0905655 0.062296037 0.005203901 0.022822157 0.09257931 0.015142033 0.058405235
-0.03251894 -0.033430643 0.028954145 0.03421538 -0.030656444 -0.038043275 0.0051131286 0.024365792
0.009861844 -0.036531366 0.021681994 0.035619814 0.06506885 0.07179907 0.03887049 -0.04013904
0.06864698 -0.100124836 0.062716104 0.004258338 -0.056936454 -0.021180283 0.033816822 -0.023207156
-0.017136293 0.022206698 -0.027463712 -0.0336494 0.052061077 -0.028272288 0.0005376705 0.023940612
0.015170355 -0.059392758 0.09788892 -0.065796815 0.052669108 0.015067638 0.041480754 0.0035487004
-0.052230258 0.027323514 0.06343673 0.042958446 0.047049366 -0.020502767 -0.010934205 0.02257794
-0.02490764 -0.045378007 -0.033959795 -0.019572394 0.009481181 -0.05234014 0.010617565 -0.0059586316
-0.030880567 0.0018802128 0.05494126 -0.032455686 0.014454708 -0.073684655 0.014827508 -0.027492747
0.04144809 -0.026885157 0.024571262 -0.027448662 0.03785692 -0.09415341 -0.062692605 0.015568951
0.030948648 -0.0499095 0.011116655 -0.06527475 -0.030864786 0.018259302 -0.06218452 -0.087824754
-0.07297328 -0.01714422 -0.009524732 0.08899196 -0.013349396 0.049074605 0.049429428 0.000860941
0.04557801 -0.04176459 0.03439164 -0.009605486 -0.030625163 0.0021712182 -0.004122234 -0.030318227
-0.01705178 -0.0636487 -0.011303596 -0.024572926 -0.04043162 -0.0027012913 0.05749747 -0.036116883
-0.09588351 0.020871345 -0.08264324 -0.028938225 -0.02827522 -0.05520861 0.03321481 -0.0688574
0.056533694 0.041372478 0.011772554 -0.0017938637 0.032609347 0.08276139 0.04613207 -0.026825741
0.06805154 -0.021041265 -0.04728827 -0.08136142 -0.036330685 0.063042805 -0.01007439 0.036413264
0.030240191 -0.07160939 -0.047055267 0.025262944 -0.037852746 0.061234035 -0.08363525 -0.03611558
0.032369383 0.013721278 0.0011718615 -0.0019390236 -0.020394012 0.007938278 0.024136415 0.009904418
0.09572473 0.01751037 -0.024160964 0.012728188 0.023019215 -0.029987214 -0.040876586 -0.05203672
0.037712175 -0.045732547 -0.06337669 -0.031892266 -0.045557987 0.0029963092 0.064575225 0.063527465
-0.08869714 -0.028172137 0.0016552851 -0.07252167 0.03302245 -0.016714608 0.022275629 -0.019579405
0.01615877 -0.08620464 -0.0606689 0.008387796 0.077638485 0.111610726 -0.011722051 0.0014288027
-0.03495186 0.02602144 0.0017071047 -0.07072479 0.034590866 0.027050437 -0.015382967 -0.007406867
-0.058999732 -0.03611385 -0.008072848 -0.023681005 -0.075664885 -0.045021947 0.03546559 0.03761662
-0.027874425 -0.0022457484 0.069428265 -0.011426937 -0.058835734 -0.01215468 -0.017844567 0.0019142291
0.03041043 0.08988613 -0.026301254 -0.0387792 0.015971739 0.01901192 0.084848695 0.07141874
0.0029316044 0.03717687 0.017829793 0.07113349 -0.055881258 0.03540129 -0.04456003 -0.04399273

network_body.linear_encoder.seq_layers.0.bias f4 [128]
00000000: 9acf 983d 795a 843d a872 64bd fd15 6b3d
00000010: 04b8 c23c 09ed c33d aa4b 2e3d 066c 393d
00000020: c5a6 813d 052c 09bd 238b 153d 8552 403d
00000030: 976a 033d 64fa b7bc 6190 863b f15a 443d
00000040: 47ff 843d 3872 313c f49e 3d3d db7e cf3c
00000050: c904 773d a18c 6bbc 0db6 1b3d bf90 2d3d
00000060: 0557 4c3c 987b 8d3d d4a6 f43c e679 063d
00000070: 5b98 8d3c e286 ab3c fcd9 8d3c c4a3 533d
00000080: 7f00 423d d201 3f3d 8a9d 06bc 131f 673d
00000090: a834 b83c d8f7 823d c8cf 2d3c a9d0 5c3d
000000a0: e9e0 513d 066d 6a3d 3b0e 98bb db92 323b
000000b0: 2fe4 a03d bc0b 213d 83ce d03c 1d44 923c
000000c0: 52ab 9a3d d0f7 02bc 1746 333d f762 5f3d
000000d0: 9c32 a63c b3a2 1f3c 6de9 b93c c12f 20bd
000000e0: 8e0c 133c dd10 bd3c 3bef 343d 98c9 493c
000000f0: 259b 323d e337 1c3d c7dc 363c 8154 a93d
00000100: f1ce 083c 5cb4 1a3d f427 483d da50 373d
00000110: 0038 763d 81ec 963d ea25 513d 9502 98bc
00000120: b67c a83c 67b3 2c3c 2041 7a3d 36f2 bf3d
00000130: 3ed6 2ebd 1319 323d e494 ad3c 7338 113d
00000140: c888 d4bc 5e6c e23a cc98 913b 4fdb ff3c
00000150: 422f 283c 699f 7d3d c8e1 d13a 3637 373c
00000160: d732 103d 5822 27bc 9f74 ac3d 93ce 533d
00000170: 6907 853c 59ea 893d 8cc2 3c3d 9a1d a5bc
00000180: 3e05 2bbc 9158 163d 847a d83c 076c 053d
00000190: 801f 183d 8c4a 0b3d 4fb9 72bc fe6b 02bd
000001a0: 5e9c 51bd 8664 0d3d c26c e83c 797e 463c
000001b0: f083 493d e046 aa3d 395c 52bd 1669 783d
000001c0: d365 abbc 4eff 73bc 31c9 333c 7063 0b3d
000001d0: 0d42 05bc 4dce a2bb d502 e5bc 3003 cd3d
000001e0: 3481 cf3d 9345 583c 8fb5 b53c 9aae 46bb
000001f0: deb4 933d 6e6c 453d fd23 2a3a db48 b4bb
0.07461472 0.06462569 -0.055773407 0.057394017 0.023769386 0.09566695 0.042552628 0.045269035
0.06330637 -0.033489246 0.036509644 0.046953697 0.032084074 -0.022458263 0.004106567 0.04793829
0.06494003 0.0108304545 0.046294168 0.025329044 0.060307298 -0.01437679 0.038015414 0.04237437
0.012471919 0.06908339 0.029864706 0.032831095 0.017284563 0.02093834 0.017315857 0.05166985
0.047363754 0.046632595 -0.008216271 0.05642612 0.022486046 0.06394929 0.010608621 0.05390993
0.05123988 0.05723288 -0.0046403683 0.0027248177 0.078560226 0.03931783 0.025489097 0.017854745
0.07552208 -0.007993653 0.043768015 0.05453774 0.020287804 0.00974338 0.022694314 -0.03910804
0.008975161 0.02307933 0.04417346 0.01231613 0.04360499 0.038139235 0.011161036 0.08268071
0.00835012 0.03776966 0.048866227 0.04475484 0.060112 0.07369328 0.05106155 -0.018555919
0.02056728 0.01054082 0.061097264 0.0937237 -0.042684786 0.043480944 0.02118916 0.035454225
-0.025944129 0.0017274728 0.0044432636 0.031232504 0.010265173 0.061919603 0.0016012723 0.011182597
0.035204735 -0.010201059 0.08420681 0.051710676 0.016238885 0.067341514 0.04608397 -0.020155717
-0.010438262 0.036705557 0.026425608 0.032573726 0.037139416 0.03400664 -0.014814689 -0.03184127
-0.051174514 0.034519695 0.028372172 0.012115114 0.04919809 0.083142996 -0.05135748 0.060647093
-0.020922577 -0.014892412 0.010973261 0.034030378 -0.0081334235 -0.0049684406 -0.027955452 0.100103736
0.101320654 0.013200182 0.0221813 -0.0030316473 0.07212232 0.04819911 0.0006490348 -0.005501849

network_body.linear_encoder.seq_layers.0.weight f4 [128, 8]
00000000: 8d11 053d 0e28 b73d 4f80 4a3b 17b4 593e
00000010: 307a 253e be72 20bf 1fc7 8e3c ae0d 22bd
00000020: a6cc 52bd 4773 643e 73b0 adbe 3873 123e
00000030: 6ab0 57be bb22 4b3f 0433 05be 30e5 273f
00000040: 8619 77bd 7db1 d63c 1ff8 b93d e1d0 00bf
00000050: 7d4e 4dbe fdb4 c7be 59fa 063e d9c5 0cbe
00000060: 4cd8 263d 40f4 143e 1947 783f 7e41 0bbe
00000070: b02d 883e 2c23 72be 88e0 053e 5e6f c43d
00000080: c4e5 11be 98fc c9be de6d 043f 6367 3ebf
00000090: ac69 3dbd 70fd 1fbf 0907 753e ff20 95bd
000000a0: 00bf 843d 4d70 d8bd b3c8 113f dcec 73be
000000b0: db9e 863e 559a f33e d66b b13e 132f 6f3d
000000c0: 23c4 73be e796 a0be da61 75be 69bf cb3e
000000d0: 24d8 07bf 48f2 9fbe e070 d8bd b346 44be
000000e0: 910e c9be a2f2 57be 9b2c ccba 6fec 46bf
000000f0: 24dd c93e b2ce 1d3d 9652 0dbf b55a 93be
00000100: af87 183f 2e49 e53e f40d f73d 2578 24bf
00000110: f657 2d3f 780f 233f c292 2fbe cd5d 9a3e
00000120: 4410 c8be b59c 2b3d 1715 323b c231 24bf
00000130: 4a30 08bf 1af7 85be 4f3a b43c 8b2d 07be
00000140: 5ded 22be 605a c9be 7565 5a3d 49bc ba3e
00000150: 427f 54be 7ae7 babe 5f3a 0f3f d2ee 413d
00000160: 2054 563d 5d6b c13d 3a4c 0a3f 1745 05bf
00000170: 56a7 da3e ccee 813e 5faa 7dbe 7bba be3e
00000180: 9b36 a2be 3a38 c9be 8227 0e3e f90f 653e
00000190: 5b07 42be 4a7f 08be 1d7d 66bf 7677 d93e
000001a0: f686 0f3e 5a86 14be 37da 823d af70 e2be
000001b0: 3e68 ebbe c8d8 37bf d6dd 203e a2a5 f6be
000001c0: d51f 013f 3f9b 0ebe 7b5a 66be 951b 58be
000001d0: fa00 f5bc 9fb2 94be 66c0 a2bd 3717 263d
000001e0: c613 5a3f 379c 8f3d 74f5 89be d80d 96be
000001f0: 0bd6 adbe 6d83 12bb b0a0 ff3e 5acf e83e
00000200: 5c14 1bbf 9a7a e63e 5a78 54bf fb2f 78be
00000210: c189 debe dd9e 5b3f 0493 b8be 761b 243e
00000220: b0d6 1bbf cc1b 613d 81c2 52bd d777 dabd
00000230: f641 513e 9622 503f aaae 51be 14e7 ba3e
00000240: a2f5 4b3e 3b1c 20bf 512e b4be 957d 063e
00000250: ecc7 2f3e 67ae 323f f4b4 b93e c3a5 423e
00000260: b44f 75bd e771 cd3e c815 89be ef05 d5bd
00000270: 79b8 653d b4ab 533e 1540 d5be 0cee c33d
00000280: 0182 a43e d3d2 ad3d 47b1 4f3e 3fd6 9d3e
00000290: 6b59 223f f3d9 42bf 2fbf da3d 5f06 b0bd
000002a0: 91c2 8b3d 1730 dabe ae69 76be f918 0d3f
000002b0: 8c76 e63c 6f65 68be b8b8 50ba e236 5a3f
000002c0: 91e3 2e3e df9b 13bf cbd8 19be 8928 103e
000002d0: dfcd a53d e337 a93d e65d 003f 1a2a 9b3e
000002e0: df77 863d d649 8f3e 33e1 febe eb03 833e
000002f0: 57ab adbe 068a ba3e 32c6 b7bd b8e7 a93d
00000300: 930a 00be 94e7 0d3d e4c0 d6be a962 aa3e
00000310: bc7b a63e 72f2 883e a60d 763e f9bc 2cbf
00000320: 9682 95be 6033 743f a3a9 b9bd 1cf0 5c3e
00000330: 51b8 0cbf c487 7dbd 5de0 d23e 9515 1cbe
00000340: 3f79 24bf e80a 1cbf 0a9f e53e 6d9d c23d
00000350: 7651 d73d b51a d3bd d796 4b3d 4a93 29bf
00000360: 681b 2b3f 9ebf afbe af18 2fbe c796 7d3e
00000370: b4d1 f4be f4b3 0bbe a037 423e 018c 353d
00000380: 3b4c 87be a3ee 3bbf 131f 4a3c e13f bf3e
00000390: 6132 78bc 278f a73e 1520 513f 42ce bbbe
000003a0: a413 54bf 1acb 003e 4f35 d23e c52e 87be
000003b0: ee69 e4be 1053 1a3e f195 1d3d 3d0e b6be
000003c0: 83b1 a53b aa2a 52bf 468b c23e b727 d0bc
000003d0: 0228 8fbe 22d6 e8bc 12ab 39be f277 cd3e
000003e0: 9d46 35bf f123 e63e d7b7 dcbd a546 993d
000003f0: 939f 29be b597 58bd 1516 44be eb98 843d
0.03248744 0.08943187 0.0030899232 0.21260105 0.16159892 -0.6267508 0.017428933 -0.039563827
-0.0514647 0.223096 -0.33923683 0.14301765 -0.2106339 0.7934987 -0.13007742 0.6558409
-0.060327075 0.02620768 0.090805285 -0.50318724 -0.20049472 -0.3900527 0.13181438 -0.13747348
0.04073362 0.14546299 0.96983486 -0.13599202 0.26597357 -0.2364623 0.13073933 0.09591554
-0.14247805 -0.39450526 0.51730144 -0.74376506 -0.046243355 -0.6249609 0.23928465 -0.07281684
0.06481743 -0.10568295 0.5694687 -0.23820823 0.26293072 0.47578683 0.34652585 0.058394503
-0.23805289 -0.3136513 -0.23963109 0.39794472 -0.5306418 -0.31239533 -0.10568404 -0.19167595
-0.39268926 -0.21088651 -0.0015577258 -0.7770452 0.3942653 0.038527198 -0.5520414 -0.2878014
0.59582037 0.44782394 0.12063208 -0.64245826 0.6771234 0.6369548 -0.17145827 0.3014969
-0.3907491 0.041897494 0.0027173215 -0.64138424 -0.53198683 -0.26165086 0.02200046 -0.13200967
-0.1591086 -0.39326763 0.053319413 0.36471775 -0.2075167 -0.36504728 0.5594844 0.047346897
0.05232632 0.09444306 0.5402256 -0.5205855 0.42705792 0.253775 -0.24772023 0.37251648
-0.31682286 -0.3930071 0.13882259 0.22369374 -0.18948118 -0.13329807 -0.9003466 0.42473954
0.14016327 -0.14504376 0.063892774 -0.44226596 -0.45977968 -0.71815157 0.15709624 -0.48173243
0.50439197 -0.13926409 -0.22495453 -0.21104272 -0.029907692 -0.29042527 -0.07946853 0.040549483
0.8518642 0.070122175 -0.26945078 -0.29307437 -0.33952364 -0.0022356168 0.49927282 0.45470697
-0.6057794 0.45015413 -0.8299614 -0.24237053 -0.43464473 0.8578928 -0.36049664 0.160261
-0.6087446 0.05495815 -0.051455025 -0.10667389 0.20435318 0.81302774 -0.20476785 0.36504424
0.1991792 -0.62543076 -0.35191587 0.13133843 0.17166108 0.69797367 0.3627087 0.19008546
-0.059890464 0.40125963 -0.2677443 -0.10401522 0.05608413 0.20670968 -0.41650453 0.09566888
0.32130435 0.08487477 0.2028247 0.3082752 0.6341769 -0.76113814 0.106809966 -0.08594965
0.0682422 -0.42614815 -0.24063751 0.5511623 0.0281327 -0.22694944 -0.00079620956 0.85239995
0.17078997 -0.57659715 -0.15024106 0.14077963 0.080959074 0.08262613 0.5014328 0.30305558
0.06565832 0.2798602 -0.49781188 0.25588927 -0.33919784 0.3643343 -0.0897335 0.0829615
-0.12504034 0.03464468 -0.4194404 0.33278397 0.32516277 0.2674747 0.24028644 -0.6747585
-0.29201192 0.9539089 -0.09065559 0.2157597 -0.54968745 -0.061897054 0.411868 -0.15242608
-0.64247507 -0.6095414 0.448479 0.09502683 0.10513584 -0.10307828 0.0497044 -0.6624037
0.66838694 -0.3432588 -0.1709926 0.24764548 -0.4781624 -0.13642865 0.18966532 0.04432297
-0.26425347 -0.73411006 0.01233651 0.37353423 -0.01514873 0.32726404 0.8168958 -0.366808
-0.8284247 0.12577477 0.41056296 -0.2640287 -0.44612068 0.15070748 0.038473073 -0.35557738
0.0050565614 -0.8209635 0.37996882 -0.025409563 -0.2796021 -0.028422419 -0.18131664 0.40130574
-0.7081087 0.44949296 -0.10777252 0.074841775 -0.16564779 -0.052879054 -0.19149049 0.06474479

network_body.linear_encoder.seq_layers.2.bias f4 [128]
00000000: 05dc 2d3d 91dc 423c 99fb 0a3b a895 04bb
00000010: 2666 4dbb db8e 7a3d 7581 093d 6aaa 173c
00000020: 8ce5 2b3d c7c9 8d3d 449a 863b 79f9 df3b
00000030: a31b 173d 57e3 193d 730f 913d b9fd 093d
00000040: 0586 873d 2b59 183d 8010 7b3d cdf5 983c
00000050: d133 0fb9 e696 763d 4654 3d3d 4d7e 6b3d
00000060: a730 8d3d a8ae 543d 3ebc 883c 5bdf 533c
00000070: 1809 f53c 239c de3d 95f0 5b3d f65a a63d
00000080: c25b 323d d13b a83d f28d 0b3d 08dc 813d
00000090: b011 003d 9deb ae3d 1c9a f93b de0e 3c3d
000000a0: 6fed 6b3a dd4d db3c 109c 553d d7dc 02bc
000000b0: aa15 b93c f525 2a3d 2965 493d 34a7 b03b
000000c0: 607b 943c 4758 38bc 0a3c 01bb a383 cf3c
000000d0: 3936 e63c 18f8 853d 6bca 543c e3e2 463c
000000e0: 75f5 943d f6cf 283d faaf 583d 33dc 543c
000000f0: 2b5d 803d ac9c 0e3c 0bc3 123d c265 8d3b
00000100: eecd 573d d87d 9c3c b5c2 0e3d 30cb ca3c
00000110: 9659 943d 6d3b f0ba e6f2 8f3c 1068 7c3d
00000120: 5546 753d 273a 9f3c 50f8 6a3d cf22 4f3d
00000130: aaa1 d93c cb2e e33b 144e 083d 0c22 bab8
00000140: 8c15 163d 236b 913d a959 713d 9836 e53b
00000150: 2f76 863d 229e 8d3d a5e7 3cbc 771b dfbb
00000160: f170 1d3d 14a1 363d b512 4e3d bdcc 023d
00000170: 4486 023d 9e70 3f3d ee8f 3dbc f429 1ebc
00000180: bdd0 0c3d 8235 1bbc c8f0 b63d f93d d53c
00000190: f92c 4d3d 6212 913d e1a1 a73c 8bb4 5d3c
000001a0: 00ba d13c b715 9d3b 25ea 8b3d 9a7d 723c
000001b0: cac3 d93b 1624 763d 3e77 093d 85f3 74bc
000001c0: 8040 5e3c f5bc 5e3d 33c5 89bb bf80 353d
000001d0: 10aa 823c 46c0 6d3c e03f b73d bc09 603d
000001e0: 765d e23c 2ace 2c3c 1c82 f63b 5885 8f3d
000001f0: 5c77 273d e5a2 183d 7d2d 223d a319 c63c
0.042446155 0.011893407 0.0021207093 -0.0020230804 -0.0031341403 0.061171394 0.033570725 0.0092569385
0.04196696 0.069232516 0.0041077454 0.0068351594 0.03689159 0.037570324 0.07083025 0.033689234
0.06617359 0.037194412 0.061295033 0.018671894 -0.00013656846 0.0602025 0.046222948 0.057493497
0.06894045 0.051924378 0.016691323 0.01293167 0.029911563 0.108696245 0.053696234 0.08122818
0.04354454 0.08214534 0.034070916 0.06340796 0.031266868 0.085410334 0.007617248 0.045912616
0.0008999919 0.026770527 0.052150786 -0.007987223 0.022593338 0.041540105 0.04916874 0.005391026
0.018125236 -0.011251516 -0.0019719624 0.025331324 0.028102027 0.06541461 0.012987713 0.012139055
0.0727338 0.041213952 0.0529022 0.012991953 0.062677704 0.008704346 0.03583054 0.004315109
0.052686624 0.019102976 0.034853656 0.02475509 0.0724365 -0.0018328257 0.017571878 0.06162268
0.059881527 0.019436909 0.057365716 0.050570305 0.026566345 0.0069330684 0.033277586 -8.875513e-05
0.036641642 0.07100513 0.058923397 0.0069950335 0.065655105 0.06914927 -0.011529838 -0.006808694
0.038437787 0.04458721 0.05031081 0.031933535 0.031866327 0.04673826 -0.01156996 -0.009653557
0.034378756 -0.0094732065 0.08932644 0.026030527 0.050091717 0.07083584 0.020462932 0.013531814
0.025601387 0.0047938484 0.06831769 0.014800454 0.0066456543 0.060093008 0.033560984 -0.014950638
0.013565183 0.054379422 -0.004204416 0.044312235 0.015950233 0.014511174 0.0894773 0.054696783
0.027632456 0.0105472 0.0075228345 0.07007855 0.040885314 0.037264723 0.039594162 0.024182146

network_body.linear_encoder.seq_layers.2.weight f4 [128, 128]
00000000: 718e 7dbc dd29 e7ba 1a82 d9bd cf50 f83c
00000010: ecb5 02be 9d40 e43d b8e3 2db8 fb00 74bd
00000020: 71a9 b3bd fde1 2c3e 4bb8 26bd f359 d6bd
00000030: 67d5 763c 79b3 2d3d 7cc8 24be 2aa7 5c3c
00000040: f57f b13d fc59 da3d e0da a8bd 0dd7 f3bc
00000050: 53ca 16be 2ae9 e0bd 7333 03be 842c 97bd
00000060: 2fc4 91bd 030e 25bd 31cd 00be 1547 78be
00000070: f716 c93d 984e 2fbe 4655 93bd b265 debc
00000080: 59f6 89bd 453b 54be 6472 ab3d 63fa 7ebc
00000090: 6e92 55bd 0410 073d de04 10be 9bc7 0c3e
000000a0: b94a 15be ff39 063e a053 293d 2d18 31bd
000000b0: e7c2 a9bd 01f7 06bc 0635 5dbd 3919 493d
000000c0: 32ee 82bd be5f 16bc 97ba b63d 7c24 a0bd
000000d0: 3f88 ccbc 8df2 17bd 082b e33c a0f0 d9bd
000000e0: b2ec 3fbc e2b5 30be 550c 433c 88ba 1dbe
000000f0: 6e0c 6a3d 75dd 373e fa04 f4bd 91c2 5a3e
00000100: 0c9a 98bd 84f3 1b3e 7f1c 123e 1aac 2e3e
00000110: b511 1e3d b730 7d3d 1ee4 0d3d bd47 b7bd
00000120: 8cbb d1bb b561 873d e78f bbbd fb33 733d
00000130: f073 ef3d 85cd 973c c458 42bd 76de 1abd
00000140: 8fd2 503b e14c fabc 63f0 d0bb 5412 aa3c
00000150: 65b3 c4bc 59ec 413d b713 a2bc 604b dbbd
00000160: 4430 f03d 99d3 0a3d a8bf 31be de5f 9f3c
00000170: 4c8a 413e 4c66 3b3d 3b68 423c 4a3b 10bd
00000180: c1f0 963b e5b0 5b3d c35f 1fbe 339b 9f3c
00000190: 190e 933d 9c2f 00be 23a9 c23d d9dd dfbd
000001a0: 8373 c43d 3a06 ae3d 28f7 df3b 86fe 8fb8
000001b0: 6df8 6a3e 11a1 5f3d ff3f 8a3d f932 c2bd
000001c0: 97ce 5c3b abcf 6a3d 1e74 e6bb 63d3 0d3d
000001d0: 34c6 be3d a1ec 5fbd 7250 2e3d 16a5 023e
000001e0: 2fb9 483c 3b3a e2bd 046a a33d b768 de3c
000001f0: 2f67 a9bd 95be c4bb 3ca5 e63d e610 34be
00000200: a905 17bd 8173 b53d d9eb b83d deed 913d
00000210: 726b 643d ea85 3fbe f51a 293e 1cce 5cbd
00000220: 2c0d 493d d876 07bd c0a1 8a3b bf4f 8f3d
00000230: 49a4 17be 60e1 09bc 6ffe acbd e316 74bd
00000240: c343 853b 709b a73a fc6c 5e3d 3d74 6d3c
00000250: a149 34bd 7eb4 9d3d a92d a33c faa1 4b3e
00000260: 3edb 0b3e f2fc 413b e22d d0bd 513c 203e
00000270: eef6 893c 133f 26be de7d 003e fc67 553d
00000280: 5f62 bc3d 5ad9 f53d c056 9a3c 1c97 373e
00000290: 51be 883d a633 16be f39a 4dbc 8355 4dbd
000002a0: 02db 463c 7c24 d3bd 5695 f13d 4681 d23d
000002b0: 44b7 1d3c d9b5 173d 1f7b 933d d035 9a3d
000002c0: 980a b8bb 554b d9bd c58f 7ebd f6d1 9c3d
000002d0: 9abb a53d dd1e bcbc 5044 863d f38e 14bd
000002e0: c8e7 6c3d 588d 0d3e c30a d5bd 4ecd 313c
000002f0: 1c76 033c d6a6 c33d 011e 153d 2069 453d
00000300: 4940 1f3d b2e3 d83c b03f 3d3c 4c02 7abb
00000310: 1103 f03d 3e8d 2fbe 6fed 653d c167 07bc
00000320: ea94 e7bd e3f8 5e3d d362 5fbd a5e7 333d
00000330: d61b 903d debf 4e3d 88de b3bd 36d4 3abe
00000340: b927 48be b765 dfbd 9d57 c83d 47e1 ed3c
00000350: afa7 0cbd 5a21 68bd 04b0 113d 0acd 9abd
00000360: 7a03 873e 537c 40bd 10d6 8f3d 85d6 d73d
00000370: 59fa 08be 0a1c b33d 398b 2dbe 945d 333d
00000380: 8a2f 033e 00ab 893e 6e24 c0bd bf76 403d
00000390: 392c b73c 6354 23bd 7aca 55bd 6390 08be
000003a0: 876b 093d faaa b13d 7ca4 0c3d 58a7 2abd
000003b0: 05eb 39bc b355 6abd b9ef ccbd def4 45bd
000003c0: 69e1 f23b c4b4 8d3d a3af 383e fd3c b5bd
000003d0: bac2 cbbd d2d7 3a3d f727 85be fda5 8a3d
000003e0: 3719 f4bd 2e92 a5bd 2292 623d 36db a2bd
000003f0: 23d8 53be 4121 163d 9977 14bc 5a21 8ebc
-0.015475855 -0.0017636378 -0.10620518 0.03031197 -0.1276471 0.111451365 -4.1458494e-05 -0.059571248
-0.08772553 0.16883083 -0.0407031 -0.10466375 0.0150655275 0.042407487 -0.16092104 0.013467589
0.08666984 0.106616944 -0.08244872 -0.02976563 -0.14725618 -0.109819725 -0.12812595 -0.073815376
-0.07117497 -0.040296566 -0.12578274 -0.24245866 0.09818833 -0.17119825 -0.07193999 -0.027148101
-0.0673644 -0.20725735 0.08371428 -0.0155626265 -0.0521416 0.032974258 -0.14064357 0.13748018
-0.14579286 0.13108061 0.041339517 -0.043235946 -0.08289128 -0.008237601 -0.054005645 0.04909632
-0.063930884 -0.0091781 0.08922308 -0.07819459 -0.024967311 -0.03709655 0.02773048 -0.10641599
-0.011714147 -0.17256883 0.011904796 -0.15403187 0.05714076 0.17955573 -0.11915012 0.21363284
-0.07451257 0.15229613 0.14268683 0.17057839 0.038591105 0.061814036 0.034641378 -0.0894923
-0.006400531 0.06610433 -0.091583066 0.059375744 0.11692035 0.018530617 -0.047447935 -0.03780981
0.0031863784 -0.030554237 -0.0063763126 0.020760693 -0.024011323 0.04734454 -0.019784791 -0.10707736
0.11727956 0.0338932 -0.17358267 0.019454893 0.18900412 0.045751855 0.011865671 -0.035212792
0.004606337 0.053635497 -0.15563874 0.019483184 0.07180423 -0.12518162 0.095049165 -0.10930986
0.095923446 0.084972814 0.0068348832 -6.86618e-05 0.2294633 0.054596964 0.067504875 -0.094823785
0.0033692473 0.057326954 -0.007032885 0.034625422 0.09315148 -0.054669026 0.042557187 0.12758288
0.012251182 -0.11046263 0.07979205 0.027149541 -0.08271634 -0.0060041645 0.11261985 -0.17584571
-0.036870632 0.08859921 0.09029359 0.07125448 0.05576653 -0.18703428 0.1651419 -0.0539075
0.049084827 -0.033072323 0.004230708 0.06997632 -0.14808764 -0.00841555 -0.08446967 -0.05959214
0.0040669157 0.0012787413 0.054303154 0.014493045 -0.04401553 0.07700442 0.019919233 0.19886008
0.13657853 0.002960023 -0.101650015 0.15648009 0.016841378 -0.16234998 0.12548015 0.05210112
0.0919845 0.12004347 0.018840194 0.17928737 0.06676925 -0.1466814 -0.01254915 -0.05013038
0.0121371765 -0.10309693 0.11796062 0.10278563 0.009626213 0.037038658 0.07201218 0.07529795
-0.0056164972 -0.106100716 -0.062148828 0.07657234 0.08092423 -0.022963936 0.06555998 -0.03626914
0.05783823 0.1382345 -0.10402443 0.010852171 0.008023765 0.09553306 0.036405567 0.04819596
0.038879666 0.026475761 0.011550829 -0.0038148342 0.11719335 -0.17143723 0.056134637 -0.008264483
-0.113077 0.054436576 -0.054537605 0.043922085 0.07036559 0.050475948 -0.08782679 -0.18245015
-0.19546403 -0.109080724 0.09782336 0.029038085 -0.034339603 -0.05667243 0.035568252 -0.07558639
0.2636984 -0.046993565 0.07023251 0.10538963 -0.1337675 0.087455824 -0.1694764 0.043790415
0.12811103 0.26888275 -0.093819484 0.046988245 0.022359954 -0.0398754 -0.05219505 -0.13336329
0.03354981 0.08675189 0.034336552 -0.041663498 -0.011347537 -0.057210635 -0.10006661 -0.048329227
0.007412125 0.06919244 0.1803575 -0.08849523 -0.099492505 0.04561598 -0.26007053 0.06769941
-0.11918872 -0.08084522 0.055315144 -0.079519674 -0.20687918 0.036652807 -0.009061717 -0.017349888
