Assets/TFModels/SeekBehaviorWithJumpingSkill02.onnx (onnx, 76114 bytes, 9 tensors)

action_model._continuous_distribution.log_sigma f4 [1, 2]
-0.05175182 -0.07314261
00000000: b7f9 53bd cbcb 95bd

action_model._continuous_distribution.mu.bias f4 [2]
-0.0034512547 -0.009198168
00000000: 722e 62bb eab3 16bc

action_model._continuous_distribution.mu.weight f4 [2, 128]
0.008580924 0.0025736273 0.06034264 0.062052015 0.023963736 -0.11157169 0.060303584 0.0041488255
0.054014366 -0.012656621 0.08721803 0.0061465297 0.0476099 -0.050854504 -0.09087664 -0.039184473
0.02240481 0.04068298 0.021625662 0.015794436 0.025123553 -0.00072861207 -0.042502247 0.023336893
0.059184514 -0.04876054 -0.013506648 0.03735839 -0.032093126 -0.022294715 -0.00479916 -0.0072099795
-0.0046532224 0.040775366 0.054297432 -0.03341101 0.013667587 -0.022643548 -0.0310589 0.003443619
-0.066614695 0.01605455 0.01517407 0.03651729 0.004595398 -0.008864249 -0.017421944 0.07599575
-0.004767072 0.010975846 0.021621821 -0.06416914 -0.039893273 0.08551224 -0.0409014 0.03009602
0.0025663967 0.0008723503 0.05676469 -0.033841677 0.019301396 0.03346585 0.021595558 -0.033250723
0.027704952 0.06966248 0.013276171 -0.0046470324 0.07211655 0.013326628 0.005922569 -0.050160795
0.025635755 0.01998317 0.041282687 -0.0028432475 -0.015947321 0.009386739 -0.011857204 0.056322917
0.054530088 -0.051200826 0.056959122 -0.043437563 -0.07258311 0.027138578 0.02981687 0.03832011
-0.07099616 -0.0385135 0.021693602 0.04225925 -0.00853849 -0.018843701 -0.0373057 0.046790753
0.0037801545 0.0053918683 0.089368075 0.008738747 0.061158657 0.0073921946 0.055539373 -0.0042693564
-0.045091588 0.02971474 0.019886475 -0.0044459444 -0.041965347 0.027069584 -0.0237874 0.0059351986
-0.04537689 0.028365348 -0.010154356 0.06866238 -0.03224844 -0.04623424 0.03819449 -0.0076616886
-0.008075891 0.03686853 0.015700763 0.03656412 -0.07364405 0.038787983 -0.0061861444 -0.054811884
-0.019627351 -0.012248405 -0.07192982 0.055358544 -0.032804098 -0.0210429 0.04318458 0.0047423434
0.066037565 -0.022970779 0.0437677 -0.004160474 0.038298424 -0.107710525 -0.027915314 0.014754039
0.012154777 0.010485353 0.019394537 0.02313659 -0.034100533 0.0074886275 -0.009034795 0.006595953
0.06722148 0.06552565 -0.0050800745 0.04568945 0.038961865 0.054755427 -0.060579844 -0.026656888
0.029476954 -0.10494235 0.0026649693 -0.010799515 0.005180498 0.049761415 0.079986654 0.047247965
-0.017184194 -0.013435152 0.009868931 -0.06415222 -0.029590176 0.01753775 0.012929045 0.011225682
-0.018725319 0.064872384 0.032236326 -0.049310103 0.035914842 -0.06201766 -0.0082055805 -0.013121245
0.014449571 0.01984433 -0.06802653 -0.002284082 0.034097206 0.027746366 0.017041683 0.027571734
0.006833362 0.0011295951 -0.017423984 0.026959289 -0.04756787 -0.024486307 0.04640365 0.012612917
-0.0064084115 -0.01128373 0.01613777 0.058932707 0.01134642 0.010888256 -0.014221839 -0.059340343
-0.017253073 -0.07648757 0.020171033 0.02200071 -0.06468549 0.013772037 -0.022937145 -0.041281532
-0.012388551 -0.0077590365 -0.030772163 0.0029305553 0.01235694 -0.023345448 -0.050194286 0.010459142
0.03277595 0.046817187 -0.08469767 0.019233251 -0.1134995 0.008701776 -0.083366305 0.06952538
-0.026715666 0.0235628 0.016286783 0.017831322 0.007825849 -0.013355204 0.005966599 0.007036973
0.0058267936 0.004613287 0.016732419 -0.08277416 0.03279967 -0.095235996 -0.087708145 0.020200755
0.015050942 0.03295978 0.031832352 0.011266755 -0.046005394 -0.022539929 -0.004503651 -0.026480248
00000000: 0197 0c3c 4daa 283b d829 773d 412a 7e3d
00000010: 994f c43c b37f e4bd e400 773d dff2 873b
00000020: 2b3e 5d3d b75d 4fbc 5e9f b23d d468 c93b
00000030: 9902 433d d04c 50bd 881d babd e67f 20bd
00000040: 4b8a b73c 32a3 263d 4d28 b13c 5563 813c
00000050: e9cf cd3c 5400 3fba d616 2ebd 032d bf3c
00000060: 766b 723d 22b9 47bd fd4a 5dbc 1c05 193d
00000070: 1574 03bd 68a3 b6bc 4642 9dbb b141 ecbb
00000080: 0f7a 98bb 1204 273d fc66 5e3d fcd9 08bd
00000090: 04ee 5f3c f67e b9bc 3c6f febc 57ae 613b
000000a0: 496d 88bd d584 833c aa9c 783c 2793 153d
000000b0: fe94 963b 5b3b 11bc 77b8 8ebc a9a3 9b3d
000000c0: 1935 9cbb 09d4 333c 3f20 b13c 1c6b 83bd
000000d0: 2167 23bd 0b21 af3d 3a88 27bd ee8b f63c
000000e0: fe30 283b 70ae 643a 1782 683d 929d 0abd
000000f0: f61d 9e3c 7d13 093d 2be9 b03c e931 08bd
00000100: 7ff5 e23c 34ab 8e3d 4c84 593c 2246 98bb
00000110: d7b1 933d ee57 5a3c 1c12 c23b 6875 4dbd
00000120: 1302 d23c bfb3 a33c 0918 293d c755 3abb
00000130: f5a3 82bc d6ca 193c b844 42bc dcb2 663d
00000140: f15a 5f3d f5b7 51bd f84d 693d 96eb 31bd
00000150: 74a6 94bd b951 de3c 8242 f43c 8cf5 1c3d
00000160: 6f66 91bd 55c0 1dbd c8b6 b13c 0918 2d3d
00000170: 06e5 0bbc 1b5e 9abc ddcd 18bd a9a7 3f3d
00000180: 78bc 773b 45ae b03b 9c06 b73d f62c 0f3c
00000190: 8081 7a3d 393a f23b 417d 633d f5e5 8bbb
000001a0: f5b1 38bd 546c f33c f6e8 a23c 49af 91bb
000001b0: dbe3 2bbd 08c1 dd3c cbdd c2bc 0e7c c23b
000001c0: 1edd 39bd 725e e83c 755e 26bc dd9e 8c3d
000001d0: f116 04bd 1d60 3dbd d371 1c3d e70e fbbb
000001e0: be50 04bc 7503 173d e39e 803c 42c4 153d
000001f0: b1d2 96bd 26e0 1e3d 24b5 cabb 6d82 60bd
00000200: 8ac9 a0bc 89ad 48bc f14f 93bd a4bf 623d
00000210: 975d 06bd 2962 acbc 50e2 303d a965 9b3b
00000220: b43e 873d 372d bcbc c345 333d 9654 88bb
00000230: cfde 1c3d 5697 dcbd a8ae e4bc edba 713c
00000240: d424 473c c2ca 2b3c 4be1 9e3c f288 bd3c
00000250: 00ad 0bbd 2963 f53b ad06 14bc dd22 d83b
00000260: 6aab 893d 5032 863d c176 a6bb dc24 3b3d
00000270: 7a96 1f3d 3a47 603d 9222 78bd 8c5f dabc
00000280: a779 f13c 04ec d6bd c4a6 2e3b 73f0 30bc
00000290: 2bc1 a93b a0d2 4b3d 0bd0 a33d 1587 413d
000002a0: dec5 8cbc 1d1f 5cbc 4cb1 213c 3d62 83bd
000002b0: 1967 f2bc 54ab 8f3c 58d4 533c eceb 373c
000002c0: d765 99bc d0db 843d 3d0a 043d 64f9 49bd
000002d0: 711b 133d 3b06 7ebd b370 06bc 7efa 56bc
000002e0: e5bd 6c3c 9490 a23c 7e51 8bbd 89b0 15bb
000002f0: 83a9 0b3d 594c e33c 009b 8b3c 1ede e13c
00000300: 65ea df3b ec0e 943a bebc 8ebc bad9 dc3c
00000310: 87d6 42bd 8297 c8bc c111 3e3d 69a6 4e3c
00000320: a7fd d1bb 65df 38bc 5b33 843c 6c63 713d
00000330: 56e6 393c a864 323c b702 69bc dc0e 73bd
00000340: 5156 8dbc 84a5 9cbd b93d a53c d53a b43c
00000350: d479 84bd 1ca4 613c aee6 bbbc d316 29bd
00000360: 59f9 4abc 843f febb e715 fcbc 8f0e 403b
00000370: c374 4a3c f43e bfbc 8698 4dbd d25c 2b3c
00000380: 1340 063d 61c3 3f3d f975 adbd 0d8f 9d3c
00000390: 6d72 e8bd e591 0e3c f4bb aabd 5363 8e3d
000003a0: d0da dabc c606 c13c dc6b 853c fe12 923c
000003b0: fd37 003c c9cf 5abc 7683 c33b 6896 e63b
000003c0: b0ee be3b 0e2b 973b 6d12 893c 8085 a9bd
000003d0: f258 063d 170b c3bd 54a0 b3bd 0e7c a53c
000003e0: 3a98 763c d600 073d a462 023d 3298 383c
000003f0: 2770 3cbd a8a5 b8bc 5d93 93bb 1bed d8bc

action_model._discrete_distribution.branches.0.bias f4 [2]
0.03955332 -0.03955332
00000000: a902 223d a902 22bd

action_model._discrete_distribution.branches.0.weight f4 [2, 128]
0.014947965 -0.0043722903 0.009690797 -0.0066311397 -0.05188417 0.022940915 0.042484522 0.015893668
-0.0077277003 -0.015040168 -0.009346252 -0.0060403678 -0.001754292 0.054365706 0.004811312 0.024216514
-0.0006581883 0.0010763578 -0.011507828 -0.021753386 -0.035893347 0.003906282 0.019440921 0.031553738
0.00014256343 0.03319508 0.012053511 0.0072417227 0.015502214 -0.005133758 -0.014984203 -0.00928896
-0.0019766828 -0.016917191 0.0042523616 0.005730648 -0.0051543564 0.028226117 0.079122126 0.058153767
0.054700006 0.024911238 -0.013366473 0.048029806 -0.0008701688 0.015558956 0.00093827944 0.045720927
0.0015818238 0.051436372 -0.011381286 0.02144649 0.063751124 -0.0033471193 0.0049175923 0.010182991
0.0031637878 0.00013742413 0.06306696 -0.02774985 0.009289433 0.010935421 0.007916196 0.015360184
0.010905467 0.041523475 -0.006293418 -0.0043709436 -0.023634858 -0.0016996689 0.020063147 -0.008911746
-0.020404346 -0.017862996 0.046210244 0.050220814 0.009378211 0.00012895965 0.012877883 0.00020702793
-0.040420573 0.0109901 0.013739132 0.0063871494 0.03461179 0.067105055 0.009036405 0.0055136355
0.047857434 0.002684714 0.0009964209 -0.03178666 0.0033227424 -0.00073120056 -0.0010224644 0.0036991949
0.027561205 0.012981287 -0.009468898 0.011076674 0.011285962 0.0062221475 -0.019391363 0.010269332
0.056499075 -0.024243094 -0.0062825596 0.008285695 0.022283588 0.019394318 -0.00027191665 0.0069039753
0.0423862 -0.0075775604 -0.021497326 -0.023498278 -0.005106655 -0.0021932714 0.043486048 -0.008387301
-0.01777403 0.011963618 0.014527104 0.002785746 0.067225374 -0.017538706 -0.00033824475 0.021296347
-0.0065442817 0.0051740054 0.01066116 0.0010808789 0.031932652 -0.025637632 -0.033164833 -0.011595611
-0.01071045 -0.010272899 -0.0053525954 -0.00796094 -0.009127775 -0.06397243 -0.02135538 -0.013399363
-0.013504824 0.0050428277 -0.004969582 0.0177264 0.04139847 0.008060658 -0.019236611 -0.021765554
0.0035958472 -0.02527485 -0.015969187 -0.005552531 -0.016408358 0.006047105 0.029467313 0.00366953
-0.0031613896 0.03832061 0.0043075643 0.0022798222 0.024231514 -0.020126453 -0.08222748 -0.070778646
-0.024603559 -0.0018456924 0.0077368845 -0.04811436 0.0016885885 -0.00014368503 -0.00089966954 -0.042986438
-0.017425178 -0.042617466 0.02298387 -0.031072415 -0.06809991 -0.008404399 -0.0035716824 -0.01984672
-0.01627294 0.0035028732 -0.063881375 0.03924454 -0.022838904 -0.019312726 -0.013567197 0.003057821
0.007344899 -0.054118622 0.0017369634 0.011386225 0.01959779 0.0073442035 -0.033832103 0.0045569926
0.010390696 0.021582905 -0.049996596 -0.04262275 -0.008824625 0.008982093 -0.0061135935 -0.00611198
0.04548978 -0.016793104 -0.0030713663 -0.02713462 -0.024669662 -0.051154505 -0.013105165 0.0064813616
-0.07034667 -0.011306489 -0.0092982175 0.0069800247 -0.012452571 -0.01519153 -0.00042675677 -0.0060360855
-0.021353554 0.003937718 -0.009645773 -0.00316768 0.00063583115 0.0065554893 0.01637933 0.0050504585
-0.06991338 0.02581485 -0.0009245284 -0.007573638 0.004833967 -0.014626344 0.0015750229 0.017666876
-0.030150244 -0.0068006953 0.020661587 0.008450924 -0.0045562987 -0.019518483 -0.046503186 0.00761228
0.0051124357 -0.001718437 -0.020554291 0.0016437105 -0.05743669 0.008899177 0.00089294347 -0.012642314
00000000: 4fe8 743c 6e45 8fbb 26c6 1e3c 084a d9bb
00000010: 7f84 54bd 96ee bb3c 4004 2e3d 7033 823c
00000020: a638 fdbb 096b 76bc 0621 19bc 47ee c5bb
00000030: 46f0 e5ba 93ae 5e3d 36a8 9d3b b661 c63c
00000040: 458a 2cba 9314 8d3a 548b 3cbc 2834 b2bc
00000050: e704 13bd 4500 803b 9142 9f3c 7e3e 013d
00000060: 147d 1539 90f7 073d 177c 453c f94b ed3b
00000070: 00fd 7d3c 1539 a8bb 4d80 75bc b930 18bc
00000080: 3c8b 01bb ec95 8abc 6557 8b3b 29c8 bb3b
00000090: e0e5 a8bb 753a e73c c80a a23d a532 6e3d
000000a0: 1d0d 603d a712 cc3c 0dff 5abc e7ba 443d
000000b0: 0a1c 64ba feea 7e3c def6 753a de45 3b3d
000000c0: 3355 cf3a f2ae 523d 9378 3abc 8db0 af3c
000000d0: f38f 823d 585b 5bbb c123 a13b 8fd6 263c
000000e0: 8d57 4f3b 8219 1039 4029 813d a753 e3bc
000000f0: b532 183c 7b2a 333c efb2 013c 48a9 7b3c
00000100: d8ac 323c 8514 2a3d 0439 cebb 223a 8fbb
00000110: e49d c1bc 6dc7 deba 785b a43c 9202 12bc
00000120: 0427 a7bc 6b55 92bc f446 3d3d 57b4 4d3d
00000130: 11a7 193c 5839 0739 c2fd 523c a315 5939
00000140: 0b90 25bd d20f 343c 191a 613c 4b4b d13b
00000150: 18c5 0d3d 606e 893d 6e0d 143c baab b43b
00000160: 2806 443d 07f2 2f3b 569a 823a bb32 02bd
00000170: 5ec2 593b 0aae 3fba 3604 86ba 316e 723b
00000180: 09c8 e13c 77af 543c 7023 1bbc f07a 353c
00000190: c1e8 383c 28e3 cb3b a3da 9ebc b340 283c
000001a0: 936b 673d 7499 c6bc eedd cdbb b9c0 073c
000001b0: 128c b63c d5e0 9e3c 0990 8eb9 be3a e23b
000001c0: 279d 2d3d 2f4d f8bb 291b b0bc 767f c0bc
000001d0: ba55 a7bb fdbc 0fbb 6d1e 323d e46a 09bc
000001e0: d89a 91bc 0d03 443c 1703 6e3c 1091 363b
000001f0: 75ad 893d 55ad 8fbc 7156 b1b9 ad75 ae3c
00000200: 6a71 d6bb b48a a93b 25ac 2e3c 47ac 8d3a
00000210: d0cb 023d 0306 d2bc d9d7 07bd 85fb 3dbc
00000220: e27a 2fbc a94f 28bc d364 afbb 9a6e 02bc
00000230: aa8c 15bc fa03 83bd 7af1 aebc 0089 5bbc
00000240: 5643 5dbc 4e3e a53b e0d7 a2bb f536 913c
00000250: 7191 293d da10 043c 1996 9dbc ad4d b2bc
00000260: 4ea8 6b3b 340d cfbc d0d1 82bc 02f2 b5bb
00000270: d26a 86bc cb26 c63b 6f65 f13c 7f7c 703b
00000280: 512f 4fbb 12f6 1c3d 7826 8d3b 1269 153b
00000290: 2b81 c63c 3be0 a4bc e266 a8bd 65f4 90bd
000002a0: 678d c9bc 29eb f1ba b185 fd3b 9013 45bd
000002b0: a153 dd3a 28aa 16b9 cdd7 6bba 8c12 30bd
000002c0: 3fbf 8ebc a78f 2ebd ab48 bc3c 948b febc
000002d0: f777 8bbd 9bb2 09bc e312 6abb 9795 a2bc
000002e0: d44e 85bc 7690 653b 3dd4 82bd e2be 203d
000002f0: a718 bbbc b935 9ebc f348 5ebc b965 483b
00000300: 7aad f03b 7dab 5dbd d2aa e33a 4a8d 3a3c
00000310: 8b8b a03c a5a7 f03b 8893 0abd d352 953b
00000320: bd3d 2a3c a2ce b03c 3bc9 4cbd 3195 2ebd
00000330: 2995 10bc a129 133c 8a54 c8bb 0147 c8bb
00000340: 7e53 3a3d b191 89bc fa48 49bb 6c49 debc
00000350: 0818 cabc 6387 51bd 0cb7 56bc 9a61 d43b
00000360: ea11 90bd da3e 39bc 8d57 18bc b1b8 e43b
00000370: de05 4cbc e5e5 78bc 53be dfb9 5bca c5bb
00000380: a6ed aebc f907 813b 4e09 1ebc da98 4fbb
00000390: e8ad 263a 6ecf d63b f22d 863c 517e a53b
000003a0: bf2e 8fbd aa79 d33c 0d5c 72ba 482c f8bb
000003b0: 4166 9e3b 55a3 6fbc 0071 ce3a 20ba 903c
000003c0: a5fd f6bc 5ed8 debb 7d42 a93c bf75 0a3c
000003d0: 014d 95bb 3ae5 9fbc 207a 3ebd 6f70 f93b
000003e0: 3886 a73b 2d3d e1ba 7961 a8bc c671 d73a
000003f0: bc42 6bbd dbcd 113c 6c14 6a3a b521 4fbc

network_body.linear_encoder.seq_layers.0.bias f4 [128]
-0.0074316673 0.0018304872 0.023476053 0.0674449 0.039345182 0.09420956 0.05665275 -0.027498763
0.04589824 -0.056268398 0.011725203 0.00206961 0.078058995 0.06662139 0.059465904 -0.0068221474
0.07473347 0.05156886 -0.013455304 0.04238309 0.09685358 0.05955476 -0.013312418 0.044444542
0.047358815 0.0028477598 0.06856487 0.010481112 -0.022936827 0.047536526 0.0693388 0.0144690275
0.05596305 0.020129284 -0.051198628 0.105793305 0.054994173 -0.05619195 -0.037971735 0.04988819
-0.0072923843 0.053054336 0.026049277 0.07073284 0.031882282 -0.052020393 0.032797735 0.016756361
0.06632349 -0.046020776 0.023567438 -0.037095863 0.013825045 -0.019092526 0.03571166 0.05277431
-0.04585932 -0.0068431357 0.082412906 0.04706056 0.036057938 0.018125145 -0.026639283 0.051931854
-0.048221223 0.023012446 0.08503507 0.085126154 0.068640344 -0.009652831 0.033457972 0.09429171
-0.022828 0.0944174 -0.00017123524 -0.028081134 0.083416104 -0.014008833 0.051840335 -0.028956426
0.06557965 0.05036425 0.018491758 0.03768102 0.0036782979 0.038791154 -0.031700972 0.012251969
0.053563815 -0.00069521344 0.0050727352 0.01752104 0.019201962 0.092523836 0.023177223 -0.0026378017
0.0830623 0.072955795 0.0010221862 0.077723876 0.021001255 -0.019721193 0.042969394 0.043514162
0.03569149 0.068829164 -0.0022115724 0.08002693 0.015155378 -0.043739863 0.06432568 -0.06837509
0.0337733 0.069731854 0.08913949 0.04519946 0.043502457 0.026443502 0.002067351 0.029445289
-0.04132478 0.078158945 0.0683856 -0.008703015 0.082453646 -0.008852312 -0.019861352 0.019423287
00000000: 5885 f3bb f5ec ef3a da50 c03c 8d20 8a3d
00000010: 6a28 213d f1f0 c03d b70c 683d 1645 e1bc
00000020: cbff 3b3d b179 66bd 111b 403c 4ba2 073b
00000030: 65dd 9f3d cc70 883d 8592 733d 528c dfbb
00000040: dd0d 993d de39 533d a373 5cbc e499 2d3d
00000050: 2b5b c63d b1ef 733d 541c 5abc 7b0b 363d
00000060: 51fb 413d 7ba1 3a3b bd6b 8c3d f8b8 2b3c
00000070: 03e6 bbbc a9b5 423d 8001 8e3d 800f 6d3c
00000080: 8339 653d 2be6 a43c a7b5 51bd 29aa d83d
00000090: 9241 613d 8829 66bd 4088 1bbd 8f57 4c3d
000000a0: f4f4 eebb 814f 593d 4b65 d53c 61dc 903d
000000b0: ff96 023d 5613 55bd eb56 063d a344 893c
000000c0: 9cd4 873d 4880 3cbd 8010 c13c d5f1 17bd
000000d0: 7182 623c ee67 9cbc 6446 123d e029 583d
000000e0: fbd6 3bbd 623c e0bb 19c8 a83d 93c2 403d
000000f0: 7db1 133d 2f7b 943c a03a dabc 7fb6 543d
00000100: 9e83 45bd 9984 bc3c de26 ae3d 9f56 ae3d
00000110: 4f93 8c3d e826 1ebc 3a0b 093d 031c c13d
00000120: c901 bbbc e95d c13d 9c8d 33b9 680a e6bc
00000130: 10d6 aa3d 4e85 65bc 8856 543d 0736 edbc
00000140: a04e 863d be4a 4e3d 077c 973c 6a57 1a3d
00000150: 990f 713b 79e3 1e3d e1d8 01bd 7cbc 483c
00000160: bb65 5b3d fc3e 36ba 3039 a63b 4988 8f3c
00000170: 6f4d 9d3c 237d bd3d 29de bd3c f8de 2cbb
00000180: 911c aa3d d969 953d e1fa 853a b22d 9f3d
00000190: d30a ac3c 578e a1bc ad00 303d e83b 323d
000001a0: 3d31 123d 4ef6 8c3d 07f0 10bb 29e5 a33d
000001b0: 434e 783c 9228 33bd 2fbd 833d 3d08 8cbd
000001c0: df55 0a3d 93cf 8e3d c48e b63d 1223 393d
000001d0: a22f 323d 0ba0 d83c 657c 073b 3f37 f13c
000001e0: 2c44 29bd cc11 a03d c00d 8c3d 1797 0ebc
000001f0: 75dd a83d 4a09 11bc 46b4 a2bc 961d 9f3c

network_body.linear_encoder.seq_layers.0.weight f4 [128, 9]
-0.47358036 -0.4229376 0.17540075 -0.11252967 -0.6076066 0.18139271 0.17605263 0.43371883
0.11247979 -0.13274175 -0.20142433 0.30978784 0.01859661 -0.67348003 -0.30526638 -0.38447708
0.34758547 -0.38371614 -0.20232888 -0.5085498 0.09300562 0.10638104 0.31890547 -0.52719253
-0.03135008 0.028014343 -0.5689838 -0.12574235 -0.19496143 0.21766917 -0.17970401 -0.3981459
-0.60201013 -0.5621737 0.31325063 0.34589165 0.07466983 0.20477791 0.13898298 -0.055618737
-0.2886338 -0.12501685 0.017494688 -0.030082181 -0.7296653 0.066324495 -0.11292419 -0.51447153
-0.12010748 0.2662113 0.05814663 -0.5906491 0.20463684 -0.14156455 -0.33064494 -0.912052
-0.67317694 -0.08883076 0.17504036 -0.7283953 -0.5245026 0.09470966 0.02637082 -0.33018863
-0.0018018016 0.8310566 0.17572087 0.25398108 -0.04282769 0.42364722 0.085749924 0.41317683
0.44893697 0.031532466 0.5486999 -0.36733827 0.011990358 0.12199033 0.16889168 -0.22226907
0.3111224 -0.059937257 -0.4608099 -0.30424115 -0.10061803 -0.6863352 0.5639455 -0.50543517
0.47876683 0.7725083 0.30682796 -0.5766946 0.22655542 0.8024707 0.060406063 0.10485995
0.48340526 0.23953141 0.19868354 0.43709564 -0.28624496 0.48892552 -0.26879683 0.009895161
0.6278554 0.21891518 -0.37409484 0.34244946 0.102895014 0.46393326 -0.20777705 0.3451039
-0.3320991 -0.09333901 0.5610925 -0.00933305 0.24620132 0.6614663 0.11046356 -0.22767904
0.31267977 0.3209042 0.11881539 0.0139145525 0.005304754 -0.1993946 -0.2792681 -0.13622774
-0.014935912 0.33441374 0.13446876 -0.19684058 0.14124916 -0.28326324 -0.5888588 -0.24359703
-0.100327715 -0.1700206 0.26116565 -0.13815294 0.37346214 -0.30348548 0.27689332 -0.27825633
0.14799902 -0.0646037 -0.16074036 -0.67649144 0.28089032 -0.1622864 0.110457435 -0.3122716
-0.37289867 -0.38687629 -0.083398625 0.75270003 -0.07637407 0.5323429 -0.39122877 -0.44354135
-0.2643881 0.031992473 0.10984937 0.013320871 0.17057386 0.0095312 0.028891522 -0.22204481
0.15169309 -0.18075593 -0.67045933 0.19196862 0.109508105 0.00037010305 0.2646722 -0.68436885
0.08947584 1.0035565 -0.16420908 0.1891844 -0.62957865 0.12527072 0.03167851 0.0762548
-0.20533846 -0.69504595 0.33611423 0.009307029 -0.12730634 -0.012976524 0.09810819 -0.049575966
0.3675143 0.19502088 -0.03149443 0.3530915 -0.26789597 -0.0110822 -0.5301236 -0.26553166
0.60676795 -0.24139372 -0.35691112 -0.1555755 0.5189443 0.57460105 0.15478408 0.0923092
0.45098922 -0.08967512 0.06950152 0.4310544 0.38338512 0.433218 0.05804564 0.016768025
0.6076527 0.34642208 0.12403798 0.27088004 0.7018631 -0.06372711 -0.57516587 -0.32186878
0.13528086 -0.1232041 0.29953519 -0.17306075 0.21208125 -0.60364056 -0.1535187 0.0018607673
-0.20901513 0.10396982 0.3716513 -0.4169618 0.28533712 -0.5669614 0.52712464 -0.65171516
-0.0033718331 -0.43197846 0.19833916 -0.059752572 -0.1865468 0.039835755 -0.28450483 -0.62434167
0.07152976 -0.602091 -0.04092683 0.2796254 -0.38812926 -0.28321376 -0.55749786 -0.07979501
00000000: 2079 f2be 478b d8be 419c 333e f575 e6bd
00000010: 1b8c 1bbf 03bf 393e 2447 343e 6510 de3e
00000020: ce5b e63d 74ed 07be 2e42 4ebe 839c 9e3e
00000030: eb57 983c 3069 2cbf e04b 9cbe 2eda c4be
00000040: b9f6 b13e 7176 c4be 4d2f 4fbe 5230 02bf
00000050: bb79 be3d 4dde d93d 9447 a33e 17f6 06bf
00000060: f168 00bd 567e e53c eca8 11bf 9ac2 00be
00000070: f8a3 47be abe4 5e3e 5404 38be c8d9 cbbe
00000080: 561d 1abf 9eea 0fbf 6362 a03e b618 b13e
00000090: 7fec 983d 4db1 513e 8e51 0e3e 79d0 63bd
000000a0: cfc7 93be 6b04 00be 0551 8f3c e86e f6bc
000000b0: 58cb 3abf 23d5 873d cc44 e7bd 68b4 03bf
000000c0: e9fa f5bd d94c 883e 292b 6e3d c834 17bf
000000d0: 528c 513e 4cf6 10be 4b4a a9be 3d7c 69bf
000000e0: 5355 2cbf e7ec b5bd c83d 333e 1d78 3abf
000000f0: cd45 06bf 23f7 c13d 9e07 d83c 7c0e a9be
00000100: 6e2a ecba 20c0 543f 2cf0 333e cf09 823e
00000110: 166c 2fbd 4ae8 d83e a89d af3d ea8b d33e
00000120: 11db e53e 3028 013d 9977 0c3f c313 bcbe
00000130: 3573 443c 11d6 f93d f1f1 2c3e 819a 63be
00000140: 6f4b 9f3e c580 75bd 46ef ebbe 7fc5 9bbe
00000150: d310 cebd aab3 2fbf bb5e 103f 3364 01bf
00000160: ed20 f53e 1bc3 453f 8e18 9d3e 42a2 13bf
00000170: 25fe 673e b86e 4d3f 596c 773d d0c0 d63d
00000180: e580 f73e b947 753e b373 4b3e 00cb df3e
00000190: b38e 92be 7254 fa3e bd9f 89be 501f 223c
000001a0: 22bb 203f 4d2b 603e 5c89 bfbe 8955 af3e
000001b0: 9fba d23d a988 ed3e 82c3 54be 75b1 b03e
000001c0: e508 aabe 8628 bfbd c2a3 0f3f a6e9 18bc
000001d0: 331c 7c3e db55 293f b83a e23d b224 69be
000001e0: 9017 a03e 8e4d a43e 7c55 f33d ddf9 633c
000001f0: 80d3 ad3b 192e 4cbe 3afc 8ebe 497f 0bbe
00000200: c1b5 74bc 4738 ab3e 2eb2 093e 9490 49be
00000210: 9fa3 103e e107 91be 73bf 16bf 8071 79be
00000220: 9e78 cdbd e119 2ebe 81b7 853e f777 0dbe
00000230: 6e36 bf3e 7362 9bbe f6c4 8d3e 9d77 8ebe
00000240: 0e8d 173e f24e 84bd 1f99 24be 8b2e 2dbf
00000250: dbd0 8f3e 682e 26be 8237 e23d 10e2 9fbe
00000260: 93ec bebe a614 c6be e6cc aabd f3b0 403f
00000270: 026a 9cbd a047 083f 234f c8be da17 e3be
00000280: e15d 87be 8a0a 033d b5f8 e03d c83f 5a3c
00000290: eaaa 2e3e c028 1c3c eaad ec3c b75f 63be
000002a0: 6f55 1b3e 1518 39be 39a3 2bbf 6c93 443e
000002b0: c945 e03d 640a c239 1d83 873e cc32 2fbf
000002c0: 1c3f b73d 8a74 803f 6d26 28be 8eb9 413e
000002d0: 112c 21bf f846 003e 53c1 013d 7a2b 9c3d
000002e0: 3f44 52be 88ee 31bf 2a17 ac3e 827c 183c
000002f0: 985c 02be 7d9b 54bc f2ec c83d 2b10 4bbd
00000300: d62a bc3e 8eb3 473e 4e00 01bd 69c8 b43e
00000310: a929 89be 1e92 35bc 2eb6 07bf c4f3 87be
00000320: 2555 1b3f ea2f 77be 0ebd b6be 2f4f 1fbe
00000330: 89d9 043f 0e19 133f b87f 1e3e 9b0c bd3d
00000340: 0fe8 e63e 97a7 b7bd d056 8e3d 2ab3 dc3e
00000350: 0e4b c43e c0ce dd3e 44c1 6d3d 195d 893c
00000360: 218f 1b3f 3c5e b13e a007 fe3d cab0 8a3e
00000370: 4dad 333f 5c83 82bd 123e 13bf fccb a4be
00000380: 1187 0a3e 6e52 fcbd ad5c 993e d636 31be
00000390: d42b 593e 3088 1abf 0234 1dbe fde4 f33a
000003a0: 1008 56be 21ee d43d 1449 be3e 047c d5be
000003b0: b517 923e 6224 11bf a4f1 063f ced6 26bf
000003c0: f9f9 5cbb 482c ddbe 6c19 4b3e 1dbf 74bd
000003d0: 2006 3fbe d12a 233d 9eaa 91be dbd4 1fbf
000003e0: 327e 923d a322 1abf e4a2 27bd 0f2b 8f3e
000003f0: e1b8 c6be 6501 91be 2eb8 0ebf 916b a3bd

network_body.linear_encoder.seq_layers.2.bias f4 [128]
0.015296464 0.004118378 0.07567131 0.0041546198 0.019585038 0.06012287 0.04418014 0.022937246
0.028317092 0.0011960918 0.05505815 0.007871043 0.017951313 0.11559514 0.045467798 0.03149551
-0.005240943 0.007845163 0.010873584 -0.013435214 0.05130815 -0.01433475 0.032360587 0.030111745
0.017655725 0.034031786 0.042356003 0.026698261 0.0064618406 0.030782763 0.032324567 0.005826336
0.0051051974 0.0980353 0.020708218 0.023477992 0.0102541 0.021709304 0.05658742 0.067642696
0.04455986 0.019600078 -0.020819291 0.11734491 0.040972237 0.018883608 -0.00642957 0.06404063
0.0384574 0.054417573 -0.018064024 0.062049467 0.06617733 0.07622777 0.027706403 0.020358687
0.0041462714 -0.01968634 0.0650728 -0.016595693 0.007011422 0.027598508 0.012541235 0.013691584
0.016186856 0.069951706 -3.3379285e-05 -0.0074730297 0.07741623 0.0338634 0.037748147 0.008323237
0.008677624 -0.011078422 0.041886654 0.030148515 0.01844875 -0.004246236 0.023947405 0.072354026
0.041069873 0.045493837 0.027955566 0.015983796 0.066848636 0.023730034 0.023642814 0.072287865
0.08502244 0.020652214 0.01116403 0.0414963 0.003990881 0.01844303 0.040878683 0.010438004
0.014408077 0.014151453 0.084051214 -0.0074771354 0.08685835 -0.008445764 0.08702498 0.03828416
0.097216316 -0.0030810537 0.009795871 -0.003107743 0.020454017 -0.0013437461 0.013030911 -0.016792726
0.032427654 0.0071649784 -0.01751356 0.081025355 0.006243707 0.08327731 0.09052516 -0.02821403
-0.025489153 0.0176039 0.011174007 0.017681157 0.09396428 0.035548594 0.012442499 0.0546454
00000000: 059e 7a3c 75f3 863b 8ff9 9a3d 7a23 883b
00000010: cd70 a03c 6643 763d 3cf6 343d e4e6 bb3c
00000020: 3ff9 e73c 2ec6 9c3a a884 613d 8cf5 003c
00000030: a20e 933c 25bd ec3d 713c 3a3d 7001 013d
00000040: 37bc abbb 0089 003c 1e27 323c 5f1f 5cbc
00000050: 7f28 523d 4ddc 6abc 898c 043d e8ac f63c
00000060: bda2 903c ea64 0b3d 7d7d 2d3d 50b6 da3c
00000070: d9bd d33b 222c fc3c c466 043d d9ea be3b
00000080: 8049 a73b bbc6 c83d 48a4 a93c eb54 c03c
00000090: d000 283c b6d7 b13c 36c8 673d 4188 8a3d
000000a0: 6684 363d 5890 a03c 388d aabc 8752 f03d
000000b0: 81d2 273d ccb1 9a3c 24af d2bb bc27 833d
000000c0: 8285 1d3d f6e4 5e3d 01fb 93bc 9527 7e3d
000000d0: fb87 873d 4e1d 9c3d 8af8 e23c 43c7 a63c
000000e0: 72dd 873b 3f45 a1bc e344 853d b1f3 87bc
000000f0: 12c0 e53b 4416 e23c c179 4d3c aa52 603c
00000100: 4c9a 843c d742 8f3d bc00 0cb8 51e0 f4bb
00000110: 678c 9e3d 59b4 0a3d cd9d 1a3d 305e 083c
00000120: 982c 0e3c 4582 35bc 5791 2b3d 05fa f63c
00000130: d521 973c 0224 8bbb 592d c43c 592e 943d
00000140: e238 283d bf57 3a3d 1203 e53c 73f0 823c
00000150: f0e7 883d 7d65 c23c 93ae c13c a90b 943d
00000160: 3f20 ae3d d52e a93c 56e9 363c 06f8 293d
00000170: f0c5 823b d615 973c 6870 273d 2904 2b3c
00000180: db0f 6c3c 7fdb 673c 0b23 ac3d c202 f5bb
00000190: cae2 b13d 1a60 0abc 273a b23d dacf 1c3d
000001a0: 5919 c73d 81eb 49bb dc7e 203c 47ab 4bbb
000001b0: 2f8f a73c a320 b0ba 9a7f 553c e690 89bc
000001c0: dcd2 043d 32c8 ea3b 9978 8fbc 9ff0 a53d
000001d0: 0398 cc3b 4b8d aa3d 4165 b93d 1c21 e7bc
000001e0: a1ce d0bc 0e36 903c 2f13 373c 13d8 903c
000001f0: 5870 c03d 679b 113d a0db 4b3c dbd3 5f3d

network_body.linear_encoder.seq_layers.2.weight f4 [128, 128]
-0.12579332 -0.07237294 0.05173042 -0.046633568 -0.074844666 -0.0639614 0.07645796 0.033609834
0.106849134 0.0300713 -0.031118674 0.20682336 -0.14596826 0.0015574617 0.04184227 0.11288175
-0.08568434 0.12449566 -0.071344726 0.15150915 -0.004880936 -0.14946815 0.11626914 -0.052796844
0.06024726 0.06835493 0.013698638 -0.15332165 -0.082357876 -0.015145675 -0.123729534 0.11476932
-0.10521815 0.083038315 -0.09011506 -0.108846344 -0.06243752 -0.03196901 -0.24865279 -0.079944864
-0.1832329 0.014448854 0.0608321 -0.0028760724 0.03717155 -0.11281735 -0.101064846 0.01337142
0.056868907 -0.11031328 -0.10680038 0.106151246 -0.018432725 0.15148439 -0.035838947 -0.0062552746
0.019072274 -0.02011893 0.046744365 -0.06393972 0.0003426031 -0.1492187 0.13215621 0.116363704
-0.011573547 -0.0025229033 -0.1590196 -0.040284496 0.031592917 -0.03983551 -0.023904264 -0.118428074
-0.014105748 -0.10940174 0.19675201 -0.027186256 -0.124032535 0.06385131 0.09666872 -0.07293781
0.040504932 -0.0701881 0.090167955 -0.051900283 -0.020531155 -0.077580325 0.073828556 -0.042225145
-0.047626197 0.15033865 -0.168228 0.14436114 -0.07395564 -0.053663876 -0.09815265 0.09054368
0.024999721 -0.09308882 0.2303873 -0.02240091 0.15123214 -0.08442635 0.0042943144 0.0806073
0.050789963 0.008330015 0.018741375 -0.06294683 -0.0749313 0.012115076 0.1251286 -0.21906137
-0.061545007 -0.14386508 0.031169262 -0.11254914 0.16926752 0.024457233 -0.059316143 -0.20114325
0.035652224 0.146906 -0.18960822 0.030644305 0.028417973 -0.14436562 0.071999684 0.106331974
0.01561186 0.12650211 -0.021662023 -0.13625157 -0.026473718 0.04452597 -0.054189943 -0.040563744
0.079343975 0.014788946 0.022922391 0.051862594 -0.043008074 -0.077315174 0.00018490427 0.02461742
0.033309024 0.055119555 -0.07346656 -0.09774486 -0.07511869 -0.033730693 -0.011999049 -0.010244122
0.014511856 0.03969694 -0.13653193 0.13331567 -0.10902655 -0.011846813 0.11387207 -0.042750996
0.08696087 0.08003782 0.04470098 -0.020476593 -0.025140336 0.06475647 0.13019025 -0.055734914
0.08118682 0.1443528 0.01787413 -0.024761181 0.08936651 0.095636316 -0.07099766 -0.06889419
-0.10188239 -0.07004971 0.029267367 0.23034096 0.16049752 -0.010745801 -0.0035787656 0.05723409
0.101273075 -0.17603105 -0.0046332176 -0.008343715 0.10543222 0.069509044 0.058035083 0.07183416
0.09571168 0.041455965 0.059657656 -0.20807217 -0.10549485 0.19235611 0.13428186 0.106211714
-0.04429875 0.0691292 -0.077175885 -0.045364257 -0.018236153 0.025157813 -0.10779296 -0.013562771
-0.027376177 -0.082288705 -0.04867148 -0.033790186 0.07461023 -0.14384739 0.13349968 0.028725734
-0.100806884 -0.018929599 0.067777745 -0.02330326 0.113401696 0.033604547 0.13176164 -0.053582516
-0.033083793 -0.02298651 0.024682805 -0.01377608 0.015313617 -0.05242745 0.043540653 0.07084341
0.06138062 0.14165361 0.0040951828 0.0015257172 0.097791746 0.06042138 0.09362023 -0.067426935
0.05829118 -0.0019532442 0.13827495 -0.050674558 0.07348405 -0.08867622 -0.057907432 -0.07897674
-0.10522379 0.05004673 -0.12884657 -0.11403802 0.11146483 0.058192622 0.0011789243 0.15142366
00000000: f7cf 00be 4438 94bd 47e3 533d d702 3fbd
00000010: 2948 99bd 32fe 82bd fe95 9c3d 77aa 093d
00000020: b8d3 da3d 1658 f63c 97ec febc 81c9 533e
00000030: b478 15be be23 cc3a cd62 2b3d 8c2e e73d
00000040: 457b afbd 95f7 fe3d 2f1d 92bd 3725 1b3e
00000050: 42f0 9fbb 2e0e 19be 841e ee3d 8141 58bd
00000060: d5c5 763d abfd 8b3d 4170 603c 5a00 1dbe
00000070: 3fab a8bd 9125 78bc e965 fdbd 2d0c eb3d
00000080: 9d7c d7bd fe0f aa3d 3f8e b8bd d5ea debd
00000090: 7cbe 7fbd f0f1 02bd d69e 7ebe 22ba a3bd
000000a0: 68a1 3bbe e3ba 6c3c 152b 793d 7d7c 3cbb
000000b0: 3241 183d c80c e7bd 16fb cebd cd13 5b3c
000000c0: 5fef 683d eeeb e1bd 28ba dabd d365 d93d
000000d0: 3a00 97bc b91e 1b3e dccb 12bd 0cf9 ccbb
000000e0: 753d 9c3c 74d0 a4bc 0577 3f3d d4f2 82bd
000000f0: 699f b339 c9cc 18be f553 073e 1850 ee3d
00000100: f99e 3dbc 4b57 25bb 09d6 22be 5b01 25bd
00000110: 9367 013d 8f2a 23bd e0d2 c3bc 6b8a f2bd
00000120: cc1b 67bc 050e e0bd 5c79 493e b6b5 debc
00000130: c504 febd 7ac4 823d 40fa c53d 6b60 95bd
00000140: 80e8 253d c7be 8fbd faa9 b83d 6495 54bd
00000150: f430 a8bc 6fe2 9ebd 6d33 973d 46f4 2cbd
00000160: b013 43bd 60f2 193e f643 2cbe 68d3 133e
00000170: 0e76 97bd a7ce 5bbd 4204 c9bd f76e b93d
00000180: 37cc cc3c 5aa5 bebd a6ea 6b3e 1d82 b7bc
00000190: 99dc 1a3e b9e7 acbd 52b7 8c3b 7115 a53d
000001a0: 2309 503d 9e7a 083c 8387 993c 45ea 80bd
000001b0: 9575 99bd 507e 463c b621 003e a051 60be
000001c0: 9e16 7cbd 5e51 13be ae56 ff3c 2a80 e6bd
000001d0: 7754 2d3e 895a c83c 7cf5 72bd 7ff8 4dbe
000001e0: 1108 123d 876e 163e a828 42be c409 fb3c
000001f0: cfcc e83c 95d4 13be 9274 933d 94c4 d93d
00000200: e3c8 7f3c c589 013e 8e74 b1bc 8885 0bbe
00000210: 69df d8bc dd60 363d 46f6 5dbd 2b26 26bd
00000220: 187f a23d 564d 723c bdc7 bb3c df6d 543d
00000230: 3c29 30bd 6b57 9ebd dde2 4139 79aa c93c
00000240: 0b6f 083d 0bc5 613d a375 96bd 752e c8bd
00000250: d4d7 99bd 3229 0abd a997 44bc f6d6 27bc
00000260: 23c3 6d3c 4299 223d 07cf 0bbe e783 083e
00000270: 5049 dfbd 2319 42bc c335 e93d ab1b 2fbd
00000280: 8a18 b23d deea a33d 6018 373d 87be a7bc
00000290: 1bf3 cdbc 0a9f 843d 9850 053e 4b4a 64bd
000002a0: 4745 a63d 38d1 133e c46c 923c f6d7 cabc
000002b0: ca05 b73d f9dc c33d 3967 91bd 6618 8dbd
000002c0: b7a7 d0bd 3976 8fbd 1ec2 ef3c 80de 6b3e
000002d0: 7659 243e 280f 30bc b989 6abb 4b6e 6a3d
000002e0: 4268 cf3d 7c41 34be 3fd2 97bb 14b4 08bc
000002f0: d9ec d73d c25a 8e3d 32b6 6d3d ca1d 933d
00000300: 7c04 c43d bbcd 293d 965b 743d df10 55be
00000310: af0d d8bd 00f9 443e 2f81 093e 8785 d93d
00000320: 9b72 35bd 9c93 8d3d 640e 9ebd dfcf 39bd
00000330: fc63 95bc c217 ce3c 8ec2 dcbd 6236 5ebc
00000340: 0144 e0bc fb86 a8bd bf5b 47bd 9467 0abd
00000350: 40cd 983d bb4c 13be 24b4 083e 3b52 eb3c
00000360: d773 cebd 3f12 9bbc 0fcf 8a3d 7ae6 bebc
00000370: 263f e83d eca4 093d 86ec 063e 5779 5bbd
00000380: df82 07bd 354e bcbc 9833 ca3c 11b5 61bc
00000390: f7e5 7a3c 2abe 56bd af57 323d 5a16 913d
000003a0: 3f6a 7b3d a50d 113e e230 863b 93fa c73a
000003b0: 0a47 c83d 697c 773d f7bb bf3d 2217 8abd
000003c0: bbc2 6e3d 0002 00bb f397 0d3e 2090 4fbd
000003d0: ce7e 963d e19b b5bd 5830 6dbd 8fbe a1bd
000003e0: 927f d7bd cdfd 4c3d 5bf0 03be c48c e9bd
000003f0: ac47 e43d 635b 6e3d 2386 9a3a ce0e 1b3e
